TFLite-model/01a_LeNet-MNIST_Q-none.tflite (tflite, 327952 bytes, 10 tensors)

sequential_2/conv2d_4/BiasAdd/ReadVariableOp f4 [6]
0.0008987397 -0.0005037123 -0.0032069408 -0.001049726 0.003987164 0.0012942064
00000000: 6699 6b3a 8f0b 04ba 8a2b 52bb f696 89ba
00000010: c1a6 823b 5ca2 a93a

sequential_2/conv2d_5/BiasAdd/ReadVariableOp f4 [16]
0.05309811 -0.0009718408 0.009949643 -0.06723859 0.029258871 -0.009511186 0.04815841 -0.034356635
0.060227416 -0.031270083 0.07956031 0.12519534 -0.0022043495 -0.00033225416 -0.0012609498 0.0025260192
00000000: 677d 593d 22c3 7eba d403 233c 63b4 89bd
00000010: 4db0 ef3c ced4 1bbc c141 453d 8bb9 0cbd
00000020: 06b1 763d 0f15 00bd 84f0 a23d 3533 003e
00000030: d976 10bb 6632 aeb9 7446 a5ba 928b 253b

sequential_2/dense_6/BiasAdd/ReadVariableOp f4 [120]
-0.00875899 0.021432286 0.012317392 0.027843548 0.03686377 -0.018813562 -0.055370085 0.04096505
0.03955887 0.06104297 -0.008385903 0.032970287 0.03778194 0.07437012 -0.008291744 -0.022525711
0.016178573 0.06119164 0.04975137 0.0004575689 0.038688343 0.025360221 0.041905317 -0.025367316
-0.01096764 0.022624582 0.037798673 0.06098486 0.068840414 -0.00928692 0.024334295 -0.03334161
0.031093435 0.006297465 7.181325e-05 -0.0066034338 0.016266504 0.011760957 -0.015859844 0.028655393
0.028558152 -0.005801351 -0.018280072 0.019812 0.019682676 0.01749308 -0.021399062 -0.0012385091
0.0339517 0.014455707 0.01552708 0.0029388382 -0.021648088 -0.019049648 0.035257198 0.010313577
0.03390617 -0.017332768 0.04875012 0.029539226 0.041603155 0.024602301 0.040802207 -0.017893555
0.021952238 -0.032350894 0.0124082295 0.047268417 0.023083806 0.07042131 0.020209588 -0.0011575215
0.05704352 -0.030484112 0.0049096765 -0.015012565 -0.044906646 0.051639345 0.022667933 0.049042676
-0.0017489399 0.04126593 -0.006664932 0.052893434 0.040543634 -0.017281855 0.017516868 0.025725372
0.032505624 0.038858306 -0.021738347 -0.0017587924 0.0011377748 7.07413e-05 -0.00030293225 0.03996805
0.04524526 -0.017926848 0.042944517 -0.022001058 0.016042031 0.047244564 -0.018330676 -0.017181572
0.007835922 0.020176323 0.065491125 0.047444656 0.013458588 0.0071458514 0.005017254 0.0034408558
0.04848328 -0.023445947 0.062488038 0.006686002 0.027586546 0.04344371 -0.022473764 0.01327349
00000000: de81 0fbc c392 af3c e3ce 493c 2718 e43c
00000010: 77fe 163d e61e 9abc becb 62bd f8ca 273d
00000020: 7b08 223d 3108 7a3d 0765 09bc da0b 073d
00000030: 3cc1 1a3d 5d4f 983d 18da 07bc d787 b8bc
00000040: ed88 843c 16a4 7a3d 18c8 4b3d dce5 ef39
00000050: ab77 1e3d 3dc0 cf3c e9a4 2b3d 1ecf cfbc
00000060: 9eb1 33bc 3057 b93c c8d2 1a3d 43cb 793d
00000070: 34fc 8c3d 2a28 18bc b758 c73c 3691 08bd
00000080: a9b7 fe3c f75a ce3b 729a 9638 9e61 d8bb
00000090: 5541 853c 07b1 403c 81ec 81bc b7be ea3c
000000a0: c9f2 e93c 4219 bebb 17c0 95bc c74c a23c
000000b0: 903d a13c a64d 8f3c 164d afbc 7855 a2ba
000000c0: f010 0b3d a1d7 6c3c 4b65 7e3c 8699 403b
000000d0: 5557 b1bc 020e 9cbc da69 103d 47fa 283c
000000e0: 32e1 0a3d 73fd 8dbc 35ae 473d 3ffc f13c
000000f0: 1268 2a3d c48a c93c 3720 273d 8195 92bc
00000100: 2ed5 b33c 5f82 04bd e34b 4b3c 879c 413d
00000110: 401a bd3c 0c39 903d 948e a53c fab7 97ba
00000120: 77a6 693d d1b9 f9bc 5ae1 a03b 43f7 75bc
00000130: 08f0 37bd c783 533d 1ab2 b93c f9e0 483d
00000140: af3c e5ba 7706 293d 8065 dabb c9a6 583d
00000150: 1511 263d ad92 8dbc 897f 8f3c 04be d23c
00000160: 9e24 053d e329 1f3d 9e14 b2bc 4887 e6ba
00000170: 6321 953a f25a 9438 e1d2 9eb9 8ab5 233d
00000180: 1853 393d 53db 92bc 97e6 2f3d 903b b4bc
00000190: 946a 833c 8483 413d 372a 96bc 5ec0 8cbc
000001a0: 3d62 003c d148 a53c 3620 863d 5455 423d
000001b0: 6981 5c3c bf27 ea3b c767 a43b fb7f 613b
000001c0: 6796 463d b711 c0bc 75f3 7f3d 4016 db3b
000001d0: 2efd e13c 08f2 313d e61a b8bc 0d79 593c

sequential_2/dense_7/BiasAdd/ReadVariableOp f4 [84]
0.006119469 0.016194051 -0.025684485 0.03605048 0.07216252 0.016770726 0.08020303 -0.0014415771
-0.020636741 0.018694492 -0.027950972 0.011207561 0.0695967 -0.007901077 -0.021769134 0.040177573
-0.013607085 0.024301147 -0.01974569 0.0654099 -0.006636407 0.08010111 0.022831699 -0.06663606
-0.0040616216 -0.048407406 -0.024571287 0.07768761 0.055743694 0.013233485 0.04562955 0.05891829
0.0048536886 0.0038716586 0.031355053 -0.022254487 0.0060506565 -0.045399684 -0.04932941 0.0133777065
-0.0048411293 0.021622865 0.055031434 -0.019224023 0.027815143 0.012407366 0.054991134 0.038028337
0.025670473 0.015098376 0.029801445 0.028187603 0.06565261 -0.022553734 0.019771256 -0.025672276
0.06279352 0.04957311 0.04770748 -0.018249407 0.04033238 0.032014072 0.017930618 -0.01941063
-0.022473367 0.016756302 0.04724231 0.04728205 -0.024266912 0.016025802 0.0126990415 0.057890393
-0.0035553395 -0.01454712 0.050793376 0.049773443 -0.018232437 0.038776506 0.047504596 -0.01317884
-0.0313047 -0.038465165 -0.039959926 0.008350995
00000000: d485 c83b 63a9 843c 4568 d2bc aba9 133d
00000010: f1c9 933d c362 893c 7c41 a43d 4df3 bcba
00000020: 620e a9bc 3125 993c 70f9 e4bc eb9f 373c
00000030: b788 8e3d 8573 01bc 2f55 b2bc 3d91 243d
00000040: 40f0 5ebc 3313 c73c b7c1 a1bc a0f5 853d
00000050: 3876 d9bb 0d0c a43d 8b09 bb3c 7d78 88bd
00000060: 5a17 85bb d846 46bd b949 c9bc af1a 9f3d
00000070: 8053 643d 42d1 583c 0de6 3a3d 4e54 713d
00000080: b10b 9f3b a7bb 7d3b 286e 003d 0b4f b6bc
00000090: 9644 c63b 05f5 39bd a30d 4abd 2b2e 5b3c
000000a0: 56a2 9ebb 6f22 b13c a468 613d b37b 9dbc
000000b0: 95dc e33c 4448 4b3c 623e 613d 9ac3 1b3d
000000c0: e24a d23c 2e5f 773c 2922 f43c b0e9 e63c
000000d0: e074 863d 9cc2 b8bc 54f7 a13c aa4e d2bc
000000e0: e499 803d 2c0d 4b3d eb68 433d c87f 95bc
000000f0: 9133 253d 3021 033d 3be3 923c 0b03 9fbc
00000100: 111a b8bc 8344 893c 2781 413d d3aa 413d
00000110: 67cb c6bc 8b48 833c a40f 503c 7a1e 6d3d
00000120: b300 69bb 0b57 6ebc b70c 503d 3ddf 4b3d
00000130: 315c 95bc 1dd4 1e3d 2e94 423d 10ec 57bc
00000140: 5b39 00bd a68d 1dbd 05ad 23bd 9dd2 083c

sequential_2/dense_8/BiasAdd/ReadVariableOp f4 [10]
-0.046384085 0.015264949 -0.049057577 -0.050104752 0.035102453 0.05200245 -0.01185398 0.031104024
-0.011318215 0.010643547
00000000: 3dfd 3dbd d619 7a3c 99f0 48bd a43a 4dbd
00000010: 97c7 0f3d 8500 553d 3237 42bc decd fe3c
00000020: 0970 39bc 4662 2e3c

sequential_2/dense_6/MatMul f4 [120, 576]
-0.010135996 -0.084289454 -0.08854062 0.058699794 -0.091388576 0.039121527 -0.044974893 -0.04732332
-0.05408271 0.09791212 0.062261265 -0.003972333 0.047438245 0.043615222 -0.05901687 -0.0814361
-0.10842685 0.025901804 -0.032912243 -0.002443273 0.025828926 0.0029625797 0.11767018 -0.019881265
-0.076411396 0.09168972 0.12307056 -0.06686135 0.11681205 -0.06772767 0.057183277 -0.0009028731
-0.05057381 0.05144413 -0.06458546 -0.059787173 0.055754352 0.096652515 -0.018114371 0.051394936
0.08316942 -0.06389425 0.034037627 0.0150989005 0.037621316 -0.095170744 -0.024285503 0.031894617
0.056658387 0.124119624 0.06421072 0.09813449 -0.002335779 0.0027104088 -0.033829227 0.02555391
-0.007539967 -0.040505826 -0.021870267 -0.024403207 0.05514917 0.02756111 0.065808035 0.06924861
0.05455579 0.04487823 0.11386272 0.101396285 0.060946245 0.033106793 -0.02212443 -0.014899216
-0.013373767 0.082515575 -0.058201984 0.081945874 -0.0036038233 0.045832105 -0.020879485 0.14600834
0.07395416 -0.0023065822 -0.038313616 -0.047453325 -0.016460823 0.041290488 0.02715156 -0.089514844
0.06453451 -0.03209111 -0.044275228 0.0988885 0.028859617 0.06251356 0.01958168 -0.008487465
-0.032624643 -0.0955675 0.011052154 -0.039068505 0.050819237 -0.053707976 -0.023026207 0.056222517
0.07541324 0.09814012 0.030745627 -0.023651548 -0.10011973 0.015365495 0.050787482 -0.06425391
-0.04165455 0.101009816 -0.09345221 0.042595282 0.12907068 -0.0119632995 -0.04753643 0.10558664
-0.008659491 -0.020685349 0.080511354 0.018959956 0.0058324877 0.036685776 0.038325056 -0.03963338
-0.12379572 0.07609456 0.041751295 0.011596675 0.048183702 -0.033120826 -0.067268424 0.016784139
0.06658034 0.022728764 0.13732377 -0.16868614 0.0047359285 0.07137245 0.09841527 0.04137613
-0.083856165 -0.053099405 0.099550135 -0.017223673 0.06475654 -0.039056428 0.091320045 0.048018355
0.041753165 -0.045923766 0.04078281 -0.12051929 0.058288645 0.07325939 0.013563371 0.0117926
0.055459514 0.08627912 0.033598103 0.004614064 -0.03094693 0.095070705 -0.03577167 -0.20188724
0.02333779 -0.011756586 0.12890595 -0.041739147 0.059358235 0.04696644 -0.03355159 0.060160775
0.16384207 0.038147658 0.10599218 -0.10984994 -0.07953538 -0.08885361 0.05328093 -0.3194595
0.0435955 0.052298628 -0.014260781 0.051749606 -0.01570392 0.075018674 0.078303084 0.03057888
-0.084679484 0.030469736 0.004894451 0.039689504 0.0044044866 0.08265487 0.0912715 0.033584543
0.0019123028 0.059689857 0.09061496 0.049610436 -0.041452933 -0.09044929 0.12669691 -0.04413423
0.02180096 0.04254503 0.11031283 -0.022486057 -0.015473556 0.03659694 0.007177918 0.058187466
0.0530995 0.05605259 -0.22087948 0.067695156 -0.1021707 -0.09649699 -0.04046338 0.06490079
0.008490068 -0.053144034 0.0656969 0.042750742 0.114092335 0.0031825486 -0.031225374 0.0300981
0.1074303 0.0020796126 0.07591833 0.118900314 -0.07065357 -0.009347908 0.059805665 0.06398293
-0.06263271 0.09748791 -0.054095913 0.105049446 0.16167961 -0.0083185155 0.018978963 -0.075502716
0.0844748 -0.053369015 0.24958065 -0.2685607 0.007615853 0.013979272 -0.041005224 0.06883154
00000000: 7311 26bc f39f acbd c954 b5bd 326f 703d
00000010: ef29 bbbd e53d 203d 9837 38bd 19d6 41bd
00000020: d585 5dbd 2686 c83d ab05 7f3d 582a 82bb
00000030: 9b4e 423d e0a5 323d acbb 71bd f8c7 a6bd
00000040: e50e debd 0530 d43c fdce 06bd 521f 20bb
00000050: 2f97 d33c d727 423b 10fd f03d 09de a2bc
00000060: 947d 9cbd d2c7 bb3d 6b0c fc3d 9aee 88bd
00000070: 283b ef3d ceb4 8abd 0339 6a3d caae 6cba
00000080: 7c26 4fbd 14b7 523d 6245 84bd 65e3 74bd
00000090: ad5e 643d c1f1 c53d 9764 94bc 7f83 523d
000000a0: bb54 aa3d fdda 82bd 0a6b 0b3d 6161 773c
000000b0: cf18 1a3d e1e8 c2bd 64f2 c6bc eea3 023d
000000c0: a012 683d 6e32 fe3d e980 833d bcfa c83d
000000d0: de13 19bb 1da1 313b 8490 0abd 6f56 d13c
000000e0: d411 f7bb 70e9 25bd 4629 b3bc 3ce9 c7bc
000000f0: 19e4 613d d6c7 e13c 5dc6 863d 37d2 8d3d
00000100: e475 5f3d 3cd2 373d dc30 e93d dba8 cf3d
00000110: c5a2 793d fd9a 073d 4b3e b5bc d71b 74bc
00000120: a51d 5bbc edfd a83d 3465 6ebd 3dd3 a73d
00000130: 1f2e 6cbb 72ba 3b3d 740b abbc 3683 153e
00000140: 4775 973d 072a 17bb bdee 1cbd 6b5e 42bd
00000150: d9d8 86bc 3720 293d f36c de3c 8f53 b7bd
00000160: ab2a 843d f871 03bd f159 35bd 0e86 ca3d
00000170: 016b ec3c 1c07 803d c269 a03c 020f 0bbc
00000180: 6ba1 05bd e5b8 c3bd 1814 353c 4c06 20bd
00000190: d527 503d e5fc 5bbd 75a1 bcbc 9549 663d
000001a0: 4272 9a3d b0fd c83d 41de fb3c e4c0 c1bc
000001b0: 930b cdbd 8fbf 7b3c 8906 503d 8e97 83bd
000001c0: f69d 2abd 3cde ce3d df63 bfbd 6478 2e3d
000001d0: 1b2b 043e b701 44bc 8fb5 42bd cf3d d83d
000001e0: 8ae0 0dbc 5274 a9bc 23e3 a43d e951 9b3c
000001f0: 741e bf3b d343 163d bcfa 1c3d 9c56 22bd
00000200: 9c88 fdbd 77d7 9b3d 6803 2b3d fbff 3d3c
00000210: 465c 453d b4a9 07bd 07c4 89bd e47e 893c
00000220: 465b 883d ac31 ba3c 9a9e 0c3e 0fbc 2cbe
00000230: d92f 9b3b b82b 923d f28d c93d 047a 293d
00000240: c8bc abbd c37e 59bd f1e0 cb3d a918 8dbc
00000250: 149f 843d a2f9 1fbd 0106 bb3d e5ae 443d
00000260: 5e05 2b3d 8f1a 3cbd e00b 273d d1d2 f6bd
00000270: 13c0 6e3d 0509 963d e738 5e3c c035 413c
00000280: 8429 633d 1bb3 b03d 2a9e 093d 9331 973b
00000290: 6b84 fdbc 6eb4 c23d 5185 12bd 87bb 4ebe
000002a0: e52e bf3c b29e 40bc ecff 033e abf6 2abd
000002b0: 9f21 733d e25f 403d 646d 09bd 256b 763d
000002c0: 37c6 273e b840 1c3d 6e12 d93d 01f9 e0bd
000002d0: 72e3 a2bd e2f8 b5bd 1b3d 5a3d 3290 a3be
000002e0: 3291 323d 1637 563d 0da6 69bc 65f7 533d
000002f0: 82a5 80bc 64a3 993d 5e5d a03d 8f80 fa3c
00000300: 706c adbd ab9b f93c a161 a03b 7691 223d
00000310: 8353 903b f546 a93d 8dec ba3d f28f 093d
00000320: 3ca6 fa3a 5a7d 743d 5694 b93d 5034 4b3d
00000330: 8dca 29bd 7a3d b9bd d6bc 013e 18c6 34bd
00000340: ed97 b23c b343 2e3d b1eb e13d ae34 b8bc
00000350: cc84 7dbc ace6 153d be34 eb3b fb55 6e3d
00000360: dc7e 593d 6797 653d 3b2e 62be c2a3 8a3d
00000370: df3e d1bd 37a0 c5bd eebc 25bd b5ea 843d
00000380: ed19 0b3c 8fad 59bd 198c 863d 671b 2f3d
00000390: 3ea9 e93d 4e92 503b 5bcc ffbc 4a90 f63c
000003a0: 6b04 dc3d 1c4a 083b 127b 9b3d 0282 f33d
000003b0: d2b2 90bd f827 19bc c9f6 743d 7b09 833d
000003c0: 9445 80bd bea7 c73d ad93 5dbd 2a24 d73d
000003d0: 578f 253e 624a 08bc c579 9b3c 2ba1 9abd
000003e0: 2001 ad3d 7899 5abd 1292 7f3e ca80 89be
000003f0: 688e f93b 5109 653c 18f5 27bd 8df7 8c3d

sequential_2/dense_7/MatMul f4 [84, 120]
0.08705308 -0.20568419 -0.20620316 0.08485308 0.13762368 0.04158564 -0.1811348 0.17742947
0.109453835 -0.11418912 0.12224393 -0.0066943145 0.043100826 0.2656181 0.22568054 0.03057498
0.0128766475 -0.040069427 0.24689177 0.1590094 0.20611882 0.16252476 -0.10149189 0.07368359
0.05800045 -0.11457504 -0.018664822 0.04616987 0.044430863 -0.033138033 0.17490885 0.21881406
-0.028668704 0.007966488 -0.06776804 -0.053451106 -0.20449847 -0.0068316255 0.006816104 -0.16919188
-0.05825083 -0.27112994 0.17329107 -0.04940455 0.08572147 -0.36673796 -0.015193308 0.22447984
0.051386368 -0.18257122 0.12400629 0.18957378 -0.08671075 -0.14970969 0.082051985 -0.17919527
-0.12574328 -0.0974903 0.2014743 -0.038593166 0.122234 0.05802243 -0.13127203 0.11231741
0.071515515 -0.14340335 -0.1278272 0.061788276 -0.007899169 -0.10530471 0.14202903 -0.18607108
-0.04104167 -0.14395854 -0.13213031 0.14002992 0.047161993 0.2192073 0.08564428 -0.07310422
-0.19944906 0.044917163 0.12834965 -0.051433243 0.10004734 0.113517836 -0.19577599 0.16806185
-0.07871114 0.07926345 -0.08982649 0.1148299 -0.05489565 -0.2529118 -0.052740958 -0.101405606
0.2323999 -0.16373414 -0.06165203 -0.04861033 -0.14157937 -0.027319862 0.07379074 0.048974738
0.13215007 0.0434106 0.12964332 0.17952405 0.19786593 0.052318804 0.14052454 -0.018490965
-0.12509054 0.15923442 -0.101458676 -0.16475964 0.18174565 0.055640273 -0.032083075 0.11654708
-0.04576663 -0.093059726 -0.009120474 -0.07402801 -0.10751008 -0.045877293 0.18255495 0.08409662
-0.00214571 -0.08239949 0.11164998 -0.0175109 0.17582075 -0.010162786 0.24302727 -0.052680865
-0.044689067 0.08568099 -0.08286187 -0.15710261 0.04384968 0.03783641 -0.21286495 0.16952567
0.19338354 -0.15110716 0.16151007 -0.012799666 0.19815782 0.038300443 0.10312822 -0.09707882
-0.14728506 0.06435317 -0.054529298 0.068728134 0.18231282 -0.26777428 0.029901408 -0.23357086
-0.14901094 0.22981885 0.057444952 0.044922154 -0.10607092 -0.05473978 0.122530036 -0.15443154
0.04506344 0.033166476 -0.14985318 -0.12661257 0.063753754 -0.035608597 -0.059609834 -0.050304886
-0.16062087 -0.042570964 -0.20899588 0.10080513 -0.12364027 -0.03754528 -0.089563146 -0.010010442
0.13222502 0.16223098 -0.2979536 0.16732123 -0.17320447 0.13265449 -0.038640037 -0.12802827
0.015360986 -0.047807805 0.09838579 0.22711332 -0.05227222 0.07750795 0.056109983 0.116302095
0.13603732 0.04808197 0.06735912 -0.0124705685 0.013886081 0.07985948 0.03567938 0.10592926
0.09100229 0.15690313 -0.043009944 0.04929781 0.008255627 -0.1324391 0.023064032 -0.11309058
-0.073188715 0.08391755 0.15672413 -0.1490921 0.09626115 0.09655518 0.16922314 0.08632825
0.011133519 0.10815355 -0.15977858 0.19155358 0.023639703 0.24634954 0.054028835 -0.0064021396
0.18592404 0.15497683 0.045046184 -0.15396409 0.021150647 -0.19798434 -0.0721631 0.0910638
-0.011662792 -0.04068606 0.021587862 -0.17330837 -0.041198224 -0.04079923 0.054987982 0.14685078
-0.14987043 -0.032771237 0.017673692 -0.02892875 -0.03977178 0.06885977 0.089190006 0.047758937
00000000: e348 b23d e09e 52be ec26 53be 74c7 ad3d
00000010: 39ed 0c3e b455 2a3d 677b 39be 12b0 353e
00000020: 5529 e03d fcdb e9bd 075b fa3d fb5b dbbb
00000030: 7e8a 303d 18ff 873e cd18 673e 6178 fa3c
00000040: 93f8 523c d71f 24bd 32d1 7c3e 5cd3 223e
00000050: d010 533e e46c 263e fbda cfbd 6ce7 963d
00000060: e191 6d3d 52a6 eabd f8e6 98bc 9e1c 3d3d
00000070: 23fd 353d bfbb 07bd 4e1b 333e cb10 603e
00000080: a1da eabc df85 023c f8c9 8abd 8cef 5abd
00000090: 0c68 51be d4db dfbb a059 df3b a340 2dbe
000000a0: 6c98 6ebd 8bd1 8abe 3773 313e 6d5c 4abd
000000b0: bd8e af3d 14c5 bbbe 5aed 78bc 0bde 653e
000000c0: 837a 523d f3f3 3abe 03f7 fd3d a11f 423e
000000d0: 6895 b1bd 7f4d 19be df0a a83d f77e 37be
000000e0: d9c2 00be ffa8 c7bd 474f 4e3e de13 1ebd
000000f0: d255 fa3d eda8 6d3d 2d6c 06be ac06 e63d
00000100: ba76 923d 54d8 12be 22e5 02be b415 7d3d
00000110: 846b 01bc ffa9 d7bd 0f70 113e 6b89 3ebe
00000120: 4f1b 28bd de69 13be 2b4d 07be 0164 0f3e
00000130: ef2c 413d e177 603e 4566 af3d aab7 95bd
00000140: 603c 4cbe 0ffb 373d 176e 033e aaab 52bd
00000150: 9fe5 cc3d 0a7c e83d 8079 48be 6818 2c3e
00000160: 4e33 a1bd e054 a23d f3f6 b7bd f02b eb3d
00000170: 43da 60bd a87d 81be e706 58bd bead cfbd
00000180: 3dfa 6d3e eca9 27be d786 7cbd a01b 47bd
00000190: 2ffa 10be e7cd dfbc 991f 973d bc99 483d
000001a0: 5952 073e 50cf 313d 38c1 043e 27d5 373e
000001b0: 5e9d 4a3e 3e4c 563d aae5 0f3e 5d7a 97bc
000001c0: bc17 00be 590e 233e 91c9 cfbd c0b6 28be
000001d0: 881b 3a3e 0ee7 633d 8b69 03bd 3cb0 ee3d
000001e0: ca75 3bbd 1996 bebd 0a6e 15bc ff9b 97bd
000001f0: 3f2e dcbd d4e9 3bbd afef 3a3e d93a ac3d
00000200: 0a9f 0cbb 10c1 a8bd bfa8 e43d 0573 8fbc
00000210: 5b0a 343e d081 26bc 24dc 783e e4c7 57bd
00000220: e20b 37bd 8479 af3d 7cb3 a9bd 82df 20be
00000230: b99b 333d 5afa 1a3d 45f9 59be 2398 2d3e
00000240: 5606 463e d6bb 1abe e562 253e b1b5 51bc
00000250: e2e9 4a3e ede0 1c3d e334 d33d 43d1 c6bd
00000260: e5d1 16be 98cb 833d 1d5a 5fbd 56c1 8c3d
00000270: 36b0 3a3e b619 89be ccf3 f43c 332d 6fbe
00000280: 5396 18be a255 6b3e 664b 6b3d 4b00 383d
00000290: b63b d9bd d236 60bd 07f1 fa3d 4d23 1ebe
000002a0: 7194 383d 92d9 073d 1d73 19be baa6 01be
000002b0: 5491 823d 52da 11bd 7129 74bd 7f0c 4ebd
000002c0: cc79 24be e45e 2ebd 0403 56be ec72 ce3d
000002d0: 1c37 fdbd 14c9 19bd e26c b7bd d602 24bc
000002e0: ff65 073e e11f 263e 608d 98be 4256 2b3e
000002f0: 835c 31be 94d6 073e 0445 1ebd d819 03be
00000300: a5ac 7b3c 1ed2 43bd 7d7e c93d 6590 683e
00000310: 651b 56bd 7dbc 9e3d 95d3 653d cb2f ee3d
00000320: 5e4d 0b3e 9af1 443d 94f3 893d 5b51 4cbc
00000330: 7282 633c 5e8d a33d 8b24 123d 71f1 d83d
00000340: 695f ba3d 37ab 203e 322b 30bd 80ec 493d
00000350: 9c42 073c 1e9e 07be c8f0 bc3c 099c e7bd
00000360: f7e3 95bd f7dc ab3d 4a7c 203e 99ab 18be
00000370: 9124 c53d b9be c53d d548 2d3e decc b03d
00000380: 5d69 363c 9c7f dd3d ff9c 23be 9f26 443e
00000390: 0da8 c13c 0e43 7c3e 574d 5d3d 0ac9 d1bb
000003a0: df62 3e3e 3fb2 1e3e 5982 383d c3a8 1dbe
000003b0: 1f44 ad3c 68bc 4abe 3fca 93bd a87f ba3d
000003c0: 4c15 3fbc 6da6 26bd 07d9 b03c c077 31be
000003d0: 78bf 28bd 181d 27bd 143b 613d 0d60 163e
000003e0: a277 19be 223b 06bd 6bc8 903c fcfb ecbc
000003f0: bce7 22bd 5a06 8d3d 40a9 b63d e09e 433d

sequential_2/dense_8/MatMul f4 [10, 84]
0.11821035 -0.42254618 0.03842833 -0.08964141 -0.0870482 -0.28970885 -0.036323793 -0.37187394
0.0706189 0.007250374 0.0817331 0.22043476 0.3068474 0.30794057 0.102560095 -0.22843866
0.09283809 -0.1295451 0.14362663 0.290997 0.19924903 0.23290177 0.21089761 -0.24787045
0.24550939 0.26963356 -0.14002392 -0.06862946 -0.15055464 -0.19172227 -0.2913573 -0.2658703
-0.11606384 -0.12672265 -0.07675377 0.038444255 0.1646387 0.18207234 -0.2606368 0.36998403
0.09253472 -0.027761005 -0.16877525 -0.19458045 -0.14548016 0.20903802 -0.01507488 -0.0051588416
-0.7080193 -0.19179204 -0.10787248 -0.120041534 0.28510657 0.14929165 -0.14652619 -0.13558413
0.1487244 -0.14135729 0.34100348 -0.023003584 -0.27296367 -0.3993063 -0.11341436 0.18407232
0.21938843 0.34307674 -0.3118069 -0.07788487 0.24176686 0.095736146 0.23073389 -0.13184658
-0.12869684 0.22710766 -0.26755327 0.17968212 -0.17383923 -0.3505553 0.13705882 0.05356025
0.16442822 -0.06319614 -0.13673678 0.07915816 0.035485465 0.096541874 0.17965032 0.28671104
0.36245933 -0.22610228 -0.26892203 0.53712523 -0.15595196 -0.3100645 -0.22604795 0.20673868
0.2680247 0.10414196 -0.015324081 0.17620489 -0.124446735 -0.17073041 0.097802155 0.06646394
-0.22061373 0.2622196 -0.19291443 -0.14920235 0.20812671 -0.25951645 -0.04862103 -0.15684919
0.42423353 0.10310192 0.19370832 0.0047965343 0.01632113 -0.19699873 -0.21197407 0.16529268
0.03688061 0.7474683 -0.2942912 0.3069985 0.24981931 0.42519057 0.23767231 -0.20283678
0.33500382 0.12382352 -0.33977515 0.11006714 0.1917269 0.052966233 0.1493024 -0.02532139
0.10189449 -0.120402865 -0.25703403 -0.020248076 0.099188104 0.15115474 0.031695798 -0.15059376
0.15703206 0.2497874 -0.04403865 -0.012651706 -0.2196226 -0.16924179 0.28759488 0.11699207
0.082518466 -0.31920812 0.25386816 0.01696585 -0.2565479 -0.16644487 -0.22235894 0.07759509
-0.03573836 0.1758924 0.24314399 -0.36268172 0.17660342 -0.082127556 0.21897408 0.09952751
-0.014209788 0.12375019 -0.13650587 0.32283372 0.19185245 -0.07335386 -0.270183 0.115725696
0.12647149 0.3070251 0.26749152 -0.031805146 -0.3007249 -0.2298752 0.020545976 -0.24379209
-0.16994879 -0.21526344 0.03953191 -0.0010987335 0.2211672 0.29226524 -0.08272619 0.5698446
0.19505377 -0.10507227 -0.033650745 -0.24171296 -0.5746903 0.09035466 -0.21681845 -0.17594257
0.20759614 0.03362058 -0.30077615 0.1910141 -0.010030476 0.007690136 0.089667186 0.17702317
-0.06677884 -0.15696527 0.2888662 0.08169294 -0.08616625 0.28636122 0.19259496 0.19600643
0.11723478 0.2184741 0.041906334 0.2884904 -0.12402526 0.23250595 -0.023232741 -0.23907645
-0.14914705 -0.086476415 -0.3018083 0.093317226 0.1983524 -0.12360173 -0.091192216 0.19560696
0.018405642 0.26441136 0.22308728 -0.2953124 0.24695766 -0.14982139 0.1835161 -0.056513
0.21653761 0.08954682 0.17761222 -0.24308532 -0.07760894 -0.102372065 -0.056624293 0.18714224
-0.11082016 0.011233298 -0.02663748 -0.028005688 -0.11657392 0.09357286 0.014465096 -0.1724814
00000000: 4518 f23d f957 d8be 0667 1d3d ea95 b7bd
00000010: 5446 b2bd b854 94be 42c8 14bd 4366 bebe
00000020: a4a0 903d 8c94 ed3b af63 a73d a6b9 613e
00000030: 1a1b 9d3e 63aa 9d3e 070b d23d d3eb 69be
00000040: e621 be3d 78a7 04be dc12 133e 8ffd 943e
00000050: f007 4c3e cd7d 6e3e 8bf5 573e c0d1 7dbe
00000060: d066 7b3e 690d 8a3e 6e62 0fbe 9a8d 8cbd
00000070: ff2a 1abe d852 44be c92c 95be 2720 88be
00000080: e1b2 edbd 95c3 01be 1531 9dbd b977 1d3d
00000090: 0c97 283e 2c71 3a3e 3072 85be 8c6e bd3e
000000a0: d882 bd3d 0c6b e3bc 6bd3 2cbe 1940 47be
000000b0: c0f8 14be 100e 563e a1fc 76bc 800b a9bb
000000c0: c140 35bf 2265 44be 3fec dcbd 56d8 f5bd
000000d0: 7df9 913e e9df 183e f60a 16be 91d6 0abe
000000e0: 364b 183e f7bf 10be 0298 ae3e 0372 bcbc
000000f0: e5c1 8bbe e071 ccbe ca45 e8bd 747d 3c3e
00000100: 5ca7 603e c1a7 af3e 27a5 9fbe 1a82 9fbd
00000110: bb91 773e 5011 c43d 8145 6c3e ca02 07be
00000120: 1bc9 03be e98e 683e befc 88be 97fe 373e
00000130: e902 32be fc7b b3be 2659 0c3e fe61 5b3d
00000140: df5f 283e fa6c 81bd ba04 0cbe ac1d a23d
00000150: 3559 113d bfb7 c53d 41f6 373e cacb 923e
00000160: 4594 b93e 5b87 67be 26b0 89be 0a81 093f
00000170: dfb1 1fbe c6c0 9ebe 1d79 67be 4eb3 533e
00000180: 893a 893e 6148 d53d db11 7bbc 0e6f 343e
00000190: eedd febd f4d3 2ebe 7f4c c83d 3f1e 883d
000001a0: 91e8 61be a641 863e 5c8b 45be 80c8 18be
000001b0: 2b1f 553e 57df 84be d826 47bd 139d 20be
000001c0: 2335 d93e 1927 d33d 795b 463e 3f2c 9d3b
000001d0: e4b3 853c 09ba 49be bb0f 59be 7c42 293e
000001e0: 1f10 173d 155a 3f3f 56ad 96be e82e 9d3e
000001f0: a2d0 7f3e 94b2 d93e 5f60 733e 72b4 4fbe
00000200: 9f85 ab3e 3097 fd3d 02f7 adbe e16a e13d
00000210: 0e54 443e 1ff3 583d bae2 183e ce6e cfbc
00000220: 0fae d03d c795 f6bd f799 83be 4bdf a5bc
00000230: 2223 cb3d 4fc8 1a3e 74d3 013d 4035 1abe
00000240: 03cd 203e 45c8 7f3e df61 34bd 1a49 4fbc
00000250: bfe4 60be b84d 2dbe a33f 933e 8a99 ef3d
00000260: 71ff a83d 3f6f a3be 02fb 813e f7fb 8a3c
00000270: 3f5a 83be 8670 2abe 10b2 63be 2dea 9e3d
00000280: 6362 12bd 231d 343e bdfa 783e 6bb1 b9be
00000290: 87d7 343e 7e32 a8bd be3a 603e 14d5 cb3d
000002a0: 2cd0 68bc bd70 fd3d 32c8 0bbe 764a a53e
000002b0: f874 443e 8c3a 96bd 6d55 8abe 9801 ed3d
000002c0: be81 013e 6532 9d3e a6f4 883e 1d46 02bd
000002d0: 9df8 99be 6864 6bbe 0950 a83c a2a4 79be
000002e0: 0e07 2ebe 056e 5cbe 36ec 213d 6103 90ba
000002f0: a879 623e caa3 953e 596c a9bd 56e1 113f
00000300: 2dbc 473e 2130 d7bd 5dd5 09bd 9a83 77be
00000310: e71e 13bf dd0b b93d a805 5ebe 4a2a 34be
00000320: 1594 543e bcb5 093d 55ff 99be 3399 433e
00000330: de56 24bc 89fd fb3b 6ea3 b73d 9045 353e
00000340: 58c3 88bd 81bb 20be 45e6 933e a14e a73d
00000350: ee77 b0bd f09d 923e 9d37 453e e9b5 483e
00000360: ca18 f03d adb7 5f3e faa5 2b3d 04b5 933e
00000370: f500 febd 0a16 6e3e 9752 bebc 75d0 74be
00000380: 01ba 18be 8c1a b1bd 9e86 9abe 1a1d bf3d
00000390: e41c 4b3e e722 fdbd fcc2 babd 314d 483e
000003a0: 6ec7 963c ed60 873e fe70 643e 3033 97be
000003b0: 78e2 7c3e c76a 19be a5eb 3b3e 2d7a 67bd
000003c0: 09bc 5d3e 5364 b73d fadf 353e 5ceb 78be
000003d0: 70f1 9ebd 72a8 d1bd e0ee 67bd 37a2 3f3e
000003e0: aef5 e2bd de0b 383c d836 dabc 2f6c e5bc
000003f0: 4fbe eebd 21a3 bf3d 03ff 6c3c f79e 30be

sequential_2/conv2d_4/Conv2D f4 [6, 3, 3, 1]
-0.08858976 0.040193222 0.05303628 0.40054068 0.07362092 0.031125445 0.10825535 0.5108334
0.19792281 0.3894518 0.12022582 0.3738864 0.31057546 0.10291792 -0.023210071 -0.2964793
0.08639599 0.0197416 0.36068642 0.40720147 0.33046684 0.04848023 0.35622257 0.4481548
0.037063133 0.20293696 -0.074471 0.5086494 0.43853772 0.32953689 -0.40739274 -0.5160516
-0.43711767 -0.19825596 0.13602285 0.12905565 -0.18317968 -0.124261364 0.41855332 0.3287571
-0.09459853 0.19251518 -0.17406017 0.19882917 0.48495585 0.30908576 0.050809592 -0.04273659
0.3697324 0.5387395 0.4852792 0.39701018 -0.0077410107 0.029223507
00000000: 8c6e b5bd a6a1 243d 923c 593d ab13 cd3e
00000010: 91c6 963d cafa fe3c fbb4 dd3d fac5 023f
00000020: 47ac 4a3e 3a66 c73e f438 f63d 0a6e bf3e
00000030: bf03 9f3e a1c6 d23d 0c23 bebc 23cc 97be
00000040: 61f0 b03d 23b9 a13c e4ab b83e b67c d03e
00000050: f332 a93e 3593 463d ce62 b63e 8c74 e53e
00000060: 83cf 173d b5ce 4f3e 4084 98bd d936 023f
00000070: 0488 e03e 0fb9 a83e c895 d0be f51b 04bf
00000080: e3cd dfbe 9c03 4bbe 9349 0b3e 2a27 043e
00000090: 7493 3bbe be7c febd 9f4c d63e da52 a83e
000000a0: e0bc c1bd b322 453e d43c 32be e099 4b3e
000000b0: 224c f83e 7d40 9e3e b81d 503d 900c 2fbd
000000c0: 914d bd3e d5ea 093f 8476 f83e eb44 cb3e
000000d0: 4ea8 fdbb 2366 ef3c

sequential_2/conv2d_5/Conv2D f4 [16, 3, 3, 6]
-0.027345087 0.09751591 0.088838354 0.41102076 0.24908434 0.2292717 0.06968711 0.115420766
0.24853358 0.1448596 0.2214423 0.2901965 0.09316126 0.18815158 0.1285083 0.05134616
0.20532711 0.17049162 -0.40597007 0.1152008 -0.034923397 0.43615764 -0.1560509 -0.32366514
-0.3591395 0.1722456 -0.01164843 0.5038164 0.039363295 -0.19914895 -0.2485475 0.056577176
0.16656658 0.6256498 0.081396215 -0.15367459 -0.04741178 -0.17941433 -0.2024239 -0.13268487
-0.09114509 -0.22821109 0.20638037 -0.18559141 -0.3416268 -0.006932531 -0.061623894 -0.16585858
-0.18575644 -0.23066601 -0.05881084 0.3302471 0.076453336 -0.046266478 0.1669833 -0.06807509
0.04798676 0.20137113 -0.042650536 -0.16256317 -0.045181945 0.06646168 -0.04633123 0.16582264
0.03892391 0.13893515 -0.043276045 0.15355818 -0.12957764 0.43394488 0.057672944 0.110481285
0.20023856 0.14495951 0.17991437 0.15811141 -0.00837516 0.16219522 -0.03326439 0.02362506
-0.047793448 0.079410374 0.08625356 0.21756838 0.013092141 -0.1293733 0.13117178 0.4608609
-0.096804775 0.18637572 -0.21311797 -0.08052592 0.030247623 0.14140609 -0.15489253 -0.18862672
0.019988228 -0.050561097 0.10799494 0.52565426 0.030865725 -0.0684476 0.10461197 -0.06674274
-0.20460281 0.37402588 -0.03336956 -0.15952271 0.21090063 0.15788966 0.19034772 0.1796725
0.20055094 0.19813384 0.05729601 0.15335982 -0.020285096 0.08022962 -0.09319357 -0.08255379
0.085830994 0.15854865 -0.021729996 0.2609676 -0.07273891 0.17416853 -0.11412423 -0.00017945367
0.20922108 -0.03437352 -0.12822084 -0.017657772 0.12068268 0.13227196 0.016472379 0.048990812
0.07425754 0.054703176 0.027560292 0.11012119 0.16801442 0.17119266 0.020906905 0.08385176
-0.08161137 -0.09838855 -0.14887546 0.22648077 -0.2712507 -0.07746955 -0.12224755 -0.09847277
-0.11888338 -0.004483077 -0.04603197 -0.33524865 -0.28662425 -0.13830663 -0.19097194 0.32629344
-0.12517431 -0.08999963 -0.12434451 -0.053771947 0.10621873 0.26592383 0.10752885 -0.09991377
0.16720536 0.019234443 0.17247348 -0.12523194 0.15233503 -0.044120084 0.10822025 0.06482874
0.007896847 -0.21104667 0.0946443 -0.1094333 0.017254077 0.18819796 -0.0295748 0.1390025
0.14689381 -0.0013555968 0.22515534 0.2148865 -0.08930124 -0.10301645 -0.08445391 0.07695382
0.13530907 0.01814562 -0.1252815 -0.07787048 -0.14897566 0.20546214 -0.28199175 -0.03213146
-0.1915413 -0.03853295 0.13587376 -0.3536346 -0.075907476 0.23149619 0.18288833 -0.20575222
0.09275344 0.029473506 0.22081363 0.13730678 -0.018162975 -0.02590015 0.14184257 0.21955253
0.06566152 -0.12139237 0.13340223 0.30483714 0.03951574 -0.04124702 -0.1439445 0.0069206543
0.0494668 0.2119803 -0.1621979 -0.026826328 -0.09998681 0.10456702 0.09784917 0.37309656
-0.116268314 -0.111699365 -0.16207694 -0.002429658 0.12957741 0.105002455 0.033857588 0.06440396
0.1818548 0.05515408 -0.06341794 0.42287162 0.12154815 -0.10098733 0.09225476 -0.06170528
0.052640416 0.41022724 0.12197859 0.09048124 0.060772527 -0.16528663 0.0230194 0.38533992
00000000: ce02 e0bc 6cb6 c73d e2f0 b53d 5071 d23e
00000010: f70f 7f3e 33c6 6a3e 1eb8 8e3d b961 ec3d
00000020: 967f 7e3e 1356 143e c5c1 623e a394 943e
00000030: 55cb be3d cfaa 403e ae97 033e 5a50 523d
00000040: 4541 523e 5b95 2e3e 4fdb cfbe 66ee eb3d
00000050: d60b 0fbd 0e50 df3e cfcb 1fbe 70b7 a5be
00000060: 22e1 b7be 2761 303e 0ed9 3ebc 1dfa 003f
00000070: 683b 213d b4ed 4bbe 3c83 7ebe 78bd 673d
00000080: 6e90 2a3e 962a 203f 0fb3 a63d df5c 1dbe
00000090: db32 42bd 64b8 37be 3648 4fbe 8bde 07be
000000a0: 47aa babd 2bb0 69be 6055 533e ad0b 3ebe
000000b0: b5e9 aebe 492a e3bb 5669 7cbd d5d6 29be
000000c0: f036 3ebe b633 6cbe a3e3 70bd 2616 a93e
000000d0: 9193 9c3d eb81 3dbd acfd 2a3e f46a 8bbd
000000e0: c48d 443d 3c34 4e3e 54b2 2ebd f676 26be
000000f0: b410 39bd 101d 883d d1c5 3dbd 69cd 293e
00000100: ae6e 1f3d 0445 0e3e 3942 31bd 5b3e 1d3e
00000110: 00b0 04be 062e de3e 773a 6c3d 0344 e23d
00000120: 560b 4d3e 4470 143e 793b 383e f5e7 213e
00000130: f837 09bc 8116 263e 3e40 08bd 5889 c13c
00000140: 10c3 43bd e8a1 a23d b5a5 b03d 3fca 5e3e
00000150: 6b80 563c 6f7a 04be e551 063e f6f5 eb3e
00000160: 9541 c6bd 47d9 3e3e 993b 5abe c6ea a4bd
00000170: ddc9 f73c c2cc 103e 269c 1ebe 5d27 41be
00000180: 5abe a33c 2719 4fbd 732c dd3d 4791 063f
00000190: 1eda fc3c 412e 8cbd cd3e d63d 6bb0 88bd
000001a0: 6683 51be 5280 bf3e 85ae 08bd ec59 23be
000001b0: 56f6 573e d4ad 213e 83ea 423e 11fc 373e
000001c0: 3a5d 4d3e 99e3 4a3e 39af 6a3d 5b0a 1d3e
000001d0: ee2c a6bc 6d4f a43d 45dc bebd f611 a9bd
000001e0: 29c8 af3d 945a 223e 1b03 b2bc 8c9d 853e
000001f0: 23f8 94bd 3c59 323e f7b9 e9bd ba2b 3cb9
00000200: 0d3e 563e 40cb 0cbd 534c 03be 08a7 90bc
00000210: 7b28 f73d 4d72 073e 15f1 863c 97aa 483d
00000220: 5614 983d 7010 603d 1fc6 e13c 3887 e13d
00000230: f90b 2c3e 214d 2f3e f544 ab3c 79ba ab3d
00000240: dd23 a7bd f07f c9bd cf72 18be 93ea 673e
00000250: 5fe1 8abe 5ba8 9ebd ec5c fabd 17ac c9bd
00000260: 2179 f3bd c7e6 92bb 058c 3cbd b6a5 abbe
00000270: 6ac0 92be 41a0 0dbe 268e 43be ef0f a73e
00000280: b22d 00be ba51 b8bd 56a8 febd f93f 5cbd
00000290: 3589 d93d 2b27 883e 1638 dc3d 979f ccbd
000002a0: e237 2b3e 8d91 9d3c e39c 303e cd3c 00be
000002b0: b7fd 1b3e 43b7 34bd 94a2 dd3d eec4 843d
000002c0: c761 013c 9e1c 58be dfd4 c13d 911e e0bd
000002d0: 6c58 8d3c f7b6 403e da46 f2bc ac56 0e3e
000002e0: 556b 163e 48ae b1ba 1f8f 663e 350b 5c3e
000002f0: 92e3 b6bd 4afa d2bd 2cf6 acbd f799 9d3d
00000300: 768e 0a3e 20a6 943c cb49 00be 8f7a 9fbd
00000310: 138d 18be ab64 523e 3961 90be 479c 03bd
00000320: 6723 44be bad4 1dbd 7e22 0b3e 980f b5be
00000330: 6175 9bbd 560d 6d3e 1447 3b3e b6b0 52be
00000340: 84f5 bd3d 6c72 f13c f81c 623e 269a 0c3e
00000350: 85ca 94bc 8d2c d4bc 2e3f 113e 61d2 603e
00000360: 8c79 863d 909c f8bd 989a 083e 9d13 9c3e
00000370: 42db 213d a3f2 28bd 3066 13be a8c6 e23b
00000380: b39d 4a3d 5d11 593e 3517 26be e3c2 dbbc
00000390: e2c5 ccbd 3c27 d63d 2565 c83d 8306 bf3e
000003a0: 151e eebd a3c2 e4bd 7ff7 25be e63a 1fbb
000003b0: f1af 043e 870b d73d 41ae 0a3d 39e6 833d
000003c0: 2538 3a3e 3fe9 613d 44e1 81bd a182 d83e
000003d0: 3dee f83d 72d2 cebd 10f0 bc3d adbe 7cbd
000003e0: 7a9d 573d 4e09 d23e e9cf f93d 3a4e b93d
000003f0: 9dec 783d e640 29be 2e93 bc3c 464b c53e
