TFLite-model/01a_LeNet-MNIST_Q-mixed.tflite (tflite, 90656 bytes, 10 tensors)

sequential_2/conv2d_4/BiasAdd/ReadVariableOp f4 [6]
00000000: 6699 6b3a 8f0b 04ba 8a2b 52bb f696 89ba
00000010: c1a6 823b 5ca2 a93a
0.0008987397 -0.0005037123 -0.0032069408 -0.001049726 0.003987164 0.0012942064

sequential_2/conv2d_5/BiasAdd/ReadVariableOp f4 [16]
00000000: 677d 593d 22c3 7eba d403 233c 63b4 89bd
00000010: 4db0 ef3c ced4 1bbc c141 453d 8bb9 0cbd
00000020: 06b1 763d 0f15 00bd 84f0 a23d 3533 003e
00000030: d976 10bb 6632 aeb9 7446 a5ba 928b 253b
0.05309811 -0.0009718408 0.009949643 -0.06723859 0.029258871 -0.009511186 0.04815841 -0.034356635
0.060227416 -0.031270083 0.07956031 0.12519534 -0.0022043495 -0.00033225416 -0.0012609498 0.0025260192

sequential_2/dense_6/BiasAdd/ReadVariableOp f4 [120]
00000000: de81 0fbc c392 af3c e3ce 493c 2718 e43c
00000010: 77fe 163d e61e 9abc becb 62bd f8ca 273d
00000020: 7b08 223d 3108 7a3d 0765 09bc da0b 073d
00000030: 3cc1 1a3d 5d4f 983d 18da 07bc d787 b8bc
00000040: ed88 843c 16a4 7a3d 18c8 4b3d dce5 ef39
00000050: ab77 1e3d 3dc0 cf3c e9a4 2b3d 1ecf cfbc
00000060: 9eb1 33bc 3057 b93c c8d2 1a3d 43cb 793d
00000070: 34fc 8c3d 2a28 18bc b758 c73c 3691 08bd
00000080: a9b7 fe3c f75a ce3b 729a 9638 9e61 d8bb
00000090: 5541 853c 07b1 403c 81ec 81bc b7be ea3c
000000a0: c9f2 e93c 4219 bebb 17c0 95bc c74c a23c
000000b0: 903d a13c a64d 8f3c 164d afbc 7855 a2ba
000000c0: f010 0b3d a1d7 6c3c 4b65 7e3c 8699 403b
000000d0: 5557 b1bc 020e 9cbc da69 103d 47fa 283c
000000e0: 32e1 0a3d 73fd 8dbc 35ae 473d 3ffc f13c
000000f0: 1268 2a3d c48a c93c 3720 273d 8195 92bc
00000100: 2ed5 b33c 5f82 04bd e34b 4b3c 879c 413d
00000110: 401a bd3c 0c39 903d 948e a53c fab7 97ba
00000120: 77a6 693d d1b9 f9bc 5ae1 a03b 43f7 75bc
00000130: 08f0 37bd c783 533d 1ab2 b93c f9e0 483d
00000140: af3c e5ba 7706 293d 8065 dabb c9a6 583d
00000150: 1511 263d ad92 8dbc 897f 8f3c 04be d23c
00000160: 9e24 053d e329 1f3d 9e14 b2bc 4887 e6ba
00000170: 6321 953a f25a 9438 e1d2 9eb9 8ab5 233d
00000180: 1853 393d 53db 92bc 97e6 2f3d 903b b4bc
00000190: 946a 833c 8483 413d 372a 96bc 5ec0 8cbc
000001a0: 3d62 003c d148 a53c 3620 863d 5455 423d
000001b0: 6981 5c3c bf27 ea3b c767 a43b fb7f 613b
000001c0: 6796 463d b711 c0bc 75f3 7f3d 4016 db3b
000001d0: 2efd e13c 08f2 313d e61a b8bc 0d79 593c
-0.00875899 0.021432286 0.012317392 0.027843548 0.03686377 -0.018813562 -0.055370085 0.04096505
0.03955887 0.06104297 -0.008385903 0.032970287 0.03778194 0.07437012 -0.008291744 -0.022525711
0.016178573 0.06119164 0.04975137 0.0004575689 0.038688343 0.025360221 0.041905317 -0.025367316
-0.01096764 0.022624582 0.037798673 0.06098486 0.068840414 -0.00928692 0.024334295 -0.03334161
0.031093435 0.006297465 7.181325e-05 -0.0066034338 0.016266504 0.011760957 -0.015859844 0.028655393
0.028558152 -0.005801351 -0.018280072 0.019812 0.019682676 0.01749308 -0.021399062 -0.0012385091
0.0339517 0.014455707 0.01552708 0.0029388382 -0.021648088 -0.019049648 0.035257198 0.010313577
0.03390617 -0.017332768 0.04875012 0.029539226 0.041603155 0.024602301 0.040802207 -0.017893555
0.021952238 -0.032350894 0.0124082295 0.047268417 0.023083806 0.07042131 0.020209588 -0.0011575215
0.05704352 -0.030484112 0.0049096765 -0.015012565 -0.044906646 0.051639345 0.022667933 0.049042676
-0.0017489399 0.04126593 -0.006664932 0.052893434 0.040543634 -0.017281855 0.017516868 0.025725372
0.032505624 0.038858306 -0.021738347 -0.0017587924 0.0011377748 7.07413e-05 -0.00030293225 0.03996805
0.04524526 -0.017926848 0.042944517 -0.022001058 0.016042031 0.047244564 -0.018330676 -0.017181572
0.007835922 0.020176323 0.065491125 0.047444656 0.013458588 0.0071458514 0.005017254 0.0034408558
0.04848328 -0.023445947 0.062488038 0.006686002 0.027586546 0.04344371 -0.022473764 0.01327349

sequential_2/dense_7/BiasAdd/ReadVariableOp f4 [84]
00000000: d485 c83b 63a9 843c 4568 d2bc aba9 133d
00000010: f1c9 933d c362 893c 7c41 a43d 4df3 bcba
00000020: 620e a9bc 3125 993c 70f9 e4bc eb9f 373c
00000030: b788 8e3d 8573 01bc 2f55 b2bc 3d91 243d
00000040: 40f0 5ebc 3313 c73c b7c1 a1bc a0f5 853d
00000050: 3876 d9bb 0d0c a43d 8b09 bb3c 7d78 88bd
00000060: 5a17 85bb d846 46bd b949 c9bc af1a 9f3d
00000070: 8053 643d 42d1 583c 0de6 3a3d 4e54 713d
00000080: b10b 9f3b a7bb 7d3b 286e 003d 0b4f b6bc
00000090: 9644 c63b 05f5 39bd a30d 4abd 2b2e 5b3c
000000a0: 56a2 9ebb 6f22 b13c a468 613d b37b 9dbc
000000b0: 95dc e33c 4448 4b3c 623e 613d 9ac3 1b3d
000000c0: e24a d23c 2e5f 773c 2922 f43c b0e9 e63c
000000d0: e074 863d 9cc2 b8bc 54f7 a13c aa4e d2bc
000000e0: e499 803d 2c0d 4b3d eb68 433d c87f 95bc
000000f0: 9133 253d 3021 033d 3be3 923c 0b03 9fbc
00000100: 111a b8bc 8344 893c 2781 413d d3aa 413d
00000110: 67cb c6bc 8b48 833c a40f 503c 7a1e 6d3d
00000120: b300 69bb 0b57 6ebc b70c 503d 3ddf 4b3d
00000130: 315c 95bc 1dd4 1e3d 2e94 423d 10ec 57bc
00000140: 5b39 00bd a68d 1dbd 05ad 23bd 9dd2 083c
0.006119469 0.016194051 -0.025684485 0.03605048 0.07216252 0.016770726 0.08020303 -0.0014415771
-0.020636741 0.018694492 -0.027950972 0.011207561 0.0695967 -0.007901077 -0.021769134 0.040177573
-0.013607085 0.024301147 -0.01974569 0.0654099 -0.006636407 0.08010111 0.022831699 -0.06663606
-0.0040616216 -0.048407406 -0.024571287 0.07768761 0.055743694 0.013233485 0.04562955 0.05891829
0.0048536886 0.0038716586 0.031355053 -0.022254487 0.0060506565 -0.045399684 -0.04932941 0.0133777065
-0.0048411293 0.021622865 0.055031434 -0.019224023 0.027815143 0.012407366 0.054991134 0.038028337
0.025670473 0.015098376 0.029801445 0.028187603 0.06565261 -0.022553734 0.019771256 -0.025672276
0.06279352 0.04957311 0.04770748 -0.018249407 0.04033238 0.032014072 0.017930618 -0.01941063
-0.022473367 0.016756302 0.04724231 0.04728205 -0.024266912 0.016025802 0.0126990415 0.057890393
-0.0035553395 -0.01454712 0.050793376 0.049773443 -0.018232437 0.038776506 0.047504596 -0.01317884
-0.0313047 -0.038465165 -0.039959926 0.008350995

sequential_2/dense_8/BiasAdd/ReadVariableOp f4 [10]
00000000: 3dfd 3dbd d619 7a3c 99f0 48bd a43a 4dbd
00000010: 97c7 0f3d 8500 553d 3237 42bc decd fe3c
00000020: 0970 39bc 4662 2e3c
-0.046384085 0.015264949 -0.049057577 -0.050104752 0.035102453 0.05200245 -0.01185398 0.031104024
-0.011318215 0.010643547

sequential_2/dense_6/MatMul i1 [120, 576] scale=0.0050647585 zero_point=0
00000000: feef ef0c ee08 f7f7 f513 0cff 0909 f4f0
00000010: eb05 fa00 0501 17fc f112 18f3 17f3 0b00
00000020: f60a f3f4 0b13 fc0a 10f3 0703 07ed fb06
00000030: 0b19 0d13 0001 f905 fff8 fcfb 0b05 0d0e
00000040: 0b09 1614 0c07 fcfd fd10 f510 ff09 fc1d
00000050: 0f00 f8f7 fd08 05ee 0dfa f714 060c 04fe
00000060: faed 02f8 0af5 fb0b 0f13 06fb ec03 0af3
00000070: f814 ee08 19fe f715 fefc 1004 0107 08f8
00000080: e80f 0802 0af9 f303 0d04 1bdf 010e 1308
00000090: eff6 14fd 0df8 1209 08f7 08e8 0c0e 0302
000000a0: 0b11 0701 fa13 f9d8 05fe 19f8 0c09 f90c
000000b0: 2008 15ea f0ee 0bc1 090a fd0a fd0f 0f06
000000c0: ef06 0108 0110 1207 000c 120a f8ee 19f7
000000d0: 0408 16fc fd07 010b 0a0b d40d eced f80d
000000e0: 02f6 0d08 1701 fa06 1500 0f17 f2fe 0c0d
000000f0: f413 f515 20fe 04f1 11f5 31cb 0203 f80e
-0.010129517 -0.08610089 -0.08610089 0.0607771 -0.091165654 0.040518068 -0.045582827 -0.045582827
-0.055712342 0.09623041 0.0607771 -0.0050647585 0.045582827 0.045582827 -0.0607771 -0.081036136
-0.10635993 0.025323793 -0.03038855 0.0 0.025323793 0.0050647585 0.11648945 -0.020259034
-0.07597138 0.091165654 0.1215542 -0.06584186 0.11648945 -0.06584186 0.055712342 0.0
-0.050647587 0.050647587 -0.06584186 -0.0607771 0.055712342 0.09623041 -0.020259034 0.050647587
0.081036136 -0.06584186 0.03545331 0.015194275 0.03545331 -0.09623041 -0.025323793 0.03038855
0.055712342 0.12661897 0.06584186 0.09623041 0.0 0.0050647585 -0.03545331 0.025323793
-0.0050647585 -0.040518068 -0.020259034 -0.025323793 0.055712342 0.025323793 0.06584186 0.07090662
0.055712342 0.045582827 0.111424685 0.10129517 0.0607771 0.03545331 -0.020259034 -0.015194275
-0.015194275 0.081036136 -0.055712342 0.081036136 -0.0050647585 0.045582827 -0.020259034 0.14687799
0.07597138 0.0 -0.040518068 -0.045582827 -0.015194275 0.040518068 0.025323793 -0.091165654
0.06584186 -0.03038855 -0.045582827 0.10129517 0.03038855 0.0607771 0.020259034 -0.010129517
-0.03038855 -0.09623041 0.010129517 -0.040518068 0.050647587 -0.055712342 -0.025323793 0.055712342
0.07597138 0.09623041 0.03038855 -0.025323793 -0.10129517 0.015194275 0.050647587 -0.06584186
-0.040518068 0.10129517 -0.091165654 0.040518068 0.12661897 -0.010129517 -0.045582827 0.10635993
-0.010129517 -0.020259034 0.081036136 0.020259034 0.0050647585 0.03545331 0.040518068 -0.040518068
-0.1215542 0.07597138 0.040518068 0.010129517 0.050647587 -0.03545331 -0.06584186 0.015194275
0.06584186 0.020259034 0.13674848 -0.16713703 0.0050647585 0.07090662 0.09623041 0.040518068
-0.08610089 -0.050647587 0.10129517 -0.015194275 0.06584186 -0.040518068 0.091165654 0.045582827
0.040518068 -0.045582827 0.040518068 -0.1215542 0.0607771 0.07090662 0.015194275 0.010129517
0.055712342 0.08610089 0.03545331 0.0050647585 -0.03038855 0.09623041 -0.03545331 -0.20259035
0.025323793 -0.010129517 0.12661897 -0.040518068 0.0607771 0.045582827 -0.03545331 0.0607771
0.16207227 0.040518068 0.10635993 -0.111424685 -0.081036136 -0.091165654 0.055712342 -0.3190798
0.045582827 0.050647587 -0.015194275 0.050647587 -0.015194275 0.07597138 0.07597138 0.03038855
-0.08610089 0.03038855 0.0050647585 0.040518068 0.0050647585 0.081036136 0.091165654 0.03545331
0.0 0.0607771 0.091165654 0.050647587 -0.040518068 -0.091165654 0.12661897 -0.045582827
0.020259034 0.040518068 0.111424685 -0.020259034 -0.015194275 0.03545331 0.0050647585 0.055712342
0.050647587 0.055712342 -0.22284937 0.06584186 -0.10129517 -0.09623041 -0.040518068 0.06584186
0.010129517 -0.050647587 0.06584186 0.040518068 0.11648945 0.0050647585 -0.03038855 0.03038855
0.10635993 0.0 0.07597138 0.11648945 -0.07090662 -0.010129517 0.0607771 0.06584186
-0.0607771 0.09623041 -0.055712342 0.10635993 0.16207227 -0.010129517 0.020259034 -0.07597138
0.08610089 -0.055712342 0.24817316 -0.2684322 0.010129517 0.015194275 -0.040518068 0.07090662

sequential_2/dense_7/MatMul i1 [84, 120] scale=0.0059324247 zero_point=0
00000000: 0fdd dd0e 1707 e11e 12ed 15ff 072d 2605
00000010: 02f9 2a1b 231b ef0c 0aed fd08 07fa 1d25
00000020: fb01 f5f7 deff 01e3 f6d2 1df8 0ec2 fd26
00000030: 09e1 1520 f1e7 0ee2 ebf0 22f9 150a ea13
00000040: 0ce8 ea0a ffee 18e1 f9e8 ea18 0825 0ef4
00000050: de08 16f7 1113 df1c f30d f113 f7d5 f7ef
00000060: 27e4 f6f8 e8fb 0c08 1607 161e 2109 18fd
00000070: eb1b efe4 1f09 fb14 f8f0 fef4 eef8 1f0e
00000080: 00f2 13fd 1efe 29f7 f80e f2e6 0706 dc1d
00000090: 21e7 1bfe 2106 11f0 e70b f70c 1fd3 05d9
000000a0: e727 0a08 eef7 15e6 0806 e7eb 0bfa f6f8
000000b0: e5f9 dd11 ebfa f1fe 161b ce1c e316 f9ea
000000c0: 03f8 1126 f70d 0914 1708 0bfe 020d 0612
000000d0: 0f1a f908 01ea 04ed f40e 1ae7 1010 1d0f
000000e0: 0212 e520 042a 09ff 1f1a 08e6 04df f40f
000000f0: fef9 04e3 f9f9 0919 e7fa 03fb f90c 0f08
0.08898637 -0.20763487 -0.20763487 0.08305395 0.13644576 0.041526973 -0.18390517 0.17797273
0.10678364 -0.11271607 0.12458092 -0.0059324247 0.041526973 0.2669591 0.22543214 0.029662123
0.011864849 -0.041526973 0.24916184 0.16017547 0.20763487 0.16017547 -0.10085122 0.0711891
0.059324246 -0.11271607 -0.017797275 0.047459397 0.041526973 -0.03559455 0.17204031 0.2194997
-0.029662123 0.0059324247 -0.06525667 -0.05339182 -0.20170245 -0.0059324247 0.0059324247 -0.17204031
-0.059324246 -0.27289152 0.17204031 -0.047459397 0.08305395 -0.36781034 -0.017797275 0.22543214
0.05339182 -0.18390517 0.12458092 0.18983759 -0.08898637 -0.14831062 0.08305395 -0.17797273
-0.12458092 -0.094918795 0.20170245 -0.041526973 0.12458092 0.059324246 -0.13051334 0.11271607
0.0711891 -0.1423782 -0.13051334 0.059324246 -0.0059324247 -0.10678364 0.1423782 -0.18390517
-0.041526973 -0.1423782 -0.13051334 0.1423782 0.047459397 0.2194997 0.08305395 -0.0711891
-0.20170245 0.047459397 0.13051334 -0.05339182 0.10085122 0.11271607 -0.19577001 0.1661079
-0.07712152 0.07712152 -0.08898637 0.11271607 -0.05339182 -0.25509426 -0.05339182 -0.10085122
0.23136456 -0.1661079 -0.059324246 -0.047459397 -0.1423782 -0.029662123 0.0711891 0.047459397
0.13051334 0.041526973 0.13051334 0.17797273 0.19577001 0.05339182 0.1423782 -0.017797275
-0.12458092 0.16017547 -0.10085122 -0.1661079 0.18390517 0.05339182 -0.029662123 0.11864849
-0.047459397 -0.094918795 -0.011864849 -0.0711891 -0.10678364 -0.047459397 0.18390517 0.08305395
0.0 -0.08305395 0.11271607 -0.017797275 0.17797273 -0.011864849 0.24322942 -0.05339182
-0.047459397 0.08305395 -0.08305395 -0.15424304 0.041526973 0.03559455 -0.21356729 0.17204031
0.19577001 -0.14831062 0.16017547 -0.011864849 0.19577001 0.03559455 0.10085122 -0.094918795
-0.14831062 0.06525667 -0.05339182 0.0711891 0.18390517 -0.2669591 0.029662123 -0.23136456
-0.14831062 0.23136456 0.059324246 0.047459397 -0.10678364 -0.05339182 0.12458092 -0.15424304
0.047459397 0.03559455 -0.14831062 -0.12458092 0.06525667 -0.03559455 -0.059324246 -0.047459397
-0.16017547 -0.041526973 -0.20763487 0.10085122 -0.12458092 -0.03559455 -0.08898637 -0.011864849
0.13051334 0.16017547 -0.29662123 0.1661079 -0.17204031 0.13051334 -0.041526973 -0.13051334
0.017797275 -0.047459397 0.10085122 0.22543214 -0.05339182 0.07712152 0.05339182 0.11864849
0.13644576 0.047459397 0.06525667 -0.011864849 0.011864849 0.07712152 0.03559455 0.10678364
0.08898637 0.15424304 -0.041526973 0.047459397 0.0059324247 -0.13051334 0.023729699 -0.11271607
-0.0711891 0.08305395 0.15424304 -0.14831062 0.094918795 0.094918795 0.17204031 0.08898637
0.011864849 0.10678364 -0.16017547 0.18983759 0.023729699 0.24916184 0.05339182 -0.0059324247
0.18390517 0.15424304 0.047459397 -0.15424304 0.023729699 -0.19577001 -0.0711891 0.08898637
-0.011864849 -0.041526973 0.023729699 -0.17204031 -0.041526973 -0.041526973 0.05339182 0.14831062
-0.14831062 -0.03559455 0.017797275 -0.029662123 -0.041526973 0.0711891 0.08898637 0.047459397

sequential_2/dense_8/MatMul f4 [10, 84]
00000000: 4518 f23d f957 d8be 0667 1d3d ea95 b7bd
00000010: 5446 b2bd b854 94be 42c8 14bd 4366 bebe
00000020: a4a0 903d 8c94 ed3b af63 a73d a6b9 613e
00000030: 1a1b 9d3e 63aa 9d3e 070b d23d d3eb 69be
00000040: e621 be3d 78a7 04be dc12 133e 8ffd 943e
00000050: f007 4c3e cd7d 6e3e 8bf5 573e c0d1 7dbe
00000060: d066 7b3e 690d 8a3e 6e62 0fbe 9a8d 8cbd
00000070: ff2a 1abe d852 44be c92c 95be 2720 88be
00000080: e1b2 edbd 95c3 01be 1531 9dbd b977 1d3d
00000090: 0c97 283e 2c71 3a3e 3072 85be 8c6e bd3e
000000a0: d882 bd3d 0c6b e3bc 6bd3 2cbe 1940 47be
000000b0: c0f8 14be 100e 563e a1fc 76bc 800b a9bb
000000c0: c140 35bf 2265 44be 3fec dcbd 56d8 f5bd
000000d0: 7df9 913e e9df 183e f60a 16be 91d6 0abe
000000e0: 364b 183e f7bf 10be 0298 ae3e 0372 bcbc
000000f0: e5c1 8bbe e071 ccbe ca45 e8bd 747d 3c3e
00000100: 5ca7 603e c1a7 af3e 27a5 9fbe 1a82 9fbd
00000110: bb91 773e 5011 c43d 8145 6c3e ca02 07be
00000120: 1bc9 03be e98e 683e befc 88be 97fe 373e
00000130: e902 32be fc7b b3be 2659 0c3e fe61 5b3d
00000140: df5f 283e fa6c 81bd ba04 0cbe ac1d a23d
00000150: 3559 113d bfb7 c53d 41f6 373e cacb 923e
00000160: 4594 b93e 5b87 67be 26b0 89be 0a81 093f
00000170: dfb1 1fbe c6c0 9ebe 1d79 67be 4eb3 533e
00000180: 893a 893e 6148 d53d db11 7bbc 0e6f 343e
00000190: eedd febd f4d3 2ebe 7f4c c83d 3f1e 883d
000001a0: 91e8 61be a641 863e 5c8b 45be 80c8 18be
000001b0: 2b1f 553e 57df 84be d826 47bd 139d 20be
000001c0: 2335 d93e 1927 d33d 795b 463e 3f2c 9d3b
000001d0: e4b3 853c 09ba 49be bb0f 59be 7c42 293e
000001e0: 1f10 173d 155a 3f3f 56ad 96be e82e 9d3e
000001f0: a2d0 7f3e 94b2 d93e 5f60 733e 72b4 4fbe
00000200: 9f85 ab3e 3097 fd3d 02f7 adbe e16a e13d
00000210: 0e54 443e 1ff3 583d bae2 183e ce6e cfbc
00000220: 0fae d03d c795 f6bd f799 83be 4bdf a5bc
00000230: 2223 cb3d 4fc8 1a3e 74d3 013d 4035 1abe
00000240: 03cd 203e 45c8 7f3e df61 34bd 1a49 4fbc
00000250: bfe4 60be b84d 2dbe a33f 933e 8a99 ef3d
00000260: 71ff a83d 3f6f a3be 02fb 813e f7fb 8a3c
00000270: 3f5a 83be 8670 2abe 10b2 63be 2dea 9e3d
00000280: 6362 12bd 231d 343e bdfa 783e 6bb1 b9be
00000290: 87d7 343e 7e32 a8bd be3a 603e 14d5 cb3d
000002a0: 2cd0 68bc bd70 fd3d 32c8 0bbe 764a a53e
000002b0: f874 443e 8c3a 96bd 6d55 8abe 9801 ed3d
000002c0: be81 013e 6532 9d3e a6f4 883e 1d46 02bd
000002d0: 9df8 99be 6864 6bbe 0950 a83c a2a4 79be
000002e0: 0e07 2ebe 056e 5cbe 36ec 213d 6103 90ba
000002f0: a879 623e caa3 953e 596c a9bd 56e1 113f
00000300: 2dbc 473e 2130 d7bd 5dd5 09bd 9a83 77be
00000310: e71e 13bf dd0b b93d a805 5ebe 4a2a 34be
00000320: 1594 543e bcb5 093d 55ff 99be 3399 433e
00000330: de56 24bc 89fd fb3b 6ea3 b73d 9045 353e
00000340: 58c3 88bd 81bb 20be 45e6 933e a14e a73d
00000350: ee77 b0bd f09d 923e 9d37 453e e9b5 483e
00000360: ca18 f03d adb7 5f3e faa5 2b3d 04b5 933e
00000370: f500 febd 0a16 6e3e 9752 bebc 75d0 74be
00000380: 01ba 18be 8c1a b1bd 9e86 9abe 1a1d bf3d
00000390: e41c 4b3e e722 fdbd fcc2 babd 314d 483e
000003a0: 6ec7 963c ed60 873e fe70 643e 3033 97be
000003b0: 78e2 7c3e c76a 19be a5eb 3b3e 2d7a 67bd
000003c0: 09bc 5d3e 5364 b73d fadf 353e 5ceb 78be
000003d0: 70f1 9ebd 72a8 d1bd e0ee 67bd 37a2 3f3e
000003e0: aef5 e2bd de0b 383c d836 dabc 2f6c e5bc
000003f0: 4fbe eebd 21a3 bf3d 03ff 6c3c f79e 30be
0.11821035 -0.42254618 0.03842833 -0.08964141 -0.0870482 -0.28970885 -0.036323793 -0.37187394
0.0706189 0.007250374 0.0817331 0.22043476 0.3068474 0.30794057 0.102560095 -0.22843866
0.09283809 -0.1295451 0.14362663 0.290997 0.19924903 0.23290177 0.21089761 -0.24787045
0.24550939 0.26963356 -0.14002392 -0.06862946 -0.15055464 -0.19172227 -0.2913573 -0.2658703
-0.11606384 -0.12672265 -0.07675377 0.038444255 0.1646387 0.18207234 -0.2606368 0.36998403
0.09253472 -0.027761005 -0.16877525 -0.19458045 -0.14548016 0.20903802 -0.01507488 -0.0051588416
-0.7080193 -0.19179204 -0.10787248 -0.120041534 0.28510657 0.14929165 -0.14652619 -0.13558413
0.1487244 -0.14135729 0.34100348 -0.023003584 -0.27296367 -0.3993063 -0.11341436 0.18407232
0.21938843 0.34307674 -0.3118069 -0.07788487 0.24176686 0.095736146 0.23073389 -0.13184658
-0.12869684 0.22710766 -0.26755327 0.17968212 -0.17383923 -0.3505553 0.13705882 0.05356025
0.16442822 -0.06319614 -0.13673678 0.07915816 0.035485465 0.096541874 0.17965032 0.28671104
0.36245933 -0.22610228 -0.26892203 0.53712523 -0.15595196 -0.3100645 -0.22604795 0.20673868
0.2680247 0.10414196 -0.015324081 0.17620489 -0.124446735 -0.17073041 0.097802155 0.06646394
-0.22061373 0.2622196 -0.19291443 -0.14920235 0.20812671 -0.25951645 -0.04862103 -0.15684919
0.42423353 0.10310192 0.19370832 0.0047965343 0.01632113 -0.19699873 -0.21197407 0.16529268
0.03688061 0.7474683 -0.2942912 0.3069985 0.24981931 0.42519057 0.23767231 -0.20283678
0.33500382 0.12382352 -0.33977515 0.11006714 0.1917269 0.052966233 0.1493024 -0.02532139
0.10189449 -0.120402865 -0.25703403 -0.020248076 0.099188104 0.15115474 0.031695798 -0.15059376
0.15703206 0.2497874 -0.04403865 -0.012651706 -0.2196226 -0.16924179 0.28759488 0.11699207
0.082518466 -0.31920812 0.25386816 0.01696585 -0.2565479 -0.16644487 -0.22235894 0.07759509
-0.03573836 0.1758924 0.24314399 -0.36268172 0.17660342 -0.082127556 0.21897408 0.09952751
-0.014209788 0.12375019 -0.13650587 0.32283372 0.19185245 -0.07335386 -0.270183 0.115725696
0.12647149 0.3070251 0.26749152 -0.031805146 -0.3007249 -0.2298752 0.020545976 -0.24379209
-0.16994879 -0.21526344 0.03953191 -0.0010987335 0.2211672 0.29226524 -0.08272619 0.5698446
0.19505377 -0.10507227 -0.033650745 -0.24171296 -0.5746903 0.09035466 -0.21681845 -0.17594257
0.20759614 0.03362058 -0.30077615 0.1910141 -0.010030476 0.007690136 0.089667186 0.17702317
-0.06677884 -0.15696527 0.2888662 0.08169294 -0.08616625 0.28636122 0.19259496 0.19600643
0.11723478 0.2184741 0.041906334 0.2884904 -0.12402526 0.23250595 -0.023232741 -0.23907645
-0.14914705 -0.086476415 -0.3018083 0.093317226 0.1983524 -0.12360173 -0.091192216 0.19560696
0.018405642 0.26441136 0.22308728 -0.2953124 0.24695766 -0.14982139 0.1835161 -0.056513
0.21653761 0.08954682 0.17761222 -0.24308532 -0.07760894 -0.102372065 -0.056624293 0.18714224
-0.11082016 0.011233298 -0.02663748 -0.028005688 -0.11657392 0.09357286 0.014465096 -0.1724814

sequential_2/conv2d_4/Conv2D f4 [6, 3, 3, 1]
00000000: 8c6e b5bd a6a1 243d 923c 593d ab13 cd3e
00000010: 91c6 963d cafa fe3c fbb4 dd3d fac5 023f
00000020: 47ac 4a3e 3a66 c73e f438 f63d 0a6e bf3e
00000030: bf03 9f3e a1c6 d23d 0c23 bebc 23cc 97be
00000040: 61f0 b03d 23b9 a13c e4ab b83e b67c d03e
00000050: f332 a93e 3593 463d ce62 b63e 8c74 e53e
00000060: 83cf 173d b5ce 4f3e 4084 98bd d936 023f
00000070: 0488 e03e 0fb9 a83e c895 d0be f51b 04bf
00000080: e3cd dfbe 9c03 4bbe 9349 0b3e 2a27 043e
00000090: 7493 3bbe be7c febd 9f4c d63e da52 a83e
000000a0: e0bc c1bd b322 453e d43c 32be e099 4b3e
000000b0: 224c f83e 7d40 9e3e b81d 503d 900c 2fbd
000000c0: 914d bd3e d5ea 093f 8476 f83e eb44 cb3e
000000d0: 4ea8 fdbb 2366 ef3c
-0.08858976 0.040193222 0.05303628 0.40054068 0.07362092 0.031125445 0.10825535 0.5108334
0.19792281 0.3894518 0.12022582 0.3738864 0.31057546 0.10291792 -0.023210071 -0.2964793
0.08639599 0.0197416 0.36068642 0.40720147 0.33046684 0.04848023 0.35622257 0.4481548
0.037063133 0.20293696 -0.074471 0.5086494 0.43853772 0.32953689 -0.40739274 -0.5160516
-0.43711767 -0.19825596 0.13602285 0.12905565 -0.18317968 -0.124261364 0.41855332 0.3287571
-0.09459853 0.19251518 -0.17406017 0.19882917 0.48495585 0.30908576 0.050809592 -0.04273659
0.3697324 0.5387395 0.4852792 0.39701018 -0.0077410107 0.029223507

sequential_2/conv2d_5/Conv2D f4 [16, 3, 3, 6]
00000000: ce02 e0bc 6cb6 c73d e2f0 b53d 5071 d23e
00000010: f70f 7f3e 33c6 6a3e 1eb8 8e3d b961 ec3d
00000020: 967f 7e3e 1356 143e c5c1 623e a394 943e
00000030: 55cb be3d cfaa 403e ae97 033e 5a50 523d
00000040: 4541 523e 5b95 2e3e 4fdb cfbe 66ee eb3d
00000050: d60b 0fbd 0e50 df3e cfcb 1fbe 70b7 a5be
00000060: 22e1 b7be 2761 303e 0ed9 3ebc 1dfa 003f
00000070: 683b 213d b4ed 4bbe 3c83 7ebe 78bd 673d
00000080: 6e90 2a3e 962a 203f 0fb3 a63d df5c 1dbe
00000090: db32 42bd 64b8 37be 3648 4fbe 8bde 07be
000000a0: 47aa babd 2bb0 69be 6055 533e ad0b 3ebe
000000b0: b5e9 aebe 492a e3bb 5669 7cbd d5d6 29be
000000c0: f036 3ebe b633 6cbe a3e3 70bd 2616 a93e
000000d0: 9193 9c3d eb81 3dbd acfd 2a3e f46a 8bbd
000000e0: c48d 443d 3c34 4e3e 54b2 2ebd f676 26be
000000f0: b410 39bd 101d 883d d1c5 3dbd 69cd 293e
00000100: ae6e 1f3d 0445 0e3e 3942 31bd 5b3e 1d3e
00000110: 00b0 04be 062e de3e 773a 6c3d 0344 e23d
00000120: 560b 4d3e 4470 143e 793b 383e f5e7 213e
00000130: f837 09bc 8116 263e 3e40 08bd 5889 c13c
00000140: 10c3 43bd e8a1 a23d b5a5 b03d 3fca 5e3e
00000150: 6b80 563c 6f7a 04be e551 063e f6f5 eb3e
00000160: 9541 c6bd 47d9 3e3e 993b 5abe c6ea a4bd
00000170: ddc9 f73c c2cc 103e 269c 1ebe 5d27 41be
00000180: 5abe a33c 2719 4fbd 732c dd3d 4791 063f
00000190: 1eda fc3c 412e 8cbd cd3e d63d 6bb0 88bd
000001a0: 6683 51be 5280 bf3e 85ae 08bd ec59 23be
000001b0: 56f6 573e d4ad 213e 83ea 423e 11fc 373e
000001c0: 3a5d 4d3e 99e3 4a3e 39af 6a3d 5b0a 1d3e
000001d0: ee2c a6bc 6d4f a43d 45dc bebd f611 a9bd
000001e0: 29c8 af3d 945a 223e 1b03 b2bc 8c9d 853e
000001f0: 23f8 94bd 3c59 323e f7b9 e9bd ba2b 3cb9
00000200: 0d3e 563e 40cb 0cbd 534c 03be 08a7 90bc
00000210: 7b28 f73d 4d72 073e 15f1 863c 97aa 483d
00000220: 5614 983d 7010 603d 1fc6 e13c 3887 e13d
00000230: f90b 2c3e 214d 2f3e f544 ab3c 79ba ab3d
00000240: dd23 a7bd f07f c9bd cf72 18be 93ea 673e
00000250: 5fe1 8abe 5ba8 9ebd ec5c fabd 17ac c9bd
00000260: 2179 f3bd c7e6 92bb 058c 3cbd b6a5 abbe
00000270: 6ac0 92be 41a0 0dbe 268e 43be ef0f a73e
00000280: b22d 00be ba51 b8bd 56a8 febd f93f 5cbd
00000290: 3589 d93d 2b27 883e 1638 dc3d 979f ccbd
000002a0: e237 2b3e 8d91 9d3c e39c 303e cd3c 00be
000002b0: b7fd 1b3e 43b7 34bd 94a2 dd3d eec4 843d
000002c0: c761 013c 9e1c 58be dfd4 c13d 911e e0bd
000002d0: 6c58 8d3c f7b6 403e da46 f2bc ac56 0e3e
000002e0: 556b 163e 48ae b1ba 1f8f 663e 350b 5c3e
000002f0: 92e3 b6bd 4afa d2bd 2cf6 acbd f799 9d3d
00000300: 768e 0a3e 20a6 943c cb49 00be 8f7a 9fbd
00000310: 138d 18be ab64 523e 3961 90be 479c 03bd
00000320: 6723 44be bad4 1dbd 7e22 0b3e 980f b5be
00000330: 6175 9bbd 560d 6d3e 1447 3b3e b6b0 52be
00000340: 84f5 bd3d 6c72 f13c f81c 623e 269a 0c3e
00000350: 85ca 94bc 8d2c d4bc 2e3f 113e 61d2 603e
00000360: 8c79 863d 909c f8bd 989a 083e 9d13 9c3e
00000370: 42db 213d a3f2 28bd 3066 13be a8c6 e23b
00000380: b39d 4a3d 5d11 593e 3517 26be e3c2 dbbc
00000390: e2c5 ccbd 3c27 d63d 2565 c83d 8306 bf3e
000003a0: 151e eebd a3c2 e4bd 7ff7 25be e63a 1fbb
000003b0: f1af 043e 870b d73d 41ae 0a3d 39e6 833d
000003c0: 2538 3a3e 3fe9 613d 44e1 81bd a182 d83e
000003d0: 3dee f83d 72d2 cebd 10f0 bc3d adbe 7cbd
000003e0: 7a9d 573d 4e09 d23e e9cf f93d 3a4e b93d
000003f0: 9dec 783d e640 29be 2e93 bc3c 464b c53e
-0.027345087 0.09751591 0.088838354 0.41102076 0.24908434 0.2292717 0.06968711 0.115420766
0.24853358 0.1448596 0.2214423 0.2901965 0.09316126 0.18815158 0.1285083 0.05134616
0.20532711 0.17049162 -0.40597007 0.1152008 -0.034923397 0.43615764 -0.1560509 -0.32366514
-0.3591395 0.1722456 -0.01164843 0.5038164 0.039363295 -0.19914895 -0.2485475 0.056577176
0.16656658 0.6256498 0.081396215 -0.15367459 -0.04741178 -0.17941433 -0.2024239 -0.13268487
-0.09114509 -0.22821109 0.20638037 -0.18559141 -0.3416268 -0.006932531 -0.061623894 -0.16585858
-0.18575644 -0.23066601 -0.05881084 0.3302471 0.076453336 -0.046266478 0.1669833 -0.06807509
0.04798676 0.20137113 -0.042650536 -0.16256317 -0.045181945 0.06646168 -0.04633123 0.16582264
0.03892391 0.13893515 -0.043276045 0.15355818 -0.12957764 0.43394488 0.057672944 0.110481285
0.20023856 0.14495951 0.17991437 0.15811141 -0.00837516 0.16219522 -0.03326439 0.02362506
-0.047793448 0.079410374 0.08625356 0.21756838 0.013092141 -0.1293733 0.13117178 0.4608609
-0.096804775 0.18637572 -0.21311797 -0.08052592 0.030247623 0.14140609 -0.15489253 -0.18862672
0.019988228 -0.050561097 0.10799494 0.52565426 0.030865725 -0.0684476 0.10461197 -0.06674274
-0.20460281 0.37402588 -0.03336956 -0.15952271 0.21090063 0.15788966 0.19034772 0.1796725
0.20055094 0.19813384 0.05729601 0.15335982 -0.020285096 0.08022962 -0.09319357 -0.08255379
0.085830994 0.15854865 -0.021729996 0.2609676 -0.07273891 0.17416853 -0.11412423 -0.00017945367
0.20922108 -0.03437352 -0.12822084 -0.017657772 0.12068268 0.13227196 0.016472379 0.048990812
0.07425754 0.054703176 0.027560292 0.11012119 0.16801442 0.17119266 0.020906905 0.08385176
-0.08161137 -0.09838855 -0.14887546 0.22648077 -0.2712507 -0.07746955 -0.12224755 -0.09847277
-0.11888338 -0.004483077 -0.04603197 -0.33524865 -0.28662425 -0.13830663 -0.19097194 0.32629344
-0.12517431 -0.08999963 -0.12434451 -0.053771947 0.10621873 0.26592383 0.10752885 -0.09991377
0.16720536 0.019234443 0.17247348 -0.12523194 0.15233503 -0.044120084 0.10822025 0.06482874
0.007896847 -0.21104667 0.0946443 -0.1094333 0.017254077 0.18819796 -0.0295748 0.1390025
0.14689381 -0.0013555968 0.22515534 0.2148865 -0.08930124 -0.10301645 -0.08445391 0.07695382
0.13530907 0.01814562 -0.1252815 -0.07787048 -0.14897566 0.20546214 -0.28199175 -0.03213146
-0.1915413 -0.03853295 0.13587376 -0.3536346 -0.075907476 0.23149619 0.18288833 -0.20575222
0.09275344 0.029473506 0.22081363 0.13730678 -0.018162975 -0.02590015 0.14184257 0.21955253
0.06566152 -0.12139237 0.13340223 0.30483714 0.03951574 -0.04124702 -0.1439445 0.0069206543
0.0494668 0.2119803 -0.1621979 -0.026826328 -0.09998681 0.10456702 0.09784917 0.37309656
-0.116268314 -0.111699365 -0.16207694 -0.002429658 0.12957741 0.105002455 0.033857588 0.06440396
0.1818548 0.05515408 -0.06341794 0.42287162 0.12154815 -0.10098733 0.09225476 -0.06170528
0.052640416 0.41022724 0.12197859 0.09048124 0.060772527 -0.16528663 0.0230194 0.38533992
