TFLite-model/01a_LeNet-MNIST_Q-full.tflite (tflite, 87232 bytes, 5 tensors)

sequential_2/dense_6/MatMul i1 [120, 576] scale=0.0050647585 zero_point=0
0	0xfe	-0.010129517
1	0xef	-0.08610089
2	0xef	-0.08610089
3	0x0c	0.0607771
4	0xee	-0.091165654
5	0x08	0.040518068
6	0xf7	-0.045582827
7	0xf7	-0.045582827
8	0xf5	-0.055712342
9	0x13	0.09623041
10	0x0c	0.0607771
11	0xff	-0.0050647585
12	0x09	0.045582827
13	0x09	0.045582827
14	0xf4	-0.0607771
15	0xf0	-0.081036136
16	0xeb	-0.10635993
17	0x05	0.025323793
18	0xfa	-0.03038855
19	0x00	0.0
20	0x05	0.025323793
21	0x01	0.0050647585
22	0x17	0.11648945
23	0xfc	-0.020259034
24	0xf1	-0.07597138
25	0x12	0.091165654
26	0x18	0.1215542
27	0xf3	-0.06584186
28	0x17	0.11648945
29	0xf3	-0.06584186
30	0x0b	0.055712342
31	0x00	0.0
32	0xf6	-0.050647587
33	0x0a	0.050647587
34	0xf3	-0.06584186
35	0xf4	-0.0607771
36	0x0b	0.055712342
37	0x13	0.09623041
38	0xfc	-0.020259034
39	0x0a	0.050647587
40	0x10	0.081036136
41	0xf3	-0.06584186
42	0x07	0.03545331
43	0x03	0.015194275
44	0x07	0.03545331
45	0xed	-0.09623041
46	0xfb	-0.025323793
47	0x06	0.03038855
48	0x0b	0.055712342
49	0x19	0.12661897
50	0x0d	0.06584186
51	0x13	0.09623041
52	0x00	0.0
53	0x01	0.0050647585
54	0xf9	-0.03545331
55	0x05	0.025323793
56	0xff	-0.0050647585
57	0xf8	-0.040518068
58	0xfc	-0.020259034
59	0xfb	-0.025323793
60	0x0b	0.055712342
61	0x05	0.025323793
62	0x0d	0.06584186
63	0x0e	0.07090662
64	0x0b	0.055712342
65	0x09	0.045582827
66	0x16	0.111424685
67	0x14	0.10129517
68	0x0c	0.0607771
69	0x07	0.03545331
70	0xfc	-0.020259034
71	0xfd	-0.015194275
72	0xfd	-0.015194275
73	0x10	0.081036136
74	0xf5	-0.055712342
75	0x10	0.081036136
76	0xff	-0.0050647585
77	0x09	0.045582827
78	0xfc	-0.020259034
79	0x1d	0.14687799
80	0x0f	0.07597138
81	0x00	0.0
82	0xf8	-0.040518068
83	0xf7	-0.045582827
84	0xfd	-0.015194275
85	0x08	0.040518068
86	0x05	0.025323793
87	0xee	-0.091165654
88	0x0d	0.06584186
89	0xfa	-0.03038855
90	0xf7	-0.045582827
91	0x14	0.10129517
92	0x06	0.03038855
93	0x0c	0.0607771
94	0x04	0.020259034
95	0xfe	-0.010129517
96	0xfa	-0.03038855
97	0xed	-0.09623041
98	0x02	0.010129517
99	0xf8	-0.040518068
100	0x0a	0.050647587
101	0xf5	-0.055712342
102	0xfb	-0.025323793
103	0x0b	0.055712342
104	0x0f	0.07597138
105	0x13	0.09623041
106	0x06	0.03038855
107	0xfb	-0.025323793
108	0xec	-0.10129517
109	0x03	0.015194275
110	0x0a	0.050647587
111	0xf3	-0.06584186
112	0xf8	-0.040518068
113	0x14	0.10129517
114	0xee	-0.091165654
115	0x08	0.040518068
116	0x19	0.12661897
117	0xfe	-0.010129517
118	0xf7	-0.045582827
119	0x15	0.10635993
120	0xfe	-0.010129517
121	0xfc	-0.020259034
122	0x10	0.081036136
123	0x04	0.020259034
124	0x01	0.0050647585
125	0x07	0.03545331
126	0x08	0.040518068
127	0xf8	-0.040518068
128	0xe8	-0.1215542
129	0x0f	0.07597138
130	0x08	0.040518068
131	0x02	0.010129517
132	0x0a	0.050647587
133	0xf9	-0.03545331
134	0xf3	-0.06584186
135	0x03	0.015194275
136	0x0d	0.06584186
137	0x04	0.020259034
138	0x1b	0.13674848
139	0xdf	-0.16713703
140	0x01	0.0050647585
141	0x0e	0.07090662
142	0x13	0.09623041
143	0x08	0.040518068
144	0xef	-0.08610089
145	0xf6	-0.050647587
146	0x14	0.10129517
147	0xfd	-0.015194275
148	0x0d	0.06584186
149	0xf8	-0.040518068
150	0x12	0.091165654
151	0x09	0.045582827
152	0x08	0.040518068
153	0xf7	-0.045582827
154	0x08	0.040518068
155	0xe8	-0.1215542
156	0x0c	0.0607771
157	0x0e	0.07090662
158	0x03	0.015194275
159	0x02	0.010129517
160	0x0b	0.055712342
161	0x11	0.08610089
162	0x07	0.03545331
163	0x01	0.0050647585
164	0xfa	-0.03038855
165	0x13	0.09623041
166	0xf9	-0.03545331
167	0xd8	-0.20259035
168	0x05	0.025323793
169	0xfe	-0.010129517
170	0x19	0.12661897
171	0xf8	-0.040518068
172	0x0c	0.0607771
173	0x09	0.045582827
174	0xf9	-0.03545331
175	0x0c	0.0607771
176	0x20	0.16207227
177	0x08	0.040518068
178	0x15	0.10635993
179	0xea	-0.111424685
180	0xf0	-0.081036136
181	0xee	-0.091165654
182	0x0b	0.055712342
183	0xc1	-0.3190798
184	0x09	0.045582827
185	0x0a	0.050647587
186	0xfd	-0.015194275
187	0x0a	0.050647587
188	0xfd	-0.015194275
189	0x0f	0.07597138
190	0x0f	0.07597138
191	0x06	0.03038855
192	0xef	-0.08610089
193	0x06	0.03038855
194	0x01	0.0050647585
195	0x08	0.040518068
196	0x01	0.0050647585
197	0x10	0.081036136
198	0x12	0.091165654
199	0x07	0.03545331
200	0x00	0.0
201	0x0c	0.0607771
202	0x12	0.091165654
203	0x0a	0.050647587
204	0xf8	-0.040518068
205	0xee	-0.091165654
206	0x19	0.12661897
207	0xf7	-0.045582827
208	0x04	0.020259034
209	0x08	0.040518068
210	0x16	0.111424685
211	0xfc	-0.020259034
212	0xfd	-0.015194275
213	0x07	0.03545331
214	0x01	0.0050647585
215	0x0b	0.055712342
216	0x0a	0.050647587
217	0x0b	0.055712342
218	0xd4	-0.22284937
219	0x0d	0.06584186
220	0xec	-0.10129517
221	0xed	-0.09623041
222	0xf8	-0.040518068
223	0x0d	0.06584186
224	0x02	0.010129517
225	0xf6	-0.050647587
226	0x0d	0.06584186
227	0x08	0.040518068
228	0x17	0.11648945
229	0x01	0.0050647585
230	0xfa	-0.03038855
231	0x06	0.03038855
232	0x15	0.10635993
233	0x00	0.0
234	0x0f	0.07597138
235	0x17	0.11648945
236	0xf2	-0.07090662
237	0xfe	-0.010129517
238	0x0c	0.0607771
239	0x0d	0.06584186
240	0xf4	-0.0607771
241	0x13	0.09623041
242	0xf5	-0.055712342
243	0x15	0.10635993
244	0x20	0.16207227
245	0xfe	-0.010129517
246	0x04	0.020259034
247	0xf1	-0.07597138
248	0x11	0.08610089
249	0xf5	-0.055712342
250	0x31	0.24817316
251	0xcb	-0.2684322
252	0x02	0.010129517
253	0x03	0.015194275
254	0xf8	-0.040518068
255	0x0e	0.07090662

sequential_2/dense_7/MatMul i1 [84, 120] scale=0.0059324247 zero_point=0
0	0x0f	0.08898637
1	0xdd	-0.20763487
2	0xdd	-0.20763487
3	0x0e	0.08305395
4	0x17	0.13644576
5	0x07	0.041526973
6	0xe1	-0.18390517
7	0x1e	0.17797273
8	0x12	0.10678364
9	0xed	-0.11271607
10	0x15	0.12458092
11	0xff	-0.0059324247
12	0x07	0.041526973
13	0x2d	0.2669591
14	0x26	0.22543214
15	0x05	0.029662123
16	0x02	0.011864849
17	0xf9	-0.041526973
18	0x2a	0.24916184
19	0x1b	0.16017547
20	0x23	0.20763487
21	0x1b	0.16017547
22	0xef	-0.10085122
23	0x0c	0.0711891
24	0x0a	0.059324246
25	0xed	-0.11271607
26	0xfd	-0.017797275
27	0x08	0.047459397
28	0x07	0.041526973
29	0xfa	-0.03559455
30	0x1d	0.17204031
31	0x25	0.2194997
32	0xfb	-0.029662123
33	0x01	0.0059324247
34	0xf5	-0.06525667
35	0xf7	-0.05339182
36	0xde	-0.20170245
37	0xff	-0.0059324247
38	0x01	0.0059324247
39	0xe3	-0.17204031
40	0xf6	-0.059324246
41	0xd2	-0.27289152
42	0x1d	0.17204031
43	0xf8	-0.047459397
44	0x0e	0.08305395
45	0xc2	-0.36781034
46	0xfd	-0.017797275
47	0x26	0.22543214
48	0x09	0.05339182
49	0xe1	-0.18390517
50	0x15	0.12458092
51	0x20	0.18983759
52	0xf1	-0.08898637
53	0xe7	-0.14831062
54	0x0e	0.08305395
55	0xe2	-0.17797273
56	0xeb	-0.12458092
57	0xf0	-0.094918795
58	0x22	0.20170245
59	0xf9	-0.041526973
60	0x15	0.12458092
61	0x0a	0.059324246
62	0xea	-0.13051334
63	0x13	0.11271607
64	0x0c	0.0711891
65	0xe8	-0.1423782
66	0xea	-0.13051334
67	0x0a	0.059324246
68	0xff	-0.0059324247
69	0xee	-0.10678364
70	0x18	0.1423782
71	0xe1	-0.18390517
72	0xf9	-0.041526973
73	0xe8	-0.1423782
74	0xea	-0.13051334
75	0x18	0.1423782
76	0x08	0.047459397
77	0x25	0.2194997
78	0x0e	0.08305395
79	0xf4	-0.0711891
80	0xde	-0.20170245
81	0x08	0.047459397
82	0x16	0.13051334
83	0xf7	-0.05339182
84	0x11	0.10085122
85	0x13	0.11271607
86	0xdf	-0.19577001
87	0x1c	0.1661079
88	0xf3	-0.07712152
89	0x0d	0.07712152
90	0xf1	-0.08898637
91	0x13	0.11271607
92	0xf7	-0.05339182
93	0xd5	-0.25509426
94	0xf7	-0.05339182
95	0xef	-0.10085122
96	0x27	0.23136456
97	0xe4	-0.1661079
98	0xf6	-0.059324246
99	0xf8	-0.047459397
100	0xe8	-0.1423782
101	0xfb	-0.029662123
102	0x0c	0.0711891
103	0x08	0.047459397
104	0x16	0.13051334
105	0x07	0.041526973
106	0x16	0.13051334
107	0x1e	0.17797273
108	0x21	0.19577001
109	0x09	0.05339182
110	0x18	0.1423782
111	0xfd	-0.017797275
112	0xeb	-0.12458092
113	0x1b	0.16017547
114	0xef	-0.10085122
115	0xe4	-0.1661079
116	0x1f	0.18390517
117	0x09	0.05339182
118	0xfb	-0.029662123
119	0x14	0.11864849
120	0xf8	-0.047459397
121	0xf0	-0.094918795
122	0xfe	-0.011864849
123	0xf4	-0.0711891
124	0xee	-0.10678364
125	0xf8	-0.047459397
126	0x1f	0.18390517
127	0x0e	0.08305395
128	0x00	0.0
129	0xf2	-0.08305395
130	0x13	0.11271607
131	0xfd	-0.017797275
132	0x1e	0.17797273
133	0xfe	-0.011864849
134	0x29	0.24322942
135	0xf7	-0.05339182
136	0xf8	-0.047459397
137	0x0e	0.08305395
138	0xf2	-0.08305395
139	0xe6	-0.15424304
140	0x07	0.041526973
141	0x06	0.03559455
142	0xdc	-0.21356729
143	0x1d	0.17204031
144	0x21	0.19577001
145	0xe7	-0.14831062
146	0x1b	0.16017547
147	0xfe	-0.011864849
148	0x21	0.19577001
149	0x06	0.03559455
150	0x11	0.10085122
151	0xf0	-0.094918795
152	0xe7	-0.14831062
153	0x0b	0.06525667
154	0xf7	-0.05339182
155	0x0c	0.0711891
156	0x1f	0.18390517
157	0xd3	-0.2669591
158	0x05	0.029662123
159	0xd9	-0.23136456
160	0xe7	-0.14831062
161	0x27	0.23136456
162	0x0a	0.059324246
163	0x08	0.047459397
164	0xee	-0.10678364
165	0xf7	-0.05339182
166	0x15	0.12458092
167	0xe6	-0.15424304
168	0x08	0.047459397
169	0x06	0.03559455
170	0xe7	-0.14831062
171	0xeb	-0.12458092
172	0x0b	0.06525667
173	0xfa	-0.03559455
174	0xf6	-0.059324246
175	0xf8	-0.047459397
176	0xe5	-0.16017547
177	0xf9	-0.041526973
178	0xdd	-0.20763487
179	0x11	0.10085122
180	0xeb	-0.12458092
181	0xfa	-0.03559455
182	0xf1	-0.08898637
183	0xfe	-0.011864849
184	0x16	0.13051334
185	0x1b	0.16017547
186	0xce	-0.29662123
187	0x1c	0.1661079
188	0xe3	-0.17204031
189	0x16	0.13051334
190	0xf9	-0.041526973
191	0xea	-0.13051334
192	0x03	0.017797275
193	0xf8	-0.047459397
194	0x11	0.10085122
195	0x26	0.22543214
196	0xf7	-0.05339182
197	0x0d	0.07712152
198	0x09	0.05339182
199	0x14	0.11864849
200	0x17	0.13644576
201	0x08	0.047459397
202	0x0b	0.06525667
203	0xfe	-0.011864849
204	0x02	0.011864849
205	0x0d	0.07712152
206	0x06	0.03559455
207	0x12	0.10678364
208	0x0f	0.08898637
209	0x1a	0.15424304
210	0xf9	-0.041526973
211	0x08	0.047459397
212	0x01	0.0059324247
213	0xea	-0.13051334
214	0x04	0.023729699
215	0xed	-0.11271607
216	0xf4	-0.0711891
217	0x0e	0.08305395
218	0x1a	0.15424304
219	0xe7	-0.14831062
220	0x10	0.094918795
221	0x10	0.094918795
222	0x1d	0.17204031
223	0x0f	0.08898637
224	0x02	0.011864849
225	0x12	0.10678364
226	0xe5	-0.16017547
227	0x20	0.18983759
228	0x04	0.023729699
229	0x2a	0.24916184
230	0x09	0.05339182
231	0xff	-0.0059324247
232	0x1f	0.18390517
233	0x1a	0.15424304
234	0x08	0.047459397
235	0xe6	-0.15424304
236	0x04	0.023729699
237	0xdf	-0.19577001
238	0xf4	-0.0711891
239	0x0f	0.08898637
240	0xfe	-0.011864849
241	0xf9	-0.041526973
242	0x04	0.023729699
243	0xe3	-0.17204031
244	0xf9	-0.041526973
245	0xf9	-0.041526973
246	0x09	0.05339182
247	0x19	0.14831062
248	0xe7	-0.14831062
249	0xfa	-0.03559455
250	0x03	0.017797275
251	0xfb	-0.029662123
252	0xf9	-0.041526973
253	0x0c	0.0711891
254	0x0f	0.08898637
255	0x08	0.047459397

sequential_2/dense_8/MatMul i1 [10, 84] scale=0.0058855773 zero_point=0
0	0x14	0.117711544
1	0xb8	-0.42376158
2	0x07	0.04119904
3	0xf1	-0.08828366
4	0xf1	-0.08828366
5	0xcf	-0.2883933
6	0xfa	-0.035313465
7	0xc1	-0.37079138
8	0x0c	0.07062693
9	0x01	0.0058855773
10	0x0e	0.08239808
11	0x25	0.21776636
12	0x34	0.30605003
13	0x34	0.30605003
14	0x11	0.100054815
15	0xd9	-0.22953752
16	0x10	0.09416924
17	0xea	-0.1294827
18	0x18	0.14125386
19	0x31	0.2883933
20	0x22	0.20010963
21	0x28	0.23542309
22	0x24	0.21188079
23	0xd6	-0.24719425
24	0x2a	0.24719425
25	0x2e	0.27073655
26	0xe8	-0.14125386
27	0xf4	-0.07062693
28	0xe6	-0.15302502
29	0xdf	-0.19422404
30	0xce	-0.29427886
31	0xd3	-0.26485097
32	0xec	-0.117711544
33	0xea	-0.1294827
34	0xf3	-0.07651251
35	0x07	0.04119904
36	0x1c	0.16479616
37	0x1f	0.1824529
38	0xd4	-0.2589654
39	0x3f	0.37079138
40	0x10	0.09416924
41	0xfb	-0.029427886
42	0xe3	-0.17068174
43	0xdf	-0.19422404
44	0xe7	-0.14713943
45	0x24	0.21188079
46	0xfd	-0.017656732
47	0xff	-0.0058855773
48	0x88	-0.70626926
49	0xdf	-0.19422404
50	0xee	-0.105940394
51	0xec	-0.117711544
52	0x30	0.28250772
53	0x19	0.14713943
54	0xe7	-0.14713943
55	0xe9	-0.13536827
56	0x19	0.14713943
57	0xe8	-0.14125386
58	0x3a	0.3413635
59	0xfc	-0.02354231
60	0xd2	-0.27073655
61	0xbc	-0.40021926
62	0xed	-0.111825965
63	0x1f	0.1824529
64	0x25	0.21776636
65	0x3a	0.3413635
66	0xcb	-0.3119356
67	0xf3	-0.07651251
68	0x29	0.24130867
69	0x10	0.09416924
70	0x27	0.22953752
71	0xea	-0.1294827
72	0xea	-0.1294827
73	0x27	0.22953752
74	0xd3	-0.26485097
75	0x1f	0.1824529
76	0xe2	-0.17656732
77	0xc4	-0.35313463
78	0x17	0.13536827
79	0x09	0.052970197
80	0x1c	0.16479616
81	0xf5	-0.06474135
82	0xe9	-0.13536827
83	0x0d	0.07651251
84	0x06	0.035313465
85	0x10	0.09416924
86	0x1f	0.1824529
87	0x31	0.2883933
88	0x3e	0.3649058
89	0xda	-0.22365193
90	0xd2	-0.27073655
91	0x5b	0.53558755
92	0xe6	-0.15302502
93	0xcb	-0.3119356
94	0xda	-0.22365193
95	0x23	0.2059952
96	0x2e	0.27073655
97	0x12	0.105940394
98	0xfd	-0.017656732
99	0x1e	0.17656732
100	0xeb	-0.12359712
101	0xe3	-0.17068174
102	0x11	0.100054815
103	0x0b	0.06474135
104	0xdb	-0.21776636
105	0x2d	0.26485097
106	0xdf	-0.19422404
107	0xe7	-0.14713943
108	0x23	0.2059952
109	0xd4	-0.2589654
110	0xf8	-0.04708462
111	0xe5	-0.15891059
112	0x48	0.42376158
113	0x12	0.105940394
114	0x21	0.19422404
115	0x01	0.0058855773
116	0x03	0.017656732
117	0xdf	-0.19422404
118	0xdc	-0.21188079
119	0x1c	0.16479616
120	0x06	0.035313465
121	0x7f	0.7474683
122	0xce	-0.29427886
123	0x34	0.30605003
124	0x2a	0.24719425
125	0x48	0.42376158
126	0x28	0.23542309
127	0xde	-0.20010963
128	0x39	0.33547792
129	0x15	0.12359712
130	0xc6	-0.3413635
131	0x13	0.111825965
132	0x21	0.19422404
133	0x09	0.052970197
134	0x19	0.14713943
135	0xfc	-0.02354231
136	0x11	0.100054815
137	0xec	-0.117711544
138	0xd4	-0.2589654
139	0xfd	-0.017656732
140	0x11	0.100054815
141	0x1a	0.15302502
142	0x05	0.029427886
143	0xe6	-0.15302502
144	0x1b	0.15891059
145	0x2a	0.24719425
146	0xf9	-0.04119904
147	0xfe	-0.011771155
148	0xdb	-0.21776636
149	0xe3	-0.17068174
150	0x31	0.2883933
151	0x14	0.117711544
152	0x0e	0.08239808
153	0xca	-0.31782117
154	0x2b	0.25307983
155	0x03	0.017656732
156	0xd4	-0.2589654
157	0xe4	-0.16479616
158	0xda	-0.22365193
159	0x0d	0.07651251
160	0xfa	-0.035313465
161	0x1e	0.17656732
162	0x29	0.24130867
163	0xc2	-0.3649058
164	0x1e	0.17656732
165	0xf2	-0.08239808
166	0x25	0.21776636
167	0x11	0.100054815
168	0xfe	-0.011771155
169	0x15	0.12359712
170	0xe9	-0.13536827
171	0x37	0.32370675
172	0x21	0.19422404
173	0xf4	-0.07062693
174	0xd2	-0.27073655
175	0x14	0.117711544
176	0x15	0.12359712
177	0x34	0.30605003
178	0x2d	0.26485097
179	0xfb	-0.029427886
180	0xcd	-0.30016443
181	0xd9	-0.22953752
182	0x03	0.017656732
183	0xd7	-0.24130867
184	0xe3	-0.17068174
185	0xdb	-0.21776636
186	0x07	0.04119904
187	0x00	0.0
188	0x26	0.22365193
189	0x32	0.29427886
190	0xf2	-0.08239808
191	0x61	0.570901
192	0x21	0.19422404
193	0xee	-0.105940394
194	0xfa	-0.035313465
195	0xd7	-0.24130867
196	0x9e	-0.5767866
197	0x0f	0.08828366
198	0xdb	-0.21776636
199	0xe2	-0.17656732
200	0x23	0.2059952
201	0x06	0.035313465
202	0xcd	-0.30016443
203	0x20	0.18833847
204	0xfe	-0.011771155
205	0x01	0.0058855773
206	0x0f	0.08828366
207	0x1e	0.17656732
208	0xf5	-0.06474135
209	0xe5	-0.15891059
210	0x31	0.2883933
211	0x0e	0.08239808
212	0xf1	-0.08828366
213	0x31	0.2883933
214	0x21	0.19422404
215	0x21	0.19422404
216	0x14	0.117711544
217	0x25	0.21776636
218	0x07	0.04119904
219	0x31	0.2883933
220	0xeb	-0.12359712
221	0x28	0.23542309
222	0xfc	-0.02354231
223	0xd7	-0.24130867
224	0xe7	-0.14713943
225	0xf1	-0.08828366
226	0xcd	-0.30016443
227	0x10	0.09416924
228	0x22	0.20010963
229	0xeb	-0.12359712
230	0xf1	-0.08828366
231	0x21	0.19422404
232	0x03	0.017656732
233	0x2d	0.26485097
234	0x26	0.22365193
235	0xce	-0.29427886
236	0x2a	0.24719425
237	0xe7	-0.14713943
238	0x1f	0.1824529
239	0xf6	-0.058855772
240	0x25	0.21776636
241	0x0f	0.08828366
242	0x1e	0.17656732
243	0xd7	-0.24130867
244	0xf3	-0.07651251
245	0xef	-0.100054815
246	0xf6	-0.058855772
247	0x20	0.18833847
248	0xed	-0.111825965
249	0x02	0.011771155
250	0xfb	-0.029427886
251	0xfb	-0.029427886
252	0xec	-0.117711544
253	0x10	0.09416924
254	0x02	0.011771155
255	0xe3	-0.17068174

sequential_2/conv2d_4/Conv2D i1 [6, 3, 3, 1]
0	0xea	-22
1	0x0a	10
2	0x0d	13
3	0x64	100
4	0x12	18
5	0x08	8
6	0x1b	27
7	0x7f	127
8	0x31	49
9	0x7f	127
10	0x27	39
11	0x7a	122
12	0x65	101
13	0x22	34
14	0xf8	-8
15	0x9f	-97
16	0x1c	28
17	0x06	6
18	0x66	102
19	0x73	115
20	0x5e	94
21	0x0e	14
22	0x65	101
23	0x7f	127
24	0x0b	11
25	0x3a	58
26	0xeb	-21
27	0x7d	125
28	0x6c	108
29	0x51	81
30	0x9c	-100
31	0x81	-127
32	0x94	-108
33	0xcf	-49
34	0x21	33
35	0x20	32
36	0xd0	-48
37	0xdf	-33
38	0x6e	110
39	0x56	86
40	0xe7	-25
41	0x32	50
42	0xd2	-46
43	0x34	52
44	0x7f	127
45	0x49	73
46	0x0c	12
47	0xf6	-10
48	0x57	87
49	0x7f	127
50	0x72	114
51	0x5e	94
52	0xfe	-2
53	0x07	7

sequential_2/conv2d_5/Conv2D i1 [16, 3, 3, 6]
0	0xfa	-6
1	0x14	20
2	0x12	18
3	0x53	83
4	0x33	51
5	0x2f	47
6	0x0e	14
7	0x17	23
8	0x32	50
9	0x1d	29
10	0x2d	45
11	0x3b	59
12	0x13	19
13	0x26	38
14	0x1a	26
15	0x0a	10
16	0x2a	42
17	0x23	35
18	0xae	-82
19	0x17	23
20	0xf9	-7
21	0x59	89
22	0xe0	-32
23	0xbe	-66
24	0xb7	-73
25	0x23	35
26	0xfe	-2
27	0x66	102
28	0x08	8
29	0xd8	-40
30	0xce	-50
31	0x0b	11
32	0x22	34
33	0x7f	127
34	0x11	17
35	0xe1	-31
36	0xf6	-10
37	0xdc	-36
38	0xd7	-41
39	0xe5	-27
40	0xed	-19
41	0xd2	-46
42	0x2a	42
43	0xda	-38
44	0xbb	-69
45	0xff	-1
46	0xf3	-13
47	0xde	-34
48	0xda	-38
49	0xd1	-47
50	0xf4	-12
51	0x43	67
52	0x10	16
53	0xf7	-9
54	0x28	40
55	0xf0	-16
56	0x0c	12
57	0x31	49
58	0xf6	-10
59	0xd9	-39
60	0xf5	-11
61	0x10	16
62	0xf5	-11
63	0x28	40
64	0x09	9
65	0x22	34
66	0xf6	-10
67	0x25	37
68	0xe1	-31
69	0x69	105
70	0x0e	14
71	0x1b	27
72	0x30	48
73	0x23	35
74	0x2b	43
75	0x26	38
76	0xfe	-2
77	0x27	39
78	0xf8	-8
79	0x06	6
80	0xf4	-12
81	0x13	19
82	0x15	21
83	0x35	53
84	0x03	3
85	0xe1	-31
86	0x20	32
87	0x6f	111
88	0xe9	-23
89	0x2d	45
90	0xcd	-51
91	0xed	-19
92	0x07	7
93	0x22	34
94	0xdb	-37
95	0xd2	-46
96	0x05	5
97	0xf4	-12
98	0x1a	26
99	0x7f	127
100	0x07	7
101	0xef	-17
102	0x19	25
103	0xf0	-16
104	0xcf	-49
105	0x5a	90
106	0xf8	-8
107	0xd9	-39
108	0x50	80
109	0x3c	60
110	0x48	72
111	0x44	68
112	0x4c	76
113	0x4b	75
114	0x16	22
115	0x3a	58
116	0xf8	-8
117	0x1e	30
118	0xdd	-35
119	0xe1	-31
120	0x21	33
121	0x3c	60
122	0xf8	-8
123	0x63	99
124	0xe4	-28
125	0x42	66
126	0xd5	-43
127	0x00	0
128	0x4f	79
129	0xf3	-13
130	0xcf	-49
131	0xf9	-7
132	0x2e	46
133	0x32	50
134	0x06	6
135	0x13	19
136	0x1c	28
137	0x15	21
138	0x0a	10
139	0x2a	42
140	0x40	64
141	0x41	65
142	0x08	8
143	0x20	32
144	0xe1	-31
145	0xdb	-37
146	0xc8	-56
147	0x56	86
148	0x99	-103
149	0xe3	-29
150	0xd2	-46
151	0xdb	-37
152	0xd3	-45
153	0xfe	-2
154	0xef	-17
155	0x81	-127
156	0x93	-109
157	0xcc	-52
158	0xb8	-72
159	0x7c	124
160	0xd1	-47
161	0xde	-34
162	0xd3	-45
163	0xed	-19
164	0x26	38
165	0x60	96
166	0x27	39
167	0xdc	-36
168	0x3c	60
169	0x07	7
170	0x3e	62
171	0xd3	-45
172	0x37	55
173	0xf0	-16
174	0x27	39
175	0x17	23
176	0x03	3
177	0xb4	-76
178	0x22	34
179	0xd9	-39
180	0x06	6
181	0x44	68
182	0xf5	-11
183	0x32	50
184	0x35	53
185	0x00	0
186	0x51	81
187	0x4d	77
188	0xe0	-32
189	0xdb	-37
190	0xe2	-30
191	0x1c	28
192	0x31	49
193	0x07	7
194	0xd3	-45
195	0xe4	-28
196	0xca	-54
197	0x4a	74
198	0x9b	-101
199	0xf4	-12
200	0xbb	-69
201	0xf2	-14
202	0x31	49
203	0x81	-127
204	0xe5	-27
205	0x53	83
206	0x42	66
207	0xb6	-74
208	0x21	33
209	0x0b	11
210	0x4f	79
211	0x31	49
212	0xf9	-7
213	0xf7	-9
214	0x33	51
215	0x4f	79
216	0x14	20
217	0xdc	-36
218	0x28	40
219	0x5b	91
220	0x0c	12
221	0xf4	-12
222	0xd5	-43
223	0x02	2
224	0x0f	15
225	0x40	64
226	0xcf	-49
227	0xf8	-8
228	0xe2	-30
229	0x1f	31
230	0x1d	29
231	0x70	112
232	0xdd	-35
233	0xde	-34
234	0xcf	-49
235	0xff	-1
236	0x27	39
237	0x20	32
238	0x0a	10
239	0x13	19
240	0x37	55
241	0x11	17
242	0xed	-19
243	0x7f	127
244	0x24	36
245	0xe2	-30
246	0x1c	28
247	0xed	-19
248	0x10	16
249	0x7b	123
250	0x25	37
251	0x1b	27
252	0x12	18
253	0xce	-50
254	0x07	7
255	0x74	116
