TFLite-model/01b_ResNet20_CIFAR-10_Q-mixed.tflite (tflite, 304704 bytes, 44 tensors)

model/dense/BiasAdd/ReadVariableOp f4 [10]
000000 10 0b 46 bc c3 bf 1c be b7 5c fe 3d 31 0e b5 3d
       -0.012087598 -0.15307526 0.12420028 0.088405974
000010 4c b8 d3 3d a3 85 12 be c7 86 69 bb ec 46 f3 3b
       0.10337886 -0.14308791 -0.0035633312 0.007424226
000020 97 11 af 3d d0 b0 0d be
       0.08548277 -0.1383698

model/activation/Relu;model/batch_normalization/FusedBatchNormV3;model/conv2d_1/BiasAdd/ReadVariableOp;model/conv2d_1/BiasAdd;model/batch_normalization_6/FusedBatchNormV3;model/conv2d_7/BiasAdd/ReadVariableOp;model/conv2d_7/BiasAdd;model/conv2d_7/Conv2D/ReadVariableOp;model/conv2d_7/Conv2D;model/conv2d_1/Conv2D/ReadVariableOp;model/conv2d_1/Conv2D f4 [16]
000000 58 88 8c 3e 93 ac 70 bf 69 c1 b0 bf 3d cb d2 3f
       0.27447772 -0.9401333 -1.3809024 1.6468273
000010 60 20 97 3d 3e 0d 4f 3f cc 5d 0c 3f b0 5b 6a 3f
       0.07379222 0.8087958 0.5483062 0.91546154
000020 4f 2d df 3e b0 fc 2d 3e 0d 3d b7 3f 1b 25 ee 3e
       0.43589255 0.16990924 1.4315506 0.46512684
000030 5a 7b 6c 3f 86 f6 b1 3f 74 b2 8c 3f ae 5b 00 3f
       0.9237572 1.3903358 1.099196 0.5013989

model/activation_1/Relu;model/batch_normalization_1/FusedBatchNormV3;model/conv2d_2/BiasAdd/ReadVariableOp;model/conv2d_2/BiasAdd;model/batch_normalization_6/FusedBatchNormV3;model/conv2d_7/BiasAdd/ReadVariableOp;model/conv2d_7/BiasAdd;model/conv2d_7/Conv2D/ReadVariableOp;model/conv2d_7/Conv2D;model/conv2d_2/Conv2D/ReadVariableOp;model/conv2d_2/Conv2D f4 [16]
000000 f9 9a 18 40 6e 51 87 3f d6 5c 0d 40 e9 55 60 40
       2.3844588 1.0571725 2.2087913 3.5052435
000010 11 ab 03 3f 6d 21 04 40 c3 65 15 40 29 71 d6 3c
       0.514329 2.0645401 2.334336 0.026177006
000020 ce 11 63 40 e5 94 b2 3f 27 3f 42 3f c9 1f 72 40
       3.5479617 1.3951689 0.7587761 3.78319
000030 f2 37 45 be 6a c4 23 c0 70 28 77 be a0 b4 f2 bc
       -0.19259623 -2.5588632 -0.2413652 -0.029627144

model/batch_normalization_2/FusedBatchNormV3;model/conv2d_3/BiasAdd/ReadVariableOp;model/conv2d_3/BiasAdd;model/batch_normalization_6/FusedBatchNormV3;model/conv2d_7/BiasAdd/ReadVariableOp;model/conv2d_7/BiasAdd;model/conv2d_7/Conv2D/ReadVariableOp;model/conv2d_7/Conv2D;model/conv2d_3/Conv2D/ReadVariableOp;model/conv2d_3/Conv2D f4 [16]
000000 47 b5 ca bf 1c 9c 42 3f c6 49 74 bf 0c c9 99 3e
       -1.5836571 0.76019454 -0.9542507 0.300362
000010 0d 9f b6 3f ba 35 12 3e 7c 92 c0 be 41 b4 47 3f
       1.4267288 0.14278308 -0.3761176 0.7800942
000020 b7 95 ca 3f 69 cd 73 bc 0a 29 86 bf ca 59 a8 bb
       1.5826939 -0.014880517 -1.0481274 -0.005137657
000030 a3 a1 00 bd f0 b2 43 bd 10 b3 80 3b f3 65 bc bd
       -0.03140415 -0.04777807 0.003927596 -0.09199133

model/activation_3/Relu;model/batch_normalization_3/FusedBatchNormV3;model/conv2d_4/BiasAdd/ReadVariableOp;model/conv2d_4/BiasAdd;model/batch_normalization_6/FusedBatchNormV3;model/conv2d_7/BiasAdd/ReadVariableOp;model/conv2d_7/BiasAdd;model/conv2d_7/Conv2D/ReadVariableOp;model/conv2d_7/Conv2D;model/conv2d_4/Conv2D/ReadVariableOp;model/conv2d_4/Conv2D f4 [16]
000000 35 57 14 40 14 71 51 3f 75 68 01 40 f5 80 5c 40
       2.3178227 0.8181317 2.0220006 3.445371
000010 9d a7 43 bf f5 5e fe bf af a0 7d bf ea 70 70 3f
       -0.7642763 -1.9872729 -0.9907331 0.93922293
000020 89 2c b4 3f b3 2c 72 3e 30 7f 25 3f 2e 83 3d c0
       1.4076091 0.23649864 0.646472 -2.9611316
000030 12 53 43 3e 92 f5 d2 3e ba c1 36 c0 e8 8f df 3f
       0.19074658 0.4120298 -2.8555741 1.7465792

model/batch_normalization_4/FusedBatchNormV3;model/conv2d_5/BiasAdd/ReadVariableOp;model/conv2d_5/BiasAdd;model/batch_normalization_6/FusedBatchNormV3;model/conv2d_7/BiasAdd/ReadVariableOp;model/conv2d_7/BiasAdd;model/conv2d_7/Conv2D/ReadVariableOp;model/conv2d_7/Conv2D;model/conv2d_5/Conv2D/ReadVariableOp;model/conv2d_5/Conv2D f4 [16]
000000 f6 93 e5 3e 75 c6 ba 3e cd 48 c3 3e 7f 92 e2 3e
       0.44839448 0.36479536 0.3814148 0.44252393
000010 4c 50 b5 3e 7c 1f f0 3e 1e b1 51 bf a8 f4 13 3f
       0.35412824 0.4689902 -0.81910884 0.5779519
000020 22 92 0a 3f d3 9e 8e bd 76 4c ac bf fa bc 1f bd
       0.5412923 -0.06963887 -1.3460834 -0.03899858
000030 20 dd 54 be 11 07 30 3e f8 99 0f 3a aa 91 65 3d
       -0.20787477 0.17190196 0.000547796 0.05604712

model/activation_5/Relu;model/batch_normalization_5/FusedBatchNormV3;model/conv2d_6/BiasAdd/ReadVariableOp;model/conv2d_6/BiasAdd;model/batch_normalization_6/FusedBatchNormV3;model/conv2d_7/BiasAdd/ReadVariableOp;model/conv2d_7/BiasAdd;model/conv2d_7/Conv2D/ReadVariableOp;model/conv2d_7/Conv2D;model/conv2d_6/Conv2D/ReadVariableOp;model/conv2d_6/Conv2D f4 [16]
000000 26 1f a4 3e ca b7 31 3f e1 94 19 3f ee de 03 bc
       0.32055014 0.69421065 0.59992796 -0.008048756
000010 07 35 78 bf 00 0d c7 3e bb c1 f6 3e 36 8e 97 bd
       -0.96955913 0.38877106 0.4819468 -0.074001715
000020 30 59 fc 3e 92 7c 37 3f fa fb dc bd 2a c8 a1 3f
       0.49286795 0.71674454 -0.10790248 1.263921
000030 3c 27 28 3f 1e e5 7e 3e 7a 7e 0b 3f 3c 24 11 3f
       0.65684867 0.24892089 0.5448986 0.56695914

model/batch_normalization_6/FusedBatchNormV3;model/conv2d_7/BiasAdd/ReadVariableOp;model/conv2d_7/BiasAdd;model/conv2d_7/Conv2D/ReadVariableOp;model/conv2d_7/Conv2D f4 [16]
000000 61 94 51 3f 2d f2 ea bd 87 21 6b be ff d0 47 3f
       0.81867033 -0.114719726 -0.22962008 0.7805328
000010 b6 ac 0d 3e 4f 6e 38 3f 02 d5 99 3f 4d 7e 5d bf
       0.13835415 0.7204332 1.201813 -0.86520845
000020 e6 d9 c7 bf 4f 57 0b bf af 65 97 3e 05 41 d0 be
       -1.5613372 -0.544301 0.29569766 -0.40674606
000030 fe cc 67 be 03 a6 5e bf 64 87 8f bf 2b be 26 bf
       -0.22636792 -0.86972064 -1.1213193 -0.65133923

model/activation_7/Relu;model/batch_normalization_7/FusedBatchNormV3;model/conv2d_8/BiasAdd/ReadVariableOp;model/conv2d_8/BiasAdd;model/batch_normalization_12/FusedBatchNormV3;model/conv2d_14/BiasAdd/ReadVariableOp;model/conv2d_14/BiasAdd;model/conv2d_14/Conv2D/ReadVariableOp;model/conv2d_14/Conv2D;model/conv2d_8/Conv2D/ReadVariableOp;model/conv2d_8/Conv2D f4 [32]
000000 b8 0c 48 bf a7 83 b7 3e d8 5b da 3f 67 da 10 3e
       -0.7814441 0.3584263 1.7059278 0.14145814
000010 99 50 f7 3e 41 ea 80 3f 59 03 12 3e 89 da 82 bf
       0.4830368 1.0071489 0.1425909 -1.0222942
000020 8a dc 23 40 b5 1d c1 3e bb ac 8c bf 0b 2d 1d c0
       2.5603356 0.37717977 -1.0990213 -2.4558742
000030 dd f9 58 3e 45 4b d7 be e5 1c b4 3f c8 86 3a 3e
       0.21189065 -0.42049614 1.4071318 0.18215477
000040 03 ed f8 3e d1 02 3a 3f e8 92 2d bf 94 d7 22 c0
       0.48618326 0.7266055 -0.67802286 -2.5444078
000050 97 18 c5 bf 1f b4 cf 3f 92 ad d1 3f e2 53 69 be
       -1.5398129 1.6226844 1.6381094 -0.22785905
000060 71 d9 9f be 22 d9 6d 40 85 ef a5 bf 67 51 1f 3e
       -0.31220582 3.7163777 -1.296372 0.15558396
000070 47 4c 42 bf 81 0e 16 3e c8 e0 7a 3b 4a ae ec 3f
       -0.7589764 0.1465397 0.0038280953 1.8490689

model/batch_normalization_8/FusedBatchNormV3;model/conv2d_9/BiasAdd/ReadVariableOp;model/conv2d_9/BiasAdd;model/batch_normalization_12/FusedBatchNormV3;model/conv2d_14/BiasAdd/ReadVariableOp;model/conv2d_14/BiasAdd;model/conv2d_14/Conv2D/ReadVariableOp;model/conv2d_14/Conv2D;model/conv2d_9/Conv2D/ReadVariableOp;model/conv2d_9/Conv2D f4 [32]
000000 45 10 b3 3f 83 45 7e bf af ee 05 40 01 67 0d bf
       1.398934 -0.99324816 2.092693 -0.55235296
000010 33 d8 a8 3e 04 f2 8a 3f 56 e5 2e 3e 13 be c6 3d
       0.32977447 1.0855107 0.17079672 0.097042225
000020 71 d2 18 bf 76 73 2d bf 29 02 6e 3f 92 a3 9d 3e
       -0.5969611 -0.67754304 0.92972046 0.30788857
000030 b8 88 97 40 03 8c b6 3e 6b e0 d0 3e a7 54 97 3d
       4.7354393 0.35653695 0.40796217 0.07389193
000040 28 3a 89 3d 7e 36 4c 3f 5c e9 a7 3e 3d b3 c2 3f
       0.067005455 0.7977065 0.32795227 1.5210949
000050 1b 14 cf bf 2e d6 bd bf 87 65 31 3e bf 43 e0 3e
       -1.6178011 -1.4830987 0.17323886 0.43801686
000060 8f 80 ed bf 05 4a 0b bf 6a b0 31 bd ed 83 77 bf
       -1.8554858 -0.5440982 -0.043381132 -0.9668568
000070 0d 4b 79 be f7 d8 cf 3f 01 e0 0c 40 8d 15 1d 3f
       -0.24345036 1.6238087 2.201172 0.6136101

model/activation_9/Relu;model/batch_normalization_9/FusedBatchNormV3;model/conv2d_11/BiasAdd/ReadVariableOp;model/conv2d_11/BiasAdd;model/batch_normalization_12/FusedBatchNormV3;model/conv2d_14/BiasAdd/ReadVariableOp;model/conv2d_14/BiasAdd;model/conv2d_14/Conv2D/ReadVariableOp;model/conv2d_14/Conv2D;model/conv2d_11/Conv2D/ReadVariableOp;model/conv2d_11/Conv2D f4 [32]
000000 70 82 05 3f c5 01 2d 3f 52 aa 52 be 6a eb 02 3f
       0.52152157 0.67580825 -0.20572785 0.51140463
000010 4e 99 06 3f 50 31 c6 3f 92 df 2a bf 2a 43 5f be
       0.52577674 1.5483799 -0.6674739 -0.21802965
000020 34 ef 1b c0 d0 8e 62 be af d0 a7 3d 65 30 93 bd
       -2.4364748 -0.22124791 0.081941 -0.07186965
000030 79 e0 1c bf aa ba 5f 3e d1 fb 00 bf ea 1b 90 bf
       -0.6128002 0.2184855 -0.5038424 -1.1258519
000040 64 67 0c 3f 2e ef 82 3f 83 42 72 be 94 12 90 bf
       0.5484526 1.0229242 -0.23658185 -1.125567
000050 09 99 4d bf 40 52 6c bf 3f b1 d1 3e 6a 01 df 3f
       -0.8031164 -0.92313004 0.4095554 1.7422307
000060 a0 73 83 be e5 eb 11 bf 88 fb 6e bf 66 59 cc be
       -0.25674152 -0.5700057 -0.93352556 -0.39911956
000070 06 eb 97 bf 05 c1 26 bf 29 d1 0a 40 89 dc 20 bf
       -1.1868598 -0.65138274 2.1690161 -0.6283651

model/batch_normalization_10/FusedBatchNormV3;model/conv2d_12/BiasAdd/ReadVariableOp;model/conv2d_12/BiasAdd;model/batch_normalization_12/FusedBatchNormV3;model/conv2d_14/BiasAdd/ReadVariableOp;model/conv2d_14/BiasAdd;model/conv2d_14/Conv2D/ReadVariableOp;model/conv2d_14/Conv2D;model/conv2d_12/Conv2D/ReadVariableOp;model/conv2d_12/Conv2D f4 [32]
000000 64 0f a9 3e 12 ab 60 3d 09 de b7 3e 7e 8a dc bc
       0.33019555 0.054850645 0.35911587 -0.026921507
000010 63 08 9c bf 3a cf 59 be 9d 35 fd be 48 af 0c be
       -1.219006 -0.21270457 -0.49454966 -0.1373874
000020 0c 14 87 3e 97 3f 78 bd 35 04 aa 3d f4 85 28 bf
       0.26382482 -0.06060752 0.08301584 -0.65829396
000030 42 ed a6 bf 87 7e 71 3f c4 15 c6 be 99 d1 eb be
       -1.3041155 0.9433369 -0.3868848 -0.46058348
000040 2f f7 c3 be 72 10 2a be 64 25 87 bf 0a 0c 39 bf
       -0.38274524 -0.16607836 -1.0558286 -0.72283995
000050 29 7f 77 bf 2c a6 62 be 9d 03 40 3f df 51 4d 3e
       -0.96678406 -0.22133702 0.75005513 0.20050763
000060 61 8c 44 bf 42 43 ef bc 2f fe a3 be f4 58 db 3c
       -0.767767 -0.029206876 -0.32029864 0.026775815
000070 e7 74 61 be 36 dc 8f 3e 1b 86 b3 3c ae 89 b3 be
       -0.22017251 0.28097695 0.021914532 -0.3506598

model/activation_11/Relu;model/batch_normalization_11/FusedBatchNormV3;model/conv2d_13/BiasAdd/ReadVariableOp;model/conv2d_13/BiasAdd;model/batch_normalization_12/FusedBatchNormV3;model/conv2d_14/BiasAdd/ReadVariableOp;model/conv2d_14/BiasAdd;model/conv2d_14/Conv2D/ReadVariableOp;model/conv2d_14/Conv2D;model/conv2d_13/Conv2D/ReadVariableOp;model/conv2d_13/Conv2D f4 [32]
000000 d4 66 70 be e8 cb 57 be 2a fd 1b bf 25 6a f1 be
       -0.23476726 -0.21073878 -0.6093317 -0.47151294
000010 0b a4 49 bc 44 7b 84 3f 6e 5e 0b bf 52 95 2c 3e
       -0.012307177 1.0350118 -0.54440963 0.16853836
000020 bf ea 05 3f 74 ec 6a bf 94 e4 5d 3d 43 04 ab 3e
       0.5231132 -0.9176705 0.054173067 0.3340169
000030 25 1c 59 3e e1 8d 03 bf 65 d8 5c 3e 63 ab 4f 3f
       0.21202143 -0.51388365 0.21566923 0.8112089
000040 ba 85 fc 3e 39 9d 3b bf 55 3f 03 be a4 63 28 c0
       0.49320775 -0.7328678 -0.12817128 -2.6310816
000050 c5 b3 57 3f 6b 73 df 3e 03 aa 80 bf 47 09 2b bf
       0.8425868 0.43642744 -1.0051883 -0.6681103
000060 e4 03 c8 bf 0f e2 23 bd 3c c7 f8 3d da c1 1d 3f
       -1.5626187 -0.04001051 0.12147376 0.6162392
000070 39 a7 23 bf cf a3 59 3c 78 8b 98 3e 26 d2 87 be
       -0.63927037 0.013283684 0.29793906 -0.26527518

model/batch_normalization_12/FusedBatchNormV3;model/conv2d_14/BiasAdd/ReadVariableOp;model/conv2d_14/BiasAdd;model/conv2d_14/Conv2D/ReadVariableOp;model/conv2d_14/Conv2D f4 [32]
000000 fc 14 61 bd 7c 7f 20 bf 6d 27 91 3e 62 09 c6 bd
       -0.054951653 -0.62694526 0.28350392 -0.096697584
000010 f1 06 92 be 19 33 3d 3e 57 18 14 bf b0 df 1c 3e
       -0.2852092 0.18476523 -0.5784964 0.15319705
000020 0c 2c 60 bf b3 75 11 be 5b 7a ae be 48 66 b9 be
       -0.8756721 -0.14205055 -0.34077725 -0.36210847
000030 24 02 e4 be a5 e2 31 3e 26 31 7f bf c8 6d 82 bf
       -0.44532883 0.17371614 -0.9968437 -1.0189753
000040 a9 c6 50 be 0c e4 ec 3d 50 3f d2 be d2 c1 c1 bc
       -0.20388283 0.11566934 -0.4106393 -0.023651991
000050 f2 21 1b c0 ba 8b 73 bd bc e1 08 be 2a 1b 84 3e
       -2.4239469 -0.059459426 -0.13367361 0.25801975
000060 b4 0a 88 3e 6e ca 86 3e 69 ef 2d 3b 30 16 5e bf
       0.26570666 0.26326317 0.0026540405 -0.86752605
000070 dc f9 fa be 09 16 3e 3e 17 a5 92 3e cd a7 c9 be
       -0.49018753 0.18563093 0.2864158 -0.39385834

model/activation_13/Relu;model/batch_normalization_13/FusedBatchNormV3;model/conv2d_15/BiasAdd/ReadVariableOp;model/conv2d_15/BiasAdd;model/batch_normalization_18/FusedBatchNormV3;model/conv2d_21/BiasAdd/ReadVariableOp;model/conv2d_21/BiasAdd;model/conv2d_21/Conv2D/ReadVariableOp;model/conv2d_21/Conv2D;model/conv2d_15/Conv2D/ReadVariableOp;model/conv2d_15/Conv2D f4 [64]
000000 1f 03 44 bf d2 d9 98 bf cb b0 ae bf 7f e8 3c 3f
       -0.7656726 -1.1941473 -1.3647703 0.7379226
000010 54 cb 5f 3f 7f 5f 95 bf 89 38 0a c0 95 f3 18 3d
       0.8741963 -1.1669768 -2.1597006 0.037341673
000020 1c 72 aa 3e 4b 62 bb be aa 9b a4 be de 68 85 3f
       0.33290184 -0.3659843 -0.32150012 1.0422628
000030 7a 03 e3 3f 98 08 f1 3d ed b7 25 40 0e 71 fa 3f
       1.7735436 0.11769217 2.589351 1.9565752
000040 25 48 a5 3f d4 7f 74 3f dc cd c9 bf 01 ca f8 bf
       1.2912642 0.9550755 -1.5765948 -1.9436647
000050 9c 3e 1c c0 92 37 c6 bf 5f 45 a0 be 30 0b c3 be
       -2.4413214 -1.5485709 -0.31302926 -0.38094473
000060 13 eb 95 3e ce 07 9b 3f f6 09 fb 3f 6e b3 72 be
       0.2928091 1.2111757 1.9612415 -0.2370126
000070 5a 0e c7 3f 13 6a 14 3f c8 7c 93 3e 6e 58 14 3f
       1.5551255 0.57974356 0.28806138 0.57947433
000080 19 71 72 3f 2b 4c c7 bf 2b 35 07 c0 a5 b2 a6 bf
       0.94703823 -1.557012 -2.11262 -1.3023268
000090 cf b3 45 3f 2b 31 1b 3f ba 95 4a 3f 08 c4 94 3f
       0.7722749 0.606219 0.79134715 1.1622324
0000a0 a0 d2 e2 3c c3 86 c1 3f 19 c4 0f bf 3a 67 da bc
       0.027688324 1.5119251 -0.56158596 -0.02666055
0000b0 93 2b 8a bf da 2a 7b bf fd e6 60 3f d8 b7 d8 be
       -1.0794548 -0.9811226 0.8785246 -0.42327762
0000c0 a5 0f 03 c0 87 8a 9c 3e 7f 70 ed 3f d5 0e 09 bf
       -2.0478299 0.30574438 1.8549956 -0.53538257
0000d0 0d a4 79 3f 35 97 a8 bf 42 e3 82 be b8 a0 b8 be
       0.97515947 -1.3171145 -0.2556401 -0.3606012
0000e0 10 e6 2e bd f2 92 e7 be 9e ae ef be e0 b6 48 3f
       -0.042699873 -0.45229298 -0.4681291 0.78404045
0000f0 e4 7f d1 be af 8b 3e 3f 1c d6 1e bf df d8 5a 3e
       -0.40917885 0.7443189 -0.62045455 0.21371792

model/batch_normalization_14/FusedBatchNormV3;model/conv2d_16/BiasAdd/ReadVariableOp;model/conv2d_16/BiasAdd;model/batch_normalization_18/FusedBatchNormV3;model/conv2d_21/BiasAdd/ReadVariableOp;model/conv2d_21/BiasAdd;model/conv2d_21/Conv2D/ReadVariableOp;model/conv2d_21/Conv2D;model/conv2d_16/Conv2D/ReadVariableOp;model/conv2d_16/Conv2D f4 [64]
000000 ba 05 8a bf ed d9 3c bc 52 2e 42 3f 30 e3 2f bf
       -1.0782998 -0.011526567 0.7585193 -0.68706036
000010 54 67 2a 3f 87 c7 bd 3f 25 7b 66 3f ce 4d 41 bf
       0.66563916 1.4826516 0.90031654 -0.75509346
000020 fa bf 9e bf c0 95 db 3d c5 c2 b1 bd 0f 8a 01 be
       -1.2402337 0.10721922 -0.086797275 -0.12650321
000030 94 bc 03 3f 90 25 4e bf 03 29 38 be d3 aa 14 3f
       0.5145962 -0.80526066 -0.17984395 0.5807316
000040 5b 08 a7 3f 25 99 96 bf 5f 1a af bf 7c 1b de 3e
       1.3049425 -1.1765486 -1.3679923 0.43380344
000050 d4 63 27 bf cb dc 6e 3f 2c 7f 22 3f 80 ed 2a 3e
       -0.653867 0.93305653 0.634753 0.16692162
000060 44 72 61 3f 94 03 15 bf 41 87 09 40 f7 5a 59 3f
       0.8806498 -0.58208585 2.1488802 0.84904426
000070 61 29 7e 3f 8a e6 0c c0 8b 4f 4c bf 10 e1 57 bf
       0.9928189 -2.201571 -0.7980887 -0.84327793
000080 b4 a0 23 40 42 f2 01 40 d3 f3 a6 be af ac 67 3f
       2.5566835 2.0304112 -0.32607898 0.9049787
000090 8f e8 42 3d ef e8 b4 bf c4 32 80 3f cc a5 07 3f
       0.047585066 -1.4133586 1.0015492 0.5298736
0000a0 02 30 85 3f 65 48 35 bf 97 11 24 3f 27 45 ce 3f
       1.0405276 -0.7081359 0.6408934 1.6114854
0000b0 fd 57 af bf 10 91 74 3f 29 73 72 3f 8e 47 bd 3f
       -1.3698727 0.9553385 0.9470697 1.4787462
0000c0 12 64 ba 3e d1 2c 3d 3f 70 8f a4 3b ba 86 85 3f
       0.36404473 0.7389651 0.005021982 1.043174
0000d0 b0 6f 89 3f 2e c3 8d 3f 32 c4 c2 3f 5c 69 1a be
       1.0737209 1.1075189 1.5216124 -0.15079254
0000e0 81 07 c0 3d 7e 39 33 3f ae fb 45 3e 85 73 de 3e
       0.09376431 0.700096 0.1933429 0.4344751
0000f0 0c 2d d4 3f 16 18 d5 3f 52 7e 94 3f 38 24 df 3e
       1.6576247 1.6647975 1.160105 0.4358232

model/activation_15/Relu;model/batch_normalization_15/FusedBatchNormV3;model/conv2d_18/BiasAdd/ReadVariableOp;model/conv2d_18/BiasAdd;model/batch_normalization_18/FusedBatchNormV3;model/conv2d_21/BiasAdd/ReadVariableOp;model/conv2d_21/BiasAdd;model/conv2d_21/Conv2D/ReadVariableOp;model/conv2d_21/Conv2D;model/conv2d_18/Conv2D/ReadVariableOp;model/conv2d_18/Conv2D f4 [64]
000000 5e 0b e5 bc ad b8 04 c0 7f 50 07 3f 29 f5 17 bf
       -0.027959522 -2.0737717 0.528572 -0.5935846
000010 57 69 70 bf 5f 78 75 3e 78 e8 01 be 23 00 2b bd
       -0.93910736 0.23971699 -0.12686336 -0.041748177
000020 cf 7f 35 bf a4 be 00 c0 0f 6b ac bf 9b 60 d0 bf
       -0.70898145 -2.0116358 -1.3470172 -1.6279482
000030 c0 4e f8 bd 44 9a 8a bc 8d 96 86 bf 30 60 ca bc
       -0.12124395 -0.016919263 -1.0514694 -0.024704069
000040 f4 91 c5 3e e8 36 4d bf 27 d0 07 bd 10 81 b7 bf
       0.38587916 -0.80161905 -0.033157494 -1.4336262
000050 0f 8b d7 be d4 d1 4d be b1 13 4d bf 75 f2 53 bf
       -0.4209828 -0.20099574 -0.8010817 -0.82791835
000060 88 aa a7 bf 77 dc da be 78 a0 77 be 19 66 3f bf
       -1.3098917 -0.42746326 -0.24182308 -0.74765164
000070 c6 4d 34 bf d5 c2 51 bf 09 ac c1 be d3 77 88 be
       -0.7043117 -0.81937915 -0.37826565 -0.2665392
000080 3b 20 f9 be 18 6c 13 bd ed ac a4 3e 99 57 b5 be
       -0.48657402 -0.035991758 0.32163182 -0.35418394
000090 15 0c f1 be 73 5d 3b bf 10 12 8b bf d9 e4 31 bf
       -0.4707953 -0.7318947 -1.0864887 -0.6948982
0000a0 a7 23 4b be f6 a3 04 bf 15 f5 a2 bf 8f be ad bf
       -0.19837819 -0.51812685 -1.2731043 -1.3573779
0000b0 ab e0 59 3e c6 bf 08 c0 ae 6a 98 bf 13 4b b8 bf
       0.2127711 -2.136705 -1.1907556 -1.4397911
0000c0 47 a5 2a be 71 e6 cd be 5c e7 0c 3d f3 e4 62 be
       -0.16664611 -0.40214875 0.03440033 -0.2215765
0000d0 e7 db 10 bf 7d 38 1c 3f 8f dd fd be 97 99 87 bf
       -0.56585544 0.61023694 -0.49583098 -1.0593747
0000e0 ed 3d 6e bf a5 ab 8b be e9 f7 2e bf ec 24 0c 3f
       -0.9306324 -0.27279392 -0.6834703 0.5474384
0000f0 67 4d 18 3f 00 af 33 bc 6e df 93 bf a8 98 c3 bf
       0.59493107 -0.010967016 -1.155256 -1.5280962

model/batch_normalization_16/FusedBatchNormV3;model/conv2d_19/BiasAdd/ReadVariableOp;model/conv2d_19/BiasAdd;model/batch_normalization_18/FusedBatchNormV3;model/conv2d_21/BiasAdd/ReadVariableOp;model/conv2d_21/BiasAdd;model/conv2d_21/Conv2D/ReadVariableOp;model/conv2d_21/Conv2D;model/conv2d_19/Conv2D/ReadVariableOp;model/conv2d_19/Conv2D f4 [64]
000000 df 8f 9d bf 59 17 da bf 44 43 8b be 34 96 77 bf
       -1.2309531 -1.7038375 -0.27199757 -0.96713567
000010 eb 8f aa bf eb ca 23 bf 93 fa 5b 3e 2c 32 65 3c
       -1.332517 -0.63981503 0.21482305 0.013989013
000020 f7 3c ad bf 2c b2 33 3f 39 6a f9 be ef f5 ac 3e
       -1.353423 0.70193744 -0.48713854 0.33781382
000030 0c d1 71 bf 10 ed 83 bd a1 d4 98 be f7 6b 26 3d
       -0.94459605 -0.064417005 -0.29849723 0.040630307
000040 45 c6 14 be e2 4f c1 bf d7 cc 56 bf e3 39 e2 3d
       -0.14528759 -1.5102503 -0.8390631 0.11046197
000050 08 51 9d 3f e8 31 f2 be 2e a6 72 bf fa 2c fd bc
       1.2290354 -0.473037 -0.9478482 -0.030905236
000060 f1 db b9 bf 2c 60 27 3e e9 1b 61 bf b5 75 81 bf
       -1.4520246 0.1634528 -0.8793321 -1.0114046
000070 2c df 33 3f 28 ae 6c bd e2 97 f4 bd 54 2b 7a be
       0.7026241 -0.057783276 -0.11943032 -0.24430591
000080 bd 61 cf 3e 05 d9 38 be 13 a5 03 c0 40 48 8f 3c
       0.40504256 -0.18051536 -2.0569503 0.017490506
000090 7f b8 b1 be 63 a8 1c be 2e 7d db be 3a 52 1c 3e
       -0.34711072 -0.1529861 -0.42868942 0.15265742
0000a0 ec 25 a3 3e 50 08 7b 3f 85 cf b9 bd ad e5 26 bf
       0.3186487 0.9805956 -0.09072784 -0.6519421
0000b0 4c 81 6d 3e e2 94 91 bf b3 e3 00 bf a2 95 9b 3f
       0.23193854 -1.137356 -0.5034744 1.2155039
0000c0 fb 15 b8 be 41 a4 81 bf 6c 04 a3 bf bf e7 ae bd
       -0.3595427 -1.0128251 -1.2735724 -0.08540296
0000d0 18 fd 25 3f 7a 46 5d bf 19 23 c3 bc 34 5f f5 3c
       0.64839315 -0.86435664 -0.023820447 0.029952623
0000e0 f0 d9 95 3f d0 de da bf 53 9b 7d bf fe ef 4a 3f
       1.1707134 -1.7099247 -0.9906513 0.7927245
0000f0 bb 1c 29 3f 96 d3 01 bf 57 96 7d bf c2 ae c2 bd
       0.66059464 -0.5071348 -0.99057525 -0.09505989

model/activation_17/Relu;model/batch_normalization_17/FusedBatchNormV3;model/conv2d_20/BiasAdd/ReadVariableOp;model/conv2d_20/BiasAdd;model/batch_normalization_18/FusedBatchNormV3;model/conv2d_21/BiasAdd/ReadVariableOp;model/conv2d_21/BiasAdd;model/conv2d_21/Conv2D/ReadVariableOp;model/conv2d_21/Conv2D;model/conv2d_20/Conv2D/ReadVariableOp;model/conv2d_20/Conv2D f4 [64]
000000 36 3d 73 bf 57 1b 5c bf 5f f8 23 bf 99 f6 5b bf
       -0.95015275 -0.8597922 -0.6405086 -0.85923153
000010 d8 c7 4d bf 6b 26 90 bf 1d 58 0e be 13 82 43 bf
       -0.8038306 -1.1261724 -0.139008 -0.7637035
000020 fc 8f 4c be 87 ae 7f 3e 94 25 0f bf 62 d0 5d bf
       -0.199768 0.2496892 -0.55916715 -0.8664609
000030 47 f6 86 bf bd d0 e7 be 29 e0 50 bf e7 c3 ed 3d
       -1.0543908 -0.45276442 -0.8159204 0.11609631
000040 16 38 a6 3e 5f 66 73 bf 95 58 4f be fd 06 81 be
       0.32464665 -0.9507808 -0.20248635 -0.25200644
000050 5e 1c 74 bf ff 62 e3 3e d8 6f 2b bf 32 1d 86 bf
       -0.95355785 0.44411466 -0.66967535 -1.047766
000060 a6 7a 42 bf 14 4c 6f bf 19 19 38 bf 35 f8 90 bf
       -0.75968397 -0.9347546 -0.71913296 -1.1325747
000070 96 71 5b bf bc 85 77 3e 1e 37 4d bf f2 fe 16 bf
       -0.85720193 0.2417211 -0.8016223 -0.58982766
000080 7a 0b 24 3e eb 8c 5e bf fc 20 70 be d3 aa 2a bf
       0.16020003 -0.86933774 -0.23450083 -0.6666691
000090 6a d5 0d 3f 9b d4 34 bf 90 a5 1c bc 08 2a 66 bf
       0.5540377 -0.7063691 -0.009560958 -0.89907885
0000a0 5c 77 b4 3d 79 0b 30 bf f9 fa 59 bf bb 57 e3 bf
       0.088118285 -0.68767506 -0.8514858 -1.7761148
0000b0 38 f6 1c bf f6 2b 71 bf 89 16 d6 bf 55 12 38 bf
       -0.613132 -0.94207704 -1.6725627 -0.7190297
0000c0 8e f3 b5 bf 0b ba 66 bf 19 bf 91 bf d5 5c 41 bf
       -1.4214952 -0.9012763 -1.1386443 -0.75532275
0000d0 8b ac e9 bf b3 20 8e be 04 b2 84 bf 4b d0 28 be
       -1.8255781 -0.27759323 -1.0366826 -0.16485707
0000e0 56 6f 3e bf 08 93 89 bf 31 05 03 be e2 a1 60 bd
       -0.74388635 -1.0747995 -0.12794949 -0.054841883
0000f0 75 3c 85 3f 7d 58 2c bf 9c 57 b4 be c6 dc e5 be
       1.0409075 -0.6732252 -0.3522309 -0.44895

model/batch_normalization_18/FusedBatchNormV3;model/conv2d_21/BiasAdd/ReadVariableOp;model/conv2d_21/BiasAdd;model/conv2d_21/Conv2D/ReadVariableOp;model/conv2d_21/Conv2D f4 [64]
000000 8e cd 61 bf 6f ce e0 be c7 66 4c bf aa 53 66 bf
       -0.88204277 -0.43907496 -0.79844326 -0.8997141
000010 18 af d8 be 5a 56 64 be 21 86 a4 bf 62 2f a7 be
       -0.42321086 -0.22298566 -1.2853433 -0.32653338
000020 23 48 93 bf 9b 01 21 bf 04 22 45 be a8 d6 d2 bf
       -1.1506389 -0.62893075 -0.19251257 -1.6471758
000030 8e 28 23 bf 37 45 ec be 8c 0a a7 be e5 88 7b bf
       -0.63733757 -0.46146557 -0.32625234 -0.9825576
000040 4f 95 35 bf 0e 3c 96 bf fe 40 92 bf 5d 4f 87 bf
       -0.7093095 -1.1737077 -1.1426084 -1.0571095
000050 27 c4 02 bf 53 13 52 bf 0e af 18 be f0 79 3e 3f
       -0.51080555 -0.82060736 -0.14910528 0.7440481
000060 33 c1 9e bf 74 66 66 bc 57 f4 e8 be d7 95 26 bf
       -1.240271 -0.014062513 -0.45498917 -0.6507239
000070 94 da 07 bd 40 2c 68 bf 48 1a ad bf 75 08 60 bf
       -0.033167437 -0.9069252 -1.3523645 -0.87512904
000080 c6 08 c1 bf 5b 09 54 3e 28 82 84 bf b0 b4 e1 be
       -1.5080802 0.20706694 -1.035222 -0.44083166
000090 79 7d 75 bf 7d 41 ce bf bd 0c 99 bf b0 4e 37 bf
       -0.9589458 -1.6113735 -1.1957012 -0.7160444
0000a0 c9 05 56 3b 92 e8 62 bf 66 66 5c bf 68 82 72 bf
       0.0032657257 -0.88636124 -0.8609375 -0.94730234
0000b0 56 db 6e bf 8e 91 4f bf 03 06 89 bf b4 b1 c7 bf
       -0.9330343 -0.81081474 -1.070496 -1.5601106
0000c0 98 e3 96 be b2 57 53 bf 83 d1 8f bf ba 3f 5e be
       -0.29470515 -0.8255569 -1.1235813 -0.21703997
0000d0 0a cb 15 bf 8b db c5 be eb d7 25 bf 8f 6d 36 bf
       -0.5851294 -0.3864406 -0.6478259 -0.71260923
0000e0 44 01 6f bf 42 36 3a be 8f 75 11 bd 1b cd 48 bf
       -0.93361306 -0.1818476 -0.035512503 -0.78437966
0000f0 78 b5 19 bf 9d c1 d2 be 34 b7 7f bf 7d 7e bd bf
       -0.60042524 -0.4116334 -0.9988892 -1.4804226

model/dense/MatMul f4 [10, 64]
000000 2c fa c1 be bb d5 a9 bf ab 29 2e 3f c8 bc dc 3e
       -0.37886178 -1.326835 0.6803233 0.4311278
000010 f2 cc b9 be e1 fa c2 3e cd 77 ea be 7f 95 81 3d
       -0.36289173 0.3808203 -0.45794526 0.06327342
000020 af 45 1f bf 00 6e 4f 3f aa f6 19 3f 3f 73 01 bf
       -0.62215704 0.8102722 0.60142004 -0.50566477
000030 3e 37 1f 3f 78 24 84 bf e9 3f b5 3e 7e b9 c7 bf
       0.6219367 -1.0323629 0.35400322 -1.5603483
000040 ea be d8 bb d4 72 8a 3e 4b 0e 87 be 44 7f 10 3f
       -0.0066145556 0.27040732 -0.26378092 0.5644419
000050 d3 e3 e4 be 9a ee 85 bf a4 1a 34 3e 38 d2 45 3e
       -0.44705066 -1.046344 0.17588288 0.19318473
000060 36 f9 05 bc d0 4c 72 3e ac 7c 84 3d b3 eb 0c be
       -0.008177092 0.23662114 0.06469092 -0.13761787
000070 c9 2e 48 be bc a6 2c 3f 5b 74 c0 3d 23 24 9b bf
       -0.19549097 0.67441916 0.09397193 -1.2120403
000080 1c 9e 8f bc d0 b3 56 3f ac dc 1f bf 31 aa 0b 3f
       -0.017531447 0.8386812 -0.62446094 0.54556566
000090 ee 2f 24 3e 25 f3 49 bf f4 f2 b5 3d 0c 50 48 bf
       0.16033909 -0.78886634 0.0888423 -0.7824714
0000a0 c8 9e 35 be c0 a5 73 3d 18 c4 c8 bf ce a1 77 bf
       -0.17736351 0.059484243 -1.5684843 -0.9673127
0000b0 24 00 ab 3e 07 55 6b be d9 90 5f be 15 a5 ac bc
       0.33398545 -0.22981654 -0.21832599 -0.021074811
0000c0 ac 1d 96 3e a5 99 3e 3f df ff cf bf 87 67 63 bf
       0.29319513 0.7445319 -1.6249961 -0.88829845
0000d0 4d 9f e4 3e 91 ab fa bc 4e f2 02 c0 1d 15 9e 3d
       0.44652787 -0.030599387 -2.046039 0.07718871
0000e0 02 62 0d 3f c3 72 c7 3e 87 d7 f6 3e 61 cf e7 3d
       0.55227673 0.38954744 0.4821131 0.11318851
0000f0 c6 fd 2c bf 0e 04 31 bf d7 65 14 3f 23 92 6f bd
       -0.6757473 -0.6914681 0.57967895 -0.058488976
000100 52 de 94 3e fe b8 2f 3f a2 2a 8d be f0 ea 9e be
       0.29075867 0.6864165 -0.2757159 -0.31038618
000110 48 22 85 3e 4f 46 f2 3e 28 89 8f 3f 58 15 b5 be
       0.26002717 0.47319266 1.1213732 -0.35367846
000120 a2 a5 0e 3f 97 a5 2b 3f 03 14 3a 3f 08 27 2f bf
       0.55721486 0.67049545 0.72686785 -0.6841893
000130 d3 8f fe 3e d4 de 03 3f 59 a3 99 3e 7b f9 f8 bc
       0.49719104 0.51511884 0.30007437 -0.030392399
000140 91 74 41 3e 69 8e be be 78 c8 8a be cb 9b 9c be
       0.18892123 -0.37218025 -0.2710607 -0.3058761
000150 d1 c8 8f bf 46 fe 0e 3f c2 0d a9 be ad 3a be 3d
       -1.1233159 0.5585674 -0.3301831 0.09288535
000160 98 a9 0f 3e de d4 05 3f 22 b4 ed 3d 4e 8d 93 be
       0.14029539 0.52277935 0.11606623 -0.28818744
000170 ee 64 d5 be 91 db a4 bf 0a d0 ae bf 68 93 92 3e
       -0.41678566 -1.2879506 -1.3657238 0.28628087
000180 5a c7 4b bf c0 2d 42 bf 83 0e 17 3f f8 8c d9 be
       -0.7960106 -0.7585106 0.5900652 -0.42490363
000190 16 92 0e 3f 3e b9 94 3f 2d d2 1a 3f 7b 83 19 bf
       0.5569166 1.1619031 0.6047695 -0.5996625
0001a0 78 e7 cd 3d 62 c9 f8 3e e3 42 ad bf db 44 cb bf
       0.10053915 0.48591143 -1.3536037 -1.5880388
0001b0 1d e5 bd bf 00 1e 14 3f 2a 09 23 3f ec e3 12 c0
       -1.4835545 0.57858276 0.6368586 -2.2951612
0001c0 f6 ac dc 3c a7 65 07 3e c3 0e 88 bf 3b b6 62 bf
       0.026937943 0.13222371 -1.0629505 -0.8855931
0001d0 5e cc ff 3e d6 ef 8d bf e4 99 e1 3e e8 f6 43 3e
       0.49960607 -1.1088817 0.44062722 0.19137156
0001e0 95 57 16 3e 12 21 27 3f 56 5a ab 3e a0 2d bf bf
       0.14681847 0.65284836 0.33467358 -1.4935799
0001f0 8c c8 7d bd e5 d6 c2 3d 2c 63 fa 3e e9 78 58 bd
       -0.061958835 0.09513644 0.48903787 -0.052849684
000200 5e 1d 6d bf 77 74 6b bf 33 01 69 bf 0a f2 85 3f
       -0.92622936 -0.91974586 -0.91017455 1.046449
000210 95 07 67 bf e7 0b 1e bf c1 34 82 3e 7f 88 00 bf
       -0.90245944 -0.6173691 0.25430873 -0.50208277
000220 6e 2d 93 be 2a 55 32 bf ee 39 79 be f2 0d 23 bd
       -0.28745598 -0.696612 -0.24338505 -0.03980822
000230 0a ae 0d bf a4 13 c7 bf d0 ed 89 bf 95 38 e2 3d
       -0.5534369 -1.5552869 -1.07757 0.110459484
000240 04 bb 36 3f 27 1b c0 3e 54 d5 50 3f 48 e9 74 3f
       0.71379113 0.37520716 0.8157551 0.9566846
000250 53 69 a9 3e 8a 06 24 be 90 23 12 bf 95 38 c7 bc
       0.33088169 -0.1601812 -0.57085514 -0.024318973
000260 97 48 59 3e 6d 15 cb be 5b 79 8d 3d a2 50 c6 3e
       0.21219097 -0.39664784 0.06907912 0.38733393
000270 65 f6 b7 bf 87 46 43 3f d5 b9 8a 3e 74 ff d8 be
       -1.4372069 0.7627949 0.27094904 -0.42382395
000280 47 d9 f5 3d 58 f4 b3 3e 50 d6 cb be fb e4 9e 3d
       0.12004333 0.35147357 -0.39811945 0.07758518
000290 67 a0 57 bf 5f 64 22 3f 2d 71 90 be 98 c4 49 bf
       -0.8422913 0.63434404 -0.28211346 -0.78815603
0002a0 7e 50 f2 3e 68 4e 1c 3f 4c ec e7 3d c1 91 4f 3e
       0.47327036 0.6105714 0.11324367 0.20270444
0002b0 d5 df f5 3e bd 2a 10 bf f0 53 ba bf 76 15 ed bd
       0.48022333 -0.56315213 -1.4556866 -0.11576359
0002c0 7d 56 0e 3f 83 db 87 3e 20 23 57 3e b5 54 c6 3e
       0.5560072 0.26534662 0.21009493 0.387365
0002d0 a8 f4 8a bf 91 1b c6 bd 87 7d 2c 3f 1b 38 92 3e
       -1.0855913 -0.096732266 0.6737904 0.2855843
0002e0 9e 01 ea 3d 69 ab cd 3c d4 6f af bf 6a 20 03 3e
       0.1142609 0.025106149 -1.3706002 0.12805334
0002f0 a9 9f 16 3f 60 85 26 bf c1 26 8a 3e a3 d3 5b 3e
       0.5883737 -0.65047264 0.26982692 0.21467452
000300 2f f2 3d 3e a7 c9 12 be d9 fc 7f 3e 16 b9 f3 be
       0.18549417 -0.14334737 0.24998797 -0.47602147
000310 02 61 89 3e f1 5f 8d 3d 94 0e 3e be 4e 81 96 3e
       0.26831824 0.06903065 -0.18560249 0.29395527
000320 26 f3 8e bf 5e 8a d9 bd e3 90 e5 be d8 78 bc bd
       -1.1167953 -0.106220946 -0.44837102 -0.092027366
000330 77 cd 64 bf 98 11 89 3e 47 9d dc 3e bb 28 a4 3e
       -0.89376014 0.26771235 0.43088743 0.32062325
000340 53 fe 01 be bd ec 53 3e 4e 5c ae bf 55 d8 af be
       -0.12694673 0.20695777 -1.3621919 -0.34344736
000350 e1 e9 ff 3e 56 6c 8b bc 45 ea 9b bf 43 8a b8 3e
       0.49983123 -0.017019432 -1.2180868 0.36042985
000360 c3 9c ec bd 75 f4 0b 3f c2 9c e4 3e a2 07 c8 3e
       -0.115533374 0.54669887 0.44650847 0.39068323
000370 ab 05 73 3e 9f 35 1a 3e b3 69 ef bb b4 23 0a 3f
       0.23732631 0.15059517 -0.0073063015 0.5396073
000380 73 e8 f9 3e e4 51 ff bd 7a 8f d9 bc 1a 47 67 bf
       0.48810157 -0.12466791 -0.026557673 -0.9034287
000390 16 70 ac bf da 45 c1 3d e5 80 15 bf 5d d7 b4 3e
       -1.3471706 0.09437151 -0.583998 0.3532056
0003a0 b8 6b 85 3d 54 30 f3 be ce 8d 3f 3f fe 0f b3 3e
       0.06514686 -0.4749781 0.7482575 0.3497314
0003b0 0a a9 0a bd 93 22 0b 3f c4 24 79 bf f2 06 7f 3e
       -0.033852614 0.5434963 -0.97321725 0.24904993
0003c0 e4 f3 e5 be 92 57 19 3f e6 8d 2e bf 69 7d 1f bf
       -0.44912636 0.59899247 -0.6818527 -0.62300736
0003d0 38 c9 b3 be ee 28 7a 3b 9a 17 15 3f 33 e1 d2 3e
       -0.35114455 0.0038171369 0.5823914 0.41187438
0003e0 08 59 96 be 42 5e 91 bb a7 8f b7 3e 34 44 c2 3e
       -0.293648 -0.0044362852 0.35851786 0.3794266
0003f0 d7 c9 a6 3d 0e 46 b0 3e 64 4d 03 bf 65 64 45 bf
       0.08143967 0.34428447 -0.51289964 -0.77106315

model/batch_normalization/FusedBatchNormV3;model/conv2d_1/BiasAdd/ReadVariableOp;model/conv2d_1/BiasAdd;model/conv2d_1/Conv2D/ReadVariableOp;model/conv2d_1/Conv2D f4 [16, 3, 3, 3]
000000 24 a1 1d be 0c 35 ad 3f 83 f2 af be c4 7c 5d 3e
       -0.15393502 1.3531814 -0.3436471 0.21629626
000010 a6 de 05 c0 19 dd 89 be 5d 84 45 3d ef 9b c9 bd
       -2.0917144 -0.26926497 0.048221935 -0.09844195
000020 9a f0 93 3f be c3 95 3f d7 96 0c bf 6c 22 9f bf
       1.1557801 1.1700361 -0.54917663 -1.243238
000030 5c 73 f1 3f 67 b2 d5 bf c4 f3 11 3f 3e 23 ac bf
       1.886333 -1.6695069 0.5701258 -1.3448255
000040 78 77 2c c0 be e7 be 3f 2f da 8d 3e 97 a9 5d bf
       -2.6947918 1.4914472 0.27705523 -0.865869
000050 4f 8d b7 bd d0 03 0b 40 45 65 63 3d 99 33 50 3f
       -0.08962499 2.1721077 0.0555165 0.8132873
000060 fe ad 0a bf df 9f 9c be 1e fc 16 40 46 85 bd bd
       -0.5417174 -0.30590722 2.359138 -0.092539355
000070 0d 96 a9 be c1 7c f8 bd c8 b1 40 bd fc 43 81 be
       -0.33122292 -0.1213317 -0.047044545 -0.2524718
000080 08 25 5e 3d f0 0c 11 3f 70 c9 c3 3d 7a 57 e8 3e
       0.054234535 0.56660366 0.095599055 0.4537924
000090 1e 7a 28 3e b3 84 51 be 2f 78 de 3b f9 f8 87 3b
       0.16452834 -0.20460777 0.0067892293 0.004149553
0000a0 0b 3e cf be 92 88 8c be ae 73 24 3f 71 93 c7 3e
       -0.40477023 -0.27447945 0.64239013 0.38979676
0000b0 d9 8c cb 3e 9d 24 fe 3e a5 dc e2 3c 75 75 0d bd
       0.39755896 0.4963731 0.027693102 -0.034535844
0000c0 97 3b a8 3e fc a5 21 be 2e 44 e1 be 37 df 1a 3f
       0.32857963 -0.15785974 -0.4399733 0.6049685
0000d0 4a 96 2a 3e 52 ab c8 be db f1 66 bf 62 82 ef 3e
       0.16658893 -0.39193207 -0.9021279 0.46779162
0000e0 73 04 e3 be db 73 14 3f 3a 0e d5 3f 0b c8 10 3f
       -0.44339332 0.5798928 1.6644967 0.5655524
0000f0 92 47 9a 3e 1d 45 8c 3f b4 29 91 3e c6 9a 1c bf
       0.3013273 1.0958592 0.2835213 -0.61173666
000100 9f 31 99 3e 4f c1 96 bd ea c1 8b 3c 37 ca 8c 3f
       0.2992067 -0.073610894 0.017060239 1.0999211
000110 94 48 e4 3d 56 f8 03 bf 6f b1 ee 3e 06 d2 42 bf
       0.11146656 -0.51550806 0.46619746 -0.7610172
000120 e3 3c 84 bc 5d fb 92 3d f4 1b 84 bd e3 6a b9 be
       -0.016142314 0.0717685 -0.06450644 -0.3621436
000130 19 ac 09 3c 7b 15 cc be a8 0a da be 1f 53 9d 3e
       0.008402848 -0.39860138 -0.42586255 0.3072748
000140 b2 39 2a bf 57 aa b2 be 6a 09 88 bd 7a 96 f1 3c
       -0.66494286 -0.34895584 -0.066424206 0.029490698
000150 47 40 7f 3e e9 9d 8e 3e 4a 41 95 3f 31 7b 80 be
       0.24926864 0.2785485 1.166055 -0.25093988
000160 2f 69 81 be 7c db 12 bf 79 1d 1b bf 5e 2d 57 bf
       -0.2527556 -0.57366157 -0.60591847 -0.840536
000170 24 64 34 3e 72 c2 93 be 0d e2 0e c0 ed dd 62 bf
       0.17616326 -0.28859288 -2.232547 -0.8861988
000180 95 e0 7c 3f 0a 9a c4 3e 81 f2 4d 3f a6 43 43 3f
       0.98780185 0.38398772 0.80448157 0.762751
000190 eb 99 11 be 47 c3 49 bc 6a 2a 26 3e b4 01 bc bf
       -0.14218871 -0.012314624 0.16227117 -1.468802
0001a0 4e f6 74 bf a7 c6 0b 3f 87 b9 cd be 14 10 8b bd
       -0.9568833 0.54599994 -0.4018061 -0.06790176
0001b0 18 61 20 3e 4e 0f 21 3f 2f 87 31 3f 6c 25 82 bb
       0.15662038 0.6291398 0.693469 -0.003971746
0001c0 d0 a8 e3 3e 81 0f 13 3f 92 68 78 bd fd fb 8a 3e
       0.4446473 0.5744553 -0.0606466 0.27145377
0001d0 19 34 64 3f e2 be bd be 30 e7 6b 3e a6 ec 6d be
       0.89141995 -0.37059695 0.2303741 -0.23234805
0001e0 e8 d2 f1 be 5d 6a 53 bf 84 4b 80 be 34 d1 75 3e
       -0.4723122 -0.8258417 -0.25057614 0.24005586
0001f0 01 8a 82 be 1a e7 cc bc 93 2e 0d 3e c7 36 f0 3e
       -0.25495914 -0.025012542 0.13787298 0.46916792
000200 ea 09 4b be 3c e3 9b be cf a8 c9 be f6 6d 80 bf
       -0.19828 -0.30446804 -0.39386603 -1.0033557
000210 5c 5f 19 3f 63 49 cf be 90 4c 2e bf 71 0f 1a 40
       0.5991113 -0.40485677 -0.68085575 2.4071925
000220 46 f0 1b 3f c0 1f 5a bf 0d 61 01 40 8a 64 1a be
       0.60913503 -0.85204697 2.0215485 -0.15077415
000230 47 fd f1 3d bb 3d 45 be 96 03 48 3f 31 c5 07 be
       0.11815887 -0.1926183 0.7813047 -0.13258816
000240 7b 2a 85 3f a7 8d 4c bf e6 99 f7 bf 96 e7 c5 3f
       1.0403589 -0.79903644 -1.9343841 1.54613
000250 49 bf 6e bf 08 70 8e bf 26 c0 7d bf 33 e5 0b bf
       -0.9326063 -1.1127939 -0.9912132 -0.54646605
000260 6b f0 62 3e ff fe 5a be 55 61 85 bf 33 a4 06 3f
       0.22162025 -0.21386336 -1.0420328 0.525943
000270 53 86 d4 be 87 24 2e bf e5 cf 35 3f 67 74 c0 bf
       -0.4150873 -0.68024486 0.71020347 -1.5035523
000280 97 7c f2 be a2 5a cb 3f 1e 7f 8c bd d7 32 3e 3e
       -0.4736068 1.5887034 -0.06860183 0.18574081
000290 c0 e3 ef 3e f2 05 27 bd 44 d2 30 be 53 3f 10 3f
       0.46853447 -0.040777154 -0.1726771 0.56346625
0002a0 02 27 46 be e6 5f dd be a9 9a 70 be de fb 9b 3e
       -0.19350818 -0.43237227 -0.23496498 0.30465597
0002b0 21 60 76 be d0 80 ae 3e 60 81 4f 3e 58 fb 1c be
       -0.24060108 0.3408265 0.20264196 -0.15330255
0002c0 69 6c 80 3e 45 b7 e0 bc 14 1e 6f bf 9b e0 a8 be
       0.2508271 -0.02743114 -0.9340527 -0.3298386
0002d0 ba 03 a9 3e b4 8f 4b 3f f6 81 06 3f 66 32 2c 3f
       0.33010656 0.7951615 0.52542055 0.672644
0002e0 73 a1 19 3f ef 10 c5 be bb bf 9a be e0 a4 34 bf
       0.60011977 -0.38489482 -0.30224404 -0.7056408
0002f0 0c c7 99 bf 8f 52 5e bd 45 f8 cb be b1 90 ff be
       -1.2013869 -0.054277953 -0.39837852 -0.49915078
000300 26 f7 c4 bc 0a 54 43 bf 5e fe 0a bd 87 dd 16 3f
       -0.02404363 -0.7630011 -0.03393399 0.58931774
000310 26 9a 14 bf 86 a3 02 bf ea ba 09 3f 16 0e b3 3c
       -0.5804771 -0.51030767 0.53800833 0.021857303
000320 11 60 5f bf 78 f1 35 bf f4 48 b2 bf fd 3c 2c bf
       -0.8725596 -0.7107158 -1.3928514 -0.6728056
000330 9f aa dd 3c 29 4e 5d 3d 20 50 65 3f c2 63 b9 3e
       0.027058898 0.054029617 0.89575386 0.36208922
000340 98 62 e0 3e ec e2 95 be 0e 88 22 be a8 d8 5c 3f
       0.4382522 -0.2927469 -0.15872213 0.8626809
000350 7d 83 4e 3f f0 88 e0 be 4b 26 14 3f 97 3c 5b 3f
       0.80669385 -0.43854475 0.5787093 0.8563933
000360 40 7b 20 bf df d0 7e be 18 d0 c8 bd 66 97 06 be
       -0.62688065 -0.24884365 -0.09805316 -0.13143691
000370 52 84 0d 3e 77 a6 83 3f 75 3d c8 be a2 a1 28 3e
       0.13820007 1.0285176 -0.39109388 0.16467908
000380 86 3b 29 bd 3c 21 18 bf 41 fc cb be e8 72 3e 3f
       -0.04131653 -0.5942571 -0.39840892 0.74394083
000390 86 19 74 bf e3 03 d9 be 04 8c 89 3f 2c bb 94 be
       -0.95351446 -0.42385778 1.0745854 -0.2904905
0003a0 a4 38 9a be ba f3 b9 3d c0 b1 f5 be 10 b1 7e be
       -0.30121338 0.0907969 -0.47987175 -0.24872231
0003b0 f0 d2 0e 3f e6 63 ef bc 70 8c 96 bc d8 ee 51 3f
       0.55790615 -0.02922244 -0.018377513 0.8200507
0003c0 73 54 20 3f 73 0f 67 3e b2 29 71 be 11 05 75 bf
       0.6262886 0.22564487 -0.23551062 -0.95710856
0003d0 9a 53 f7 bc 63 7c 3b bf 5b 5a bf be 82 7b 18 be
       -0.030191232 -0.73236674 -0.37373623 -0.14890864
0003e0 21 a8 a3 be 09 e6 20 bd 0b c9 9d 3b a7 58 50 3c
       -0.3196421 -0.03928188 0.004815226 0.012716449
0003f0 18 f9 f8 bc e6 67 67 3e 89 1c 18 be 43 2f ae 3e
       -0.030392215 0.22598228 -0.14854635 0.34020433

model/batch_normalization_1/FusedBatchNormV3;model/conv2d_2/BiasAdd/ReadVariableOp;model/conv2d_2/BiasAdd;model/conv2d_2/Conv2D/ReadVariableOp;model/conv2d_2/Conv2D i1 [16, 3, 3, 16] scale=0.006927331 zero_point=0
000000 07 04 fc f7 09 ec f8 16 1c f1 08 09 ee 1f f5 12
       0.048491318 0.027709324 -0.027709324 -0.062345978 0.062345978 -0.13854662 -0.055418648 0.15240128 0.19396527 -0.10390996 0.055418648 0.062345978 -0.124691956 0.21474726 -0.07620064 0.124691956
000010 f0 fe fa fa 0c e2 07 fc 18 f3 f7 02 f5 11 0a 00
       -0.110837296 -0.013854662 -0.041563988 -0.041563988 0.083127975 -0.20781992 0.048491318 -0.027709324 0.16625595 -0.0900553 -0.062345978 0.013854662 -0.07620064 0.11776463 0.06927331 0.0
000020 f2 fd ff 03 0a e6 01 ff 00 ff ff f3 fc 0e 0a 0c
       -0.096982636 -0.020781994 -0.006927331 0.020781994 0.06927331 -0.1801106 0.006927331 -0.006927331 0.0 -0.006927331 -0.006927331 -0.0900553 -0.027709324 0.096982636 0.06927331 0.083127975
000030 fe 0b f2 00 07 d6 00 f6 19 f8 fe eb fe f1 0b fc
       -0.013854662 0.07620064 -0.096982636 0.0 0.048491318 -0.2909479 0.0 -0.06927331 0.17318328 -0.055418648 -0.013854662 -0.14547396 -0.013854662 -0.10390996 0.07620064 -0.027709324
000040 f7 07 f6 01 08 d2 08 ee 0b 03 fd e6 f1 cd fc f7
       -0.062345978 0.048491318 -0.06927331 0.006927331 0.055418648 -0.31865722 0.055418648 -0.124691956 0.07620064 0.020781994 -0.020781994 -0.1801106 -0.10390996 -0.35329387 -0.027709324 -0.062345978
000050 ff 01 f4 0a 04 e1 ff fa f0 0d 01 df e9 d3 f6 02
       -0.006927331 0.006927331 -0.083127975 0.06927331 0.027709324 -0.21474726 -0.006927331 -0.041563988 -0.110837296 0.0900553 0.006927331 -0.22860192 -0.15932861 -0.3117299 -0.06927331 0.013854662
000060 01 0a f6 0b 08 e8 fa 06 06 f3 fb e7 07 03 0b fb
       0.006927331 0.06927331 -0.06927331 0.07620064 0.055418648 -0.16625595 -0.041563988 0.041563988 0.041563988 -0.0900553 -0.034636654 -0.17318328 0.048491318 0.020781994 0.07620064 -0.034636654
000070 19 09 f9 fb 0b f9 08 04 ee 0f 02 de fb e5 00 fc
       0.17318328 0.062345978 -0.048491318 -0.034636654 0.07620064 -0.048491318 0.055418648 0.027709324 -0.124691956 0.10390996 0.013854662 -0.23552926 -0.034636654 -0.18703793 0.0 -0.027709324
000080 08 00 f6 04 0a 0b 0b 04 dc 19 15 e0 01 ee f7 06
       0.055418648 0.0 -0.06927331 0.027709324 0.06927331 0.07620064 0.07620064 0.027709324 -0.24938391 0.17318328 0.14547396 -0.22167459 0.006927331 -0.124691956 -0.062345978 0.041563988
000090 0f fc ff fe fc 07 f7 01 f3 fe 0d f0 ec fe ee 15
       0.10390996 -0.027709324 -0.006927331 -0.013854662 -0.027709324 0.048491318 -0.062345978 0.006927331 -0.0900553 -0.013854662 0.0900553 -0.110837296 -0.13854662 -0.013854662 -0.124691956 0.14547396
0000a0 11 f7 07 f0 fd 04 fe f3 04 00 e1 f9 07 f9 ff 01
       0.11776463 -0.062345978 0.048491318 -0.110837296 -0.020781994 0.027709324 -0.013854662 -0.0900553 0.027709324 0.0 -0.21474726 -0.048491318 0.048491318 -0.048491318 -0.006927331 0.006927331
0000b0 e2 f8 fa fa 07 f3 08 ec ff fe 08 0b 00 1f fa f8
       -0.20781992 -0.055418648 -0.041563988 -0.041563988 0.048491318 -0.0900553 0.055418648 -0.13854662 -0.006927331 -0.013854662 0.055418648 0.07620064 0.0 0.21474726 -0.041563988 -0.055418648
0000c0 0b ff 02 0a 0d f7 fc 03 f2 04 00 04 0a fe 12 0f
       0.07620064 -0.006927331 0.013854662 0.06927331 0.0900553 -0.062345978 -0.027709324 0.020781994 -0.096982636 0.027709324 0.0 0.027709324 0.06927331 -0.013854662 0.124691956 0.10390996
0000d0 f9 fa 10 06 06 ec f9 f4 07 f9 de 0c 20 e9 eb f7
       -0.048491318 -0.041563988 0.110837296 0.041563988 0.041563988 -0.13854662 -0.048491318 -0.083127975 0.048491318 -0.048491318 -0.23552926 0.083127975 0.22167459 -0.15932861 -0.14547396 -0.062345978
0000e0 fb f8 02 0e 0b de fc f8 03 ef f6 20 fa 18 f7 f5
       -0.034636654 -0.055418648 0.013854662 0.096982636 0.07620064 -0.23552926 -0.027709324 -0.055418648 0.020781994 -0.11776463 -0.06927331 0.22167459 -0.041563988 0.16625595 -0.062345978 -0.07620064
0000f0 10 ff 0b 0c 11 0a ff fc f7 f5 14 0a 0c fc 0b 12
       0.110837296 -0.006927331 0.07620064 0.083127975 0.11776463 0.06927331 -0.006927331 -0.027709324 -0.062345978 -0.07620064 0.13854662 0.06927331 0.083127975 -0.027709324 0.07620064 0.124691956

model/batch_normalization_2/FusedBatchNormV3;model/conv2d_3/BiasAdd/ReadVariableOp;model/conv2d_3/BiasAdd;model/conv2d_3/Conv2D/ReadVariableOp;model/conv2d_3/Conv2D i1 [16, 3, 3, 16] scale=0.0032775968 zero_point=0
000000 01 fd 03 00 f5 f8 ec ee fe f7 02 01 fe f9 e5 0e
       0.0032775968 -0.00983279 0.00983279 0.0 -0.036053564 -0.026220774 -0.06555194 -0.05899674 -0.0065551936 -0.02949837 0.0065551936 0.0032775968 -0.0065551936 -0.022943178 -0.08849511 0.045886356
000010 f9 fa fd fc f5 fb e9 06 fc f6 fd ef 00 f6 f5 0c
       -0.022943178 -0.01966558 -0.00983279 -0.013110387 -0.036053564 -0.016387984 -0.07538473 0.01966558 -0.013110387 -0.03277597 -0.00983279 -0.055719145 0.0 -0.03277597 -0.036053564 0.03933116
000020 fe fa 13 05 e8 ff fa 10 18 f3 10 f1 f7 f9 0a fe
       -0.0065551936 -0.01966558 0.06227434 0.016387984 -0.07866232 -0.0032775968 -0.01966558 0.05244155 0.07866232 -0.042608757 0.05244155 -0.049163952 -0.02949837 -0.022943178 0.03277597 -0.0065551936
000030 f6 10 fe 03 f6 fa f7 fc f0 f3 f5 0f 04 05 ee 1c
       -0.03277597 0.05244155 -0.0065551936 0.00983279 -0.03277597 -0.01966558 -0.02949837 -0.013110387 -0.05244155 -0.042608757 -0.036053564 0.049163952 0.013110387 0.016387984 -0.05899674 0.09177271
000040 ee 03 f9 08 fe 00 f7 0b 01 f3 f3 23 20 fe 05 27
       -0.05899674 0.00983279 -0.022943178 0.026220774 -0.0065551936 0.0 -0.02949837 0.036053564 0.0032775968 -0.042608757 -0.042608757 0.11471589 0.1048831 -0.0065551936 0.016387984 0.12782627
000050 f9 02 f7 17 f9 02 09 0e 0f ea ff 04 27 fb 1f 11
       -0.022943178 0.0065551936 -0.02949837 0.07538473 -0.022943178 0.0065551936 0.02949837 0.045886356 0.049163952 -0.07210713 -0.0032775968 0.013110387 0.12782627 -0.016387984 0.1016055 0.055719145
000060 00 0d 13 0f fd f0 12 04 ec 03 f5 08 fa 1d ec 0a
       0.0 0.042608757 0.06227434 0.049163952 -0.00983279 -0.05244155 0.05899674 0.013110387 -0.06555194 0.00983279 -0.036053564 0.026220774 -0.01966558 0.095050305 -0.06555194 0.03277597
000070 01 17 0f ff 08 fd 17 0e fc 00 ee 19 15 18 fb 0f
       0.0032775968 0.07538473 0.049163952 -0.0032775968 0.026220774 -0.00983279 0.07538473 0.045886356 -0.013110387 0.0 -0.05899674 0.08193992 0.06882953 0.07866232 -0.016387984 0.049163952
000080 10 17 0e 07 0b 07 20 15 03 f2 ee 02 0b 14 13 f8
       0.05244155 0.07538473 0.045886356 0.022943178 0.036053564 0.022943178 0.1048831 0.06882953 0.00983279 -0.045886356 -0.05899674 0.0065551936 0.036053564 0.06555194 0.06227434 -0.026220774
000090 00 0a 03 04 09 1b f4 03 f1 00 05 ed 01 11 fc ed
       0.0 0.03277597 0.00983279 0.013110387 0.02949837 0.08849511 -0.03933116 0.00983279 -0.049163952 0.0 0.016387984 -0.06227434 0.0032775968 0.055719145 -0.013110387 -0.06227434
0000a0 00 09 03 02 33 20 ef f8 05 ee 04 0d de fe ee fc
       0.0 0.02949837 0.00983279 0.0065551936 0.16715744 0.1048831 -0.055719145 -0.026220774 0.016387984 -0.05899674 0.013110387 0.042608757 -0.11143829 -0.0065551936 -0.05899674 -0.013110387
0000b0 10 0a f8 1c f7 f6 06 0e f7 02 ec 1a 0c ec 05 00
       0.05244155 0.03277597 -0.026220774 0.09177271 -0.02949837 -0.03277597 0.01966558 0.045886356 -0.02949837 0.0065551936 -0.06555194 0.08521751 0.03933116 -0.06555194 0.016387984 0.0
0000c0 0a f4 f5 07 11 11 fe 02 f4 f4 f6 dd d3 0d 01 ee
       0.03277597 -0.03933116 -0.036053564 0.022943178 0.055719145 0.055719145 -0.0065551936 0.0065551936 -0.03933116 -0.03933116 -0.03277597 -0.11471589 -0.14749186 0.042608757 0.0032775968 -0.05899674
0000d0 08 d9 03 0c 30 09 08 e7 47 05 f5 42 d4 04 fe 08
       0.026220774 -0.12782627 0.00983279 0.03933116 0.15732464 0.02949837 0.026220774 -0.08193992 0.23270938 0.016387984 -0.036053564 0.2163214 -0.14421426 0.013110387 -0.0065551936 0.026220774
0000e0 11 2b 00 2a e5 f5 f2 11 bf fd db c0 4a fe f9 fc
       0.055719145 0.14093666 0.0 0.13765906 -0.08849511 -0.036053564 -0.045886356 0.055719145 -0.2130438 -0.00983279 -0.12127108 -0.2097662 0.24254216 -0.0065551936 -0.022943178 -0.013110387
0000f0 12 f2 eb ff fd 13 ff 0a f3 e0 f2 fe ff fe 00 0c
       0.05899674 -0.045886356 -0.06882953 -0.0032775968 -0.00983279 0.06227434 -0.0032775968 0.03277597 -0.042608757 -0.1048831 -0.045886356 -0.0065551936 -0.0032775968 -0.0065551936 0.0 0.03933116

model/batch_normalization_3/FusedBatchNormV3;model/conv2d_4/BiasAdd/ReadVariableOp;model/conv2d_4/BiasAdd;model/conv2d_4/Conv2D/ReadVariableOp;model/conv2d_4/Conv2D i1 [16, 3, 3, 16] scale=0.003160199 zero_point=0
000000 eb d3 ee f3 16 f0 0e 03 f6 1d 01 02 f8 11 f1 f0
       -0.06636418 -0.14220895 -0.05688358 -0.041082587 0.06952438 -0.050563183 0.044242784 0.0094805965 -0.031601988 0.09164577 0.003160199 0.006320398 -0.025281591 0.05372338 -0.047402985 -0.050563183
000010 f0 f7 f5 03 0c f9 f7 f8 e8 02 fd fa f8 f8 eb ec
       -0.050563183 -0.02844179 -0.03476219 0.0094805965 0.037922386 -0.022121392 -0.02844179 -0.025281591 -0.07584477 0.006320398 -0.0094805965 -0.018961193 -0.025281591 -0.025281591 -0.06636418 -0.063203976
000020 16 06 04 f8 05 0b ec 0c ff 07 fd 06 01 df ed e9
       0.06952438 0.018961193 0.012640796 -0.025281591 0.015800994 0.03476219 -0.063203976 0.037922386 -0.003160199 0.022121392 -0.0094805965 0.018961193 0.003160199 -0.10428657 -0.06004378 -0.07268458
000030 ed a7 fa e6 10 fd 11 ee f7 0b fe 05 fb ff d2 d1
       -0.06004378 -0.2812577 -0.018961193 -0.082165174 0.050563183 -0.0094805965 0.05372338 -0.05688358 -0.02844179 0.03476219 -0.006320398 0.015800994 -0.015800994 -0.003160199 -0.14536916 -0.14852935
000040 f4 02 fe 0e 0d 02 f2 0e f7 f8 0b 03 f9 21 2b e3
       -0.037922386 0.006320398 -0.006320398 0.044242784 0.041082587 0.006320398 -0.044242784 0.044242784 -0.02844179 -0.025281591 0.03476219 0.0094805965 -0.022121392 0.10428657 0.13588855 -0.09164577
000050 10 08 08 0e f5 f9 ea 14 ec 0c ff ff 12 f3 bd 05
       0.050563183 0.025281591 0.025281591 0.044242784 -0.03476219 -0.022121392 -0.06952438 0.063203976 -0.063203976 0.037922386 -0.003160199 -0.003160199 0.05688358 -0.041082587 -0.21173333 0.015800994
000060 f9 cd 00 f5 f6 fe fa ff f0 03 fa 06 fd f7 d0 da
       -0.022121392 -0.16117014 0.0 -0.03476219 -0.031601988 -0.006320398 -0.018961193 -0.003160199 -0.050563183 0.0094805965 -0.018961193 0.018961193 -0.0094805965 -0.02844179 -0.15168954 -0.12008756
000070 03 04 02 f9 f7 f7 ed 01 ed fe 00 06 f0 0e 1a f7
       0.0094805965 0.012640796 0.006320398 -0.022121392 -0.02844179 -0.02844179 -0.06004378 0.003160199 -0.06004378 -0.006320398 0.0 0.018961193 -0.050563183 0.044242784 0.082165174 -0.02844179
000080 0b 19 0b 23 f4 05 e8 00 fb f3 ff 06 ff 00 c5 0b
       0.03476219 0.07900497 0.03476219 0.11060696 -0.037922386 0.015800994 -0.07584477 0.0 -0.015800994 -0.041082587 -0.003160199 0.018961193 -0.003160199 0.0 -0.18645173 0.03476219
000090 09 0a 0b 13 0a 06 ec ef ee f5 ec 0e fd f3 14 06
       0.02844179 0.031601988 0.03476219 0.06004378 0.031601988 0.018961193 -0.063203976 -0.05372338 -0.05688358 -0.03476219 -0.063203976 0.044242784 -0.0094805965 -0.041082587 0.063203976 0.018961193
0000a0 09 f3 06 0e 00 13 e6 d8 ed f1 e3 0f ff e8 ea 17
       0.02844179 -0.041082587 0.018961193 0.044242784 0.0 0.06004378 -0.082165174 -0.12640795 -0.06004378 -0.047402985 -0.09164577 0.047402985 -0.003160199 -0.07584477 -0.06952438 0.07268458
0000b0 12 e7 03 01 05 17 ee d3 14 e5 f8 10 fa e1 fc 0d
       0.05688358 -0.07900497 0.0094805965 0.003160199 0.015800994 0.07268458 -0.05688358 -0.14220895 0.063203976 -0.08532537 -0.025281591 0.050563183 -0.018961193 -0.097966164 -0.012640796 0.041082587
0000c0 06 fe 0a 0c 16 1a fe 03 13 f4 ec fd 01 09 15 f6
       0.018961193 -0.006320398 0.031601988 0.037922386 0.06952438 0.082165174 -0.006320398 0.0094805965 0.06004378 -0.037922386 -0.063203976 -0.0094805965 0.003160199 0.02844179 0.06636418 -0.031601988
0000d0 ff 17 04 26 0a 1d f6 06 0b d9 e9 f1 f4 fe 10 0e
       -0.003160199 0.07268458 0.012640796 0.12008756 0.031601988 0.09164577 -0.031601988 0.018961193 0.03476219 -0.12324776 -0.07268458 -0.047402985 -0.037922386 -0.006320398 0.050563183 0.044242784
0000e0 0a ff f8 1c 09 f6 f0 f5 ed e9 f9 f2 0f e9 f9 19
       0.031601988 -0.003160199 -0.025281591 0.08848557 0.02844179 -0.031601988 -0.050563183 -0.03476219 -0.06004378 -0.07268458 -0.022121392 -0.044242784 0.047402985 -0.07268458 -0.022121392 0.07900497
0000f0 ff ec 03 07 23 f9 07 f9 fb ef fe 0d f0 fb 12 ff
       -0.003160199 -0.063203976 0.0094805965 0.022121392 0.11060696 -0.022121392 0.022121392 -0.022121392 -0.015800994 -0.05372338 -0.006320398 0.041082587 -0.050563183 -0.015800994 0.05688358 -0.003160199

model/batch_normalization_4/FusedBatchNormV3;model/conv2d_5/BiasAdd/ReadVariableOp;model/conv2d_5/BiasAdd;model/conv2d_5/Conv2D/ReadVariableOp;model/conv2d_5/Conv2D i1 [16, 3, 3, 16] scale=0.0034226417 zero_point=0
000000 09 fa f5 f7 f9 06 f2 09 05 fa 00 08 19 f8 fd f9
       0.030803775 -0.020535849 -0.037649058 -0.030803775 -0.023958491 0.020535849 -0.047916982 0.030803775 0.017113209 -0.020535849 0.0 0.027381133 0.085566044 -0.027381133 -0.0102679245 -0.023958491
000010 0d f9 fc fa 01 05 fb 01 09 01 fc 03 19 ef 00 ff
       0.044494342 -0.023958491 -0.013690567 -0.020535849 0.0034226417 0.017113209 -0.017113209 0.0034226417 0.030803775 0.0034226417 -0.013690567 0.0102679245 0.085566044 -0.058184907 0.0 -0.0034226417
000020 ff fc f5 f3 f7 0e f7 fc 05 06 f6 00 0d f3 ee 01
       -0.0034226417 -0.013690567 -0.037649058 -0.044494342 -0.030803775 0.047916982 -0.030803775 -0.013690567 0.017113209 0.020535849 -0.034226418 0.0 0.044494342 -0.044494342 -0.06160755 0.0034226417
000030 09 ea fc fa 03 06 ff 05 07 f4 02 04 0a fa f4 f2
       0.030803775 -0.075298116 -0.013690567 -0.020535849 0.0102679245 0.020535849 -0.0034226417 0.017113209 0.023958491 -0.041071698 0.0068452833 0.013690567 0.034226418 -0.020535849 -0.041071698 -0.047916982
000040 0d eb 06 fd 0c 0e 1b 09 13 f7 07 06 07 03 01 e5
       0.044494342 -0.071875475 0.020535849 -0.0102679245 0.041071698 0.047916982 0.092411324 0.030803775 0.065030195 -0.030803775 0.023958491 0.020535849 0.023958491 0.0102679245 0.0034226417 -0.092411324
000050 02 e9 04 05 05 0d 1e 06 1e f7 04 05 f5 1d f9 db
       0.0068452833 -0.078720756 0.013690567 0.017113209 0.017113209 0.044494342 0.10267925 0.020535849 0.10267925 -0.030803775 0.013690567 0.017113209 -0.037649058 0.099256605 -0.023958491 -0.12663774
000060 fe f6 04 00 05 05 f9 06 01 f7 00 0b fb 05 e9 ec
       -0.0068452833 -0.034226418 0.013690567 0.0 0.017113209 0.017113209 -0.023958491 0.020535849 0.0034226417 -0.030803775 0.0 0.037649058 -0.017113209 0.017113209 -0.078720756 -0.068452835
000070 00 f3 01 03 12 08 0e 0a 0c f8 09 06 f8 0e fd e5
       0.0 -0.044494342 0.0034226417 0.0102679245 0.06160755 0.027381133 0.047916982 0.034226418 0.041071698 -0.027381133 0.030803775 0.020535849 -0.027381133 0.047916982 -0.0102679245 -0.092411324
000080 fc f5 0e f2 0e 0b 0e 02 07 f4 03 09 ed 25 f7 f7
       -0.013690567 -0.037649058 0.047916982 -0.047916982 0.047916982 0.037649058 0.047916982 0.0068452833 0.023958491 -0.041071698 0.0102679245 0.030803775 -0.065030195 0.12663774 -0.030803775 -0.030803775
000090 24 11 03 10 fe 0c 0e 04 1b 01 02 15 10 f6 21 17
       0.1232151 0.058184907 0.0102679245 0.054762267 -0.0068452833 0.041071698 0.047916982 0.013690567 0.092411324 0.0034226417 0.0068452833 0.071875475 0.054762267 -0.034226418 0.11294717 0.078720756
0000a0 17 fd 17 fd fb 0b 03 24 fd ec 00 13 06 f9 13 1d
       0.078720756 -0.0102679245 0.078720756 -0.0102679245 -0.017113209 0.037649058 0.0102679245 0.1232151 -0.0102679245 -0.068452835 0.0 0.065030195 0.020535849 -0.023958491 0.065030195 0.099256605
0000b0 e7 f0 10 e8 00 f0 fc 31 e8 fa 17 fa f2 0e eb fe
       -0.085566044 -0.054762267 0.054762267 -0.082143396 0.0 -0.054762267 -0.013690567 0.16770944 -0.082143396 -0.020535849 0.078720756 -0.020535849 -0.047916982 0.047916982 -0.071875475 -0.0068452833
0000c0 0e 0b 02 c7 fe 0c 05 06 ee 03 19 0d 09 0d 15 2d
       0.047916982 0.037649058 0.0068452833 -0.19509058 -0.0068452833 0.041071698 0.017113209 0.020535849 -0.06160755 0.0102679245 0.085566044 0.044494342 0.030803775 0.044494342 0.071875475 0.15401888
0000d0 17 0b 1a e4 00 fd f3 19 ee f1 12 f7 e4 1d 1c 0e
       0.078720756 0.037649058 0.088988684 -0.095833965 0.0 -0.0102679245 -0.044494342 0.085566044 -0.06160755 -0.051339626 0.06160755 -0.030803775 -0.095833965 0.099256605 0.095833965 0.047916982
0000e0 bf eb 95 3b 07 f6 f5 33 06 1b 21 dd f3 1f e7 2a
       -0.22247171 -0.071875475 -0.36622265 0.20193586 0.023958491 -0.034226418 -0.037649058 0.17455472 0.020535849 0.092411324 0.11294717 -0.11979246 -0.044494342 0.10610189 -0.085566044 0.14375095
0000f0 00 f0 f3 13 02 11 0a 0a 06 03 15 ef ff 1c 00 14
       0.0 -0.054762267 -0.044494342 0.065030195 0.0068452833 0.058184907 0.034226418 0.034226418 0.020535849 0.0102679245 0.071875475 -0.058184907 -0.0034226417 0.095833965 0.0 0.068452835
