TFLite-model/01b_ResNet20_CIFAR-10_Q-full.tflite (tflite, 327984 bytes, 22 tensors)

model/dense/MatMul i1 [10, 64] scale=0.018072136 zero_point=0
0	0xeb	-0.37951484
1	0xb7	-1.319266
2	0x26	0.6867412
3	0x18	0.43373126
4	0xec	-0.36144271
5	0x15	0.37951484
6	0xe7	-0.4518034
7	0x04	0.07228854
8	0xde	-0.6144526
9	0x2d	0.81324613
10	0x21	0.5963805
11	0xe4	-0.50601983
12	0x22	0.6144526
13	0xc7	-1.0301118
14	0x14	0.36144271
15	0xaa	-1.5542036
16	0x00	0.0
17	0x0f	0.27108204
18	0xf1	-0.27108204
19	0x1f	0.5602362
20	0xe7	-0.4518034
21	0xc6	-1.0481839
22	0x0a	0.18072136
23	0x0b	0.1987935
24	0x00	0.0
25	0x0d	0.23493776
26	0x04	0.07228854
27	0xf8	-0.14457709
28	0xf5	-0.1987935
29	0x25	0.66866904
30	0x05	0.09036068
31	0xbd	-1.2108331
32	0xff	-0.018072136
33	0x2e	0.83131826
34	0xdd	-0.6325247
35	0x1e	0.5421641
36	0x09	0.16264921
37	0xd4	-0.795174
38	0x05	0.09036068
39	0xd5	-0.7771018
40	0xf6	-0.18072136
41	0x03	0.054216407
42	0xa9	-1.5722758
43	0xca	-0.97589535
44	0x12	0.32529843
45	0xf3	-0.23493776
46	0xf4	-0.21686563
47	0xff	-0.018072136
48	0x10	0.28915417
49	0x29	0.74095756
50	0xa6	-1.6264923
51	0xcf	-0.88553464
52	0x19	0.4518034
53	0xfe	-0.03614427
54	0x8f	-2.0421515
55	0x04	0.07228854
56	0x1f	0.5602362
57	0x16	0.397587
58	0x1b	0.48794767
59	0x06	0.108432814
60	0xdb	-0.66866904
61	0xda	-0.6867412
62	0x20	0.57830834
63	0xfd	-0.054216407
64	0x10	0.28915417
65	0x26	0.6867412
66	0xf1	-0.27108204
67	0xef	-0.3072263
68	0x0e	0.25300992
69	0x1a	0.4698755
70	0x3e	1.1204724
71	0xec	-0.36144271
72	0x1f	0.5602362
73	0x25	0.66866904
74	0x28	0.72288543
75	0xda	-0.6867412
76	0x1c	0.50601983
77	0x1d	0.52409196
78	0x11	0.3072263
79	0xfe	-0.03614427
80	0x0a	0.18072136
81	0xeb	-0.37951484
82	0xf1	-0.27108204
83	0xef	-0.3072263
84	0xc2	-1.1204724
85	0x1f	0.5602362
86	0xee	-0.32529843
87	0x05	0.09036068
88	0x08	0.14457709
89	0x1d	0.52409196
90	0x06	0.108432814
91	0xf0	-0.28915417
92	0xe9	-0.41565913
93	0xb9	-1.2831216
94	0xb4	-1.3734823
95	0x10	0.28915417
96	0xd4	-0.795174
97	0xd6	-0.7590297
98	0x21	0.5963805
99	0xe8	-0.43373126
100	0x1f	0.5602362
101	0x40	1.1566167
102	0x21	0.5963805
103	0xdf	-0.5963805
104	0x06	0.108432814
105	0x1b	0.48794767
106	0xb5	-1.3554102
107	0xa8	-1.590348
108	0xae	-1.4819151
109	0x20	0.57830834
110	0x23	0.6325247
111	0x81	-2.2951612
112	0x01	0.018072136
113	0x07	0.12650496
114	0xc5	-1.066256
115	0xcf	-0.88553464
116	0x1c	0.50601983
117	0xc3	-1.1024003
118	0x18	0.43373126
119	0x0b	0.1987935
120	0x08	0.14457709
121	0x24	0.65059686
122	0x13	0.3433706
123	0xad	-1.4999872
124	0xfd	-0.054216407
125	0x05	0.09036068
126	0x1b	0.48794767
127	0xfd	-0.054216407
128	0xcd	-0.9216789
129	0xcd	-0.9216789
130	0xce	-0.9036068
131	0x3a	1.0481839
132	0xce	-0.9036068
133	0xde	-0.6144526
134	0x0e	0.25300992
135	0xe4	-0.50601983
136	0xf0	-0.28915417
137	0xd9	-0.7048133
138	0xf3	-0.23493776
139	0xfe	-0.03614427
140	0xe1	-0.5602362
141	0xaa	-1.5542036
142	0xc4	-1.0843282
143	0x06	0.108432814
144	0x27	0.7048133
145	0x15	0.37951484
146	0x2d	0.81324613
147	0x35	0.9578232
148	0x12	0.32529843
149	0xf7	-0.16264921
150	0xe0	-0.57830834
151	0xff	-0.018072136
152	0x0c	0.21686563
153	0xea	-0.397587
154	0x04	0.07228854
155	0x15	0.37951484
156	0xb0	-1.4457709
157	0x2a	0.7590297
158	0x0f	0.27108204
159	0xe9	-0.41565913
160	0x07	0.12650496
161	0x13	0.3433706
162	0xea	-0.397587
163	0x04	0.07228854
164	0xd1	-0.8493904
165	0x23	0.6325247
166	0xf0	-0.28915417
167	0xd4	-0.795174
168	0x1a	0.4698755
169	0x22	0.6144526
170	0x06	0.108432814
171	0x0b	0.1987935
172	0x1b	0.48794767
173	0xe1	-0.5602362
174	0xaf	-1.463843
175	0xfa	-0.108432814
176	0x1f	0.5602362
177	0x0f	0.27108204
178	0x0c	0.21686563
179	0x15	0.37951484
180	0xc4	-1.0843282
181	0xfb	-0.09036068
182	0x25	0.66866904
183	0x10	0.28915417
184	0x06	0.108432814
185	0x01	0.018072136
186	0xb4	-1.3734823
187	0x07	0.12650496
188	0x21	0.5963805
189	0xdc	-0.65059686
190	0x0f	0.27108204
191	0x0c	0.21686563
192	0x0a	0.18072136
193	0xf8	-0.14457709
194	0x0e	0.25300992
195	0xe6	-0.4698755
196	0x0f	0.27108204
197	0x04	0.07228854
198	0xf6	-0.18072136
199	0x10	0.28915417
200	0xc2	-1.1204724
201	0xfa	-0.108432814
202	0xe7	-0.4518034
203	0xfb	-0.09036068
204	0xcf	-0.88553464
205	0x0f	0.27108204
206	0x18	0.43373126
207	0x12	0.32529843
208	0xf9	-0.12650496
209	0x0b	0.1987935
210	0xb5	-1.3554102
211	0xed	-0.3433706
212	0x1c	0.50601983
213	0xff	-0.018072136
214	0xbd	-1.2108331
215	0x14	0.36144271
216	0xfa	-0.108432814
217	0x1e	0.5421641
218	0x19	0.4518034
219	0x16	0.397587
220	0x0d	0.23493776
221	0x08	0.14457709
222	0x00	0.0
223	0x1e	0.5421641
224	0x1b	0.48794767
225	0xf9	-0.12650496
226	0xff	-0.018072136
227	0xce	-0.9036068
228	0xb5	-1.3554102
229	0x05	0.09036068
230	0xe0	-0.57830834
231	0x14	0.36144271
232	0x04	0.07228854
233	0xe6	-0.4698755
234	0x29	0.74095756
235	0x13	0.3433706
236	0xfe	-0.03614427
237	0x1e	0.5421641
238	0xca	-0.97589535
239	0x0e	0.25300992
240	0xe7	-0.4518034
241	0x21	0.5963805
242	0xda	-0.6867412
243	0xde	-0.6144526
244	0xed	-0.3433706
245	0x00	0.0
246	0x20	0.57830834
247	0x17	0.41565913
248	0xf0	-0.28915417
249	0x00	0.0
250	0x14	0.36144271
251	0x15	0.37951484
252	0x05	0.09036068
253	0x13	0.3433706
254	0xe4	-0.50601983
255	0xd5	-0.7771018

model/batch_normalization/FusedBatchNormV3;model/conv2d_1/BiasAdd/ReadVariableOp;model/conv2d_1/BiasAdd;model/conv2d_1/Conv2D/ReadVariableOp;model/conv2d_1/Conv2D i1 [16, 3, 3, 3]
0	0xf9	-7
1	0x40	64
2	0xf0	-16
3	0x0a	10
4	0x9d	-99
5	0xf3	-13
6	0x02	2
7	0xfb	-5
8	0x36	54
9	0x37	55
10	0xe6	-26
11	0xc5	-59
12	0x59	89
13	0xb1	-79
14	0x1b	27
15	0xc1	-63
16	0x81	-127
17	0x46	70
18	0x0d	13
19	0xd7	-41
20	0xfc	-4
21	0x66	102
22	0x03	3
23	0x26	38
24	0xe6	-26
25	0xf2	-14
26	0x6f	111
27	0xee	-18
28	0xbf	-65
29	0xe8	-24
30	0xf7	-9
31	0xce	-50
32	0x0b	11
33	0x70	112
34	0x13	19
35	0x5a	90
36	0x21	33
37	0xd8	-40
38	0x01	1
39	0x01	1
40	0xb0	-80
41	0xca	-54
42	0x7f	127
43	0x4d	77
44	0x4f	79
45	0x62	98
46	0x05	5
47	0xf9	-7
48	0x41	65
49	0xe1	-31
50	0xa9	-87
51	0x78	120
52	0x21	33
53	0xb3	-77
54	0xbb	-69
55	0x24	36
56	0xde	-34
57	0x2c	44
58	0x7f	127
59	0x2b	43
60	0x17	23
61	0x54	84
62	0x16	22
63	0xd1	-47
64	0x17	23
65	0xfa	-6
66	0x01	1
67	0x54	84
68	0x09	9
69	0xd9	-39
70	0x24	36
71	0xc6	-58
72	0xff	-1
73	0x05	5
74	0xfb	-5
75	0xe4	-28
76	0x01	1
77	0xe2	-30
78	0xe0	-32
79	0x17	23
80	0xcd	-51
81	0xec	-20
82	0xfc	-4
83	0x02	2
84	0x0e	14
85	0x10	16
86	0x42	66
87	0xf2	-14
88	0xf2	-14
89	0xdf	-33
90	0xde	-34
91	0xd0	-48
92	0x0a	10
93	0xf0	-16
94	0x81	-127
95	0xce	-50
96	0x38	56
97	0x16	22
98	0x2e	46
99	0x2b	43
100	0xf8	-8
101	0xff	-1
102	0x09	9
103	0xac	-84
104	0xca	-54
105	0x1f	31
106	0xe9	-23
107	0xfc	-4
108	0x14	20
109	0x50	80
110	0x58	88
111	0xff	-1
112	0x38	56
113	0x49	73
114	0xf8	-8
115	0x22	34
116	0x71	113
117	0xd1	-47
118	0x1d	29
119	0xe3	-29
120	0xc4	-60
121	0x97	-105
122	0xe0	-32
123	0x1e	30
124	0xe0	-32
125	0xfd	-3
126	0x11	17
127	0x3b	59
128	0xe7	-25
129	0xd9	-39
130	0xce	-50
131	0x81	-127
132	0x4c	76
133	0xcd	-51
134	0xaa	-86
135	0x7f	127
136	0x20	32
137	0xd3	-45
138	0x6b	107
139	0xf8	-8
140	0x06	6
141	0xf6	-10
142	0x29	41
143	0xf9	-7
144	0x37	55
145	0xd6	-42
146	0x9a	-102
147	0x52	82
148	0xcf	-49
149	0xc5	-59
150	0xcc	-52
151	0xe3	-29
152	0x0c	12
153	0xf5	-11
154	0xc9	-55
155	0x1c	28
156	0xea	-22
157	0xdc	-36
158	0x25	37
159	0xb1	-79
160	0xe7	-25
161	0x54	84
162	0xf9	-7
163	0x14	20
164	0x32	50
165	0xfc	-4
166	0xee	-18
167	0x3c	60
168	0xec	-20
169	0xd2	-46
170	0xe7	-25
171	0x20	32
172	0xe7	-25
173	0x24	36
174	0x15	21
175	0xf0	-16
176	0x1b	27
177	0xfd	-3
178	0x9d	-99
179	0xdd	-35
180	0x23	35
181	0x54	84
182	0x38	56
183	0x47	71
184	0x3f	63
185	0xd7	-41
186	0xe0	-32
187	0xb5	-75
188	0x81	-127
189	0xfb	-5
190	0xdc	-36
191	0xd2	-46
192	0xfe	-2
193	0xba	-70
194	0xfd	-3
195	0x36	54
196	0xcb	-53
197	0xd1	-47
198	0x31	49
199	0x02	2
200	0xb0	-80
201	0xbf	-65
202	0x81	-127
203	0xc3	-61
204	0x02	2
205	0x05	5
206	0x52	82
207	0x21	33
208	0x28	40
209	0xe5	-27
210	0xf2	-14
211	0x4f	79
212	0x4a	74
213	0xd8	-40
214	0x35	53
215	0x4e	78
216	0xb6	-74
217	0xe3	-29
218	0xf4	-12
219	0xf0	-16
220	0x10	16
221	0x7a	122
222	0xd2	-46
223	0x13	19
224	0xfb	-5
225	0xba	-70
226	0xd1	-47
227	0x58	88
228	0x8f	-113
229	0xce	-50
230	0x7f	127
231	0xde	-34
232	0xdc	-36
233	0x0b	11
234	0xc7	-57
235	0xe3	-29
236	0x42	66
237	0xfd	-3
238	0xfe	-2
239	0x61	97
240	0x4a	74
241	0x1b	27
242	0xe4	-28
243	0x98	-104
244	0xfd	-3
245	0xb0	-80
246	0xd7	-41
247	0xf0	-16
248	0xdd	-35
249	0xfc	-4
250	0x01	1
251	0x01	1
252	0xfd	-3
253	0x19	25
254	0xf0	-16
255	0x25	37

model/batch_normalization_1/FusedBatchNormV3;model/conv2d_2/BiasAdd/ReadVariableOp;model/conv2d_2/BiasAdd;model/conv2d_2/Conv2D/ReadVariableOp;model/conv2d_2/Conv2D i1 [16, 3, 3, 16]
0	0x11	17
1	0x0a	10
2	0xf6	-10
3	0xe9	-23
4	0x16	22
5	0xce	-50
6	0xec	-20
7	0x37	55
8	0x45	69
9	0xdb	-37
10	0x13	19
11	0x16	22
12	0xd4	-44
13	0x4d	77
14	0xe4	-28
15	0x2e	46
16	0xd8	-40
17	0xfc	-4
18	0xf2	-14
19	0xf2	-14
20	0x1f	31
21	0xb6	-74
22	0x12	18
23	0xf7	-9
24	0x3c	60
25	0xe0	-32
26	0xe9	-23
27	0x06	6
28	0xe3	-29
29	0x2b	43
30	0x18	24
31	0x00	0
32	0xde	-34
33	0xf8	-8
34	0xfc	-4
35	0x07	7
36	0x1a	26
37	0xbf	-65
38	0x02	2
39	0xfd	-3
40	0xff	-1
41	0xfd	-3
42	0xfd	-3
43	0xdf	-33
44	0xf7	-9
45	0x23	35
46	0x1a	26
47	0x1d	29
48	0xfb	-5
49	0x1a	26
50	0xdd	-35
51	0x00	0
52	0x12	18
53	0x98	-104
54	0xff	-1
55	0xe7	-25
56	0x3f	63
57	0xec	-20
58	0xfb	-5
59	0xcb	-53
60	0xfa	-6
61	0xdc	-36
62	0x1c	28
63	0xf5	-11
64	0xea	-22
65	0x11	17
66	0xe8	-24
67	0x02	2
68	0x13	19
69	0x8f	-113
70	0x14	20
71	0xd3	-45
72	0x1a	26
73	0x06	6
74	0xf9	-7
75	0xbf	-65
76	0xda	-38
77	0x81	-127
78	0xf6	-10
79	0xe9	-23
80	0xff	-1
81	0x03	3
82	0xe3	-29
83	0x19	25
84	0x0b	11
85	0xb4	-76
86	0xfe	-2
87	0xf1	-15
88	0xd7	-41
89	0x1f	31
90	0x03	3
91	0xaf	-81
92	0xc8	-56
93	0x90	-112
94	0xe7	-25
95	0x05	5
96	0x03	3
97	0x19	25
98	0xe7	-25
99	0x1b	27
100	0x15	21
101	0xc4	-60
102	0xf2	-14
103	0x0f	15
104	0x0e	14
105	0xe0	-32
106	0xf5	-11
107	0xc1	-63
108	0x12	18
109	0x08	8
110	0x1c	28
111	0xf3	-13
112	0x3f	63
113	0x16	22
114	0xee	-18
115	0xf4	-12
116	0x1c	28
117	0xed	-19
118	0x14	20
119	0x09	9
120	0xd3	-45
121	0x25	37
122	0x05	5
123	0xad	-83
124	0xf5	-11
125	0xbe	-66
126	0xff	-1
127	0xf6	-10
128	0x15	21
129	0x01	1
130	0xe7	-25
131	0x0a	10
132	0x18	24
133	0x1c	28
134	0x1c	28
135	0x0a	10
136	0xa7	-89
137	0x3e	62
138	0x34	52
139	0xb0	-80
140	0x04	4
141	0xd3	-45
142	0xeb	-21
143	0x0e	14
144	0x38	56
145	0xf0	-16
146	0xfb	-5
147	0xf8	-8
148	0xf0	-16
149	0x19	25
150	0xde	-34
151	0x05	5
152	0xd0	-48
153	0xf7	-9
154	0x31	49
155	0xc6	-58
156	0xb5	-75
157	0xf8	-8
158	0xbd	-67
159	0x4d	77
160	0x3e	62
161	0xde	-34
162	0x1b	27
163	0xc3	-61
164	0xf4	-12
165	0x0f	15
166	0xf9	-7
167	0xcf	-49
168	0x10	16
169	0x00	0
170	0x8c	-116
171	0xe6	-26
172	0x1b	27
173	0xe6	-26
174	0xfb	-5
175	0x04	4
176	0x8f	-113
177	0xe3	-29
178	0xea	-22
179	0xeb	-21
180	0x1a	26
181	0xcf	-49
182	0x1d	29
183	0xb8	-72
184	0xfd	-3
185	0xfa	-6
186	0x1c	28
187	0x27	39
188	0x00	0
189	0x74	116
190	0xe9	-23
191	0xe3	-29
192	0x29	41
193	0xfd	-3
194	0x08	8
195	0x27	39
196	0x2f	47
197	0xe0	-32
198	0xf0	-16
199	0x0c	12
200	0xcc	-52
201	0x10	16
202	0xff	-1
203	0x0f	15
204	0x24	36
205	0xf7	-9
206	0x42	66
207	0x38	56
208	0xe5	-27
209	0xeb	-21
210	0x3c	60
211	0x18	24
212	0x15	21
213	0xb7	-73
214	0xe7	-25
215	0xd2	-46
216	0x19	25
217	0xe6	-26
218	0x81	-127
219	0x2e	46
220	0x75	117
221	0xad	-83
222	0xb4	-76
223	0xdf	-33
224	0xee	-18
225	0xe2	-30
226	0x07	7
227	0x35	53
228	0x2a	42
229	0x82	-126
230	0xf1	-15
231	0xe2	-30
232	0x0c	12
233	0xc2	-62
234	0xda	-38
235	0x76	118
236	0xe9	-23
237	0x5a	90
238	0xe1	-31
239	0xd6	-42
240	0x3b	59
241	0xfc	-4
242	0x27	39
243	0x2b	43
244	0x41	65
245	0x24	36
246	0xfb	-5
247	0xf0	-16
248	0xe0	-32
249	0xd6	-42
250	0x4b	75
251	0x26	38
252	0x2c	44
253	0xf2	-14
254	0x28	40
255	0x43	67

model/batch_normalization_2/FusedBatchNormV3;model/conv2d_3/BiasAdd/ReadVariableOp;model/conv2d_3/BiasAdd;model/conv2d_3/Conv2D/ReadVariableOp;model/conv2d_3/Conv2D i1 [16, 3, 3, 16]
0	0x02	2
1	0xf6	-10
2	0x0b	11
3	0xfe	-2
4	0xdc	-36
5	0xe4	-28
6	0xc0	-64
7	0xc4	-60
8	0xf8	-8
9	0xe4	-28
10	0x07	7
11	0x03	3
12	0xfa	-6
13	0xeb	-21
14	0xa7	-89
15	0x2d	45
16	0xea	-22
17	0xed	-19
18	0xf6	-10
19	0xf3	-13
20	0xdc	-36
21	0xf1	-15
22	0xb5	-75
23	0x13	19
24	0xf4	-12
25	0xde	-34
26	0xf5	-11
27	0xc9	-55
28	0xff	-1
29	0xdf	-33
30	0xdd	-35
31	0x27	39
32	0xf9	-7
33	0xec	-20
34	0x3f	63
35	0x10	16
36	0xb1	-79
37	0xfd	-3
38	0xeb	-21
39	0x33	51
40	0x4f	79
41	0xd6	-42
42	0x35	53
43	0xd0	-48
44	0xe4	-28
45	0xe9	-23
46	0x22	34
47	0xfa	-6
48	0xe1	-31
49	0x33	51
50	0xfa	-6
51	0x08	8
52	0xe0	-32
53	0xed	-19
54	0xe2	-30
55	0xf2	-14
56	0xcd	-51
57	0xd5	-43
58	0xdd	-35
59	0x2f	47
60	0x0e	14
61	0x10	16
62	0xc6	-58
63	0x5b	91
64	0xc6	-58
65	0x09	9
66	0xe8	-24
67	0x19	25
68	0xf8	-8
69	0xfe	-2
70	0xe2	-30
71	0x23	35
72	0x04	4
73	0xd6	-42
74	0xd6	-42
75	0x71	113
76	0x68	104
77	0xf9	-7
78	0x11	17
79	0x7f	127
80	0xe9	-23
81	0x07	7
82	0xe3	-29
83	0x4a	74
84	0xe9	-23
85	0x06	6
86	0x1c	28
87	0x2d	45
88	0x31	49
89	0xba	-70
90	0xfd	-3
91	0x0f	15
92	0x7d	125
93	0xf1	-15
94	0x65	101
95	0x38	56
96	0xff	-1
97	0x29	41
98	0x3f	63
99	0x30	48
100	0xf7	-9
101	0xcd	-51
102	0x3a	58
103	0x0d	13
104	0xbe	-66
105	0x0a	10
106	0xdb	-37
107	0x19	25
108	0xee	-18
109	0x5f	95
110	0xc0	-64
111	0x1f	31
112	0x04	4
113	0x4a	74
114	0x30	48
115	0xfc	-4
116	0x1b	27
117	0xf8	-8
118	0x4c	76
119	0x2e	46
120	0xf3	-13
121	0x01	1
122	0xc5	-59
123	0x52	82
124	0x43	67
125	0x4f	79
126	0xef	-17
127	0x30	48
128	0x33	51
129	0x4a	74
130	0x2e	46
131	0x17	23
132	0x22	34
133	0x16	22
134	0x68	104
135	0x45	69
136	0x0a	10
137	0xd3	-45
138	0xc5	-59
139	0x05	5
140	0x22	34
141	0x40	64
142	0x3d	61
143	0xe7	-25
144	0x00	0
145	0x11	17
146	0x05	5
147	0x07	7
148	0x0f	15
149	0x2e	46
150	0xec	-20
151	0x04	4
152	0xe7	-25
153	0x01	1
154	0x08	8
155	0xe0	-32
156	0x01	1
157	0x1c	28
158	0xf9	-7
159	0xdf	-33
160	0xff	-1
161	0x10	16
162	0x06	6
163	0x03	3
164	0x58	88
165	0x38	56
166	0xe3	-29
167	0xf2	-14
168	0x09	9
169	0xe1	-31
170	0x06	6
171	0x16	22
172	0xc5	-59
173	0xfc	-4
174	0xe1	-31
175	0xf8	-8
176	0x1b	27
177	0x12	18
178	0xf3	-13
179	0x30	48
180	0xf0	-16
181	0xee	-18
182	0x0a	10
183	0x18	24
184	0xf1	-15
185	0x04	4
186	0xde	-34
187	0x2c	44
188	0x15	21
189	0xdd	-35
190	0x09	9
191	0x00	0
192	0x11	17
193	0xeb	-21
194	0xed	-19
195	0x0c	12
196	0x1d	29
197	0x1d	29
198	0xfd	-3
199	0x03	3
200	0xeb	-21
201	0xeb	-21
202	0xef	-17
203	0xc3	-61
204	0xb3	-77
205	0x16	22
206	0x02	2
207	0xe1	-31
208	0x0d	13
209	0xbc	-68
210	0x05	5
211	0x15	21
212	0x52	82
213	0x10	16
214	0x0d	13
215	0xd5	-43
216	0x7a	122
217	0x09	9
218	0xed	-19
219	0x70	112
220	0xb4	-76
221	0x07	7
222	0xfc	-4
223	0x0d	13
224	0x1e	30
225	0x4b	75
226	0x00	0
227	0x48	72
228	0xd2	-46
229	0xed	-19
230	0xe7	-25
231	0x1e	30
232	0x90	-112
233	0xfb	-5
234	0xc0	-64
235	0x93	-109
236	0x7f	127
237	0xfc	-4
238	0xf4	-12
239	0xfa	-6
240	0x1f	31
241	0xe8	-24
242	0xdb	-37
243	0xff	-1
244	0xfb	-5
245	0x20	32
246	0xfe	-2
247	0x12	18
248	0xeb	-21
249	0xca	-54
250	0xe9	-23
251	0xfc	-4
252	0xfe	-2
253	0xfc	-4
254	0xff	-1
255	0x14	20

model/batch_normalization_3/FusedBatchNormV3;model/conv2d_4/BiasAdd/ReadVariableOp;model/conv2d_4/BiasAdd;model/conv2d_4/Conv2D/ReadVariableOp;model/conv2d_4/Conv2D i1 [16, 3, 3, 16]
0	0xe2	-30
1	0xbf	-65
2	0xe6	-26
3	0xed	-19
4	0x20	32
5	0xea	-22
6	0x13	19
7	0x05	5
8	0xf2	-14
9	0x29	41
10	0x02	2
11	0x02	2
12	0xf5	-11
13	0x19	25
14	0xeb	-21
15	0xe9	-23
16	0xea	-22
17	0xf3	-13
18	0xf0	-16
19	0x04	4
20	0x11	17
21	0xf6	-10
22	0xf3	-13
23	0xf4	-12
24	0xdd	-35
25	0x02	2
26	0xfc	-4
27	0xf7	-9
28	0xf4	-12
29	0xf4	-12
30	0xe1	-31
31	0xe3	-29
32	0x1f	31
33	0x09	9
34	0x05	5
35	0xf5	-11
36	0x07	7
37	0x0f	15
38	0xe4	-28
39	0x11	17
40	0xff	-1
41	0x0a	10
42	0xfb	-5
43	0x09	9
44	0x02	2
45	0xd0	-48
46	0xe5	-27
47	0xdf	-33
48	0xe4	-28
49	0x81	-127
50	0xf8	-8
51	0xdb	-37
52	0x17	23
53	0xfc	-4
54	0x19	25
55	0xe6	-26
56	0xf3	-13
57	0x10	16
58	0xfd	-3
59	0x07	7
60	0xf9	-7
61	0xff	-1
62	0xbe	-66
63	0xbd	-67
64	0xef	-17
65	0x02	2
66	0xfd	-3
67	0x14	20
68	0x12	18
69	0x03	3
70	0xec	-20
71	0x14	20
72	0xf4	-12
73	0xf5	-11
74	0x0f	15
75	0x04	4
76	0xf6	-10
77	0x30	48
78	0x3e	62
79	0xd6	-42
80	0x17	23
81	0x0c	12
82	0x0c	12
83	0x14	20
84	0xf0	-16
85	0xf6	-10
86	0xe1	-31
87	0x1d	29
88	0xe3	-29
89	0x12	18
90	0xfe	-2
91	0xff	-1
92	0x1a	26
93	0xee	-18
94	0xa0	-96
95	0x07	7
96	0xf6	-10
97	0xb7	-73
98	0x00	0
99	0xf0	-16
100	0xf2	-14
101	0xfd	-3
102	0xf7	-9
103	0xff	-1
104	0xe8	-24
105	0x04	4
106	0xf8	-8
107	0x09	9
108	0xfb	-5
109	0xf3	-13
110	0xbb	-69
111	0xca	-54
112	0x05	5
113	0x05	5
114	0x03	3
115	0xf6	-10
116	0xf2	-14
117	0xf3	-13
118	0xe5	-27
119	0x01	1
120	0xe4	-28
121	0xfe	-2
122	0xff	-1
123	0x09	9
124	0xe9	-23
125	0x15	21
126	0x25	37
127	0xf4	-12
128	0x10	16
129	0x24	36
130	0x10	16
131	0x33	51
132	0xf0	-16
133	0x07	7
134	0xde	-34
135	0xff	-1
136	0xf9	-7
137	0xed	-19
138	0xfe	-2
139	0x09	9
140	0xff	-1
141	0x00	0
142	0xac	-84
143	0x0f	15
144	0x18	24
145	0x1c	28
146	0x21	33
147	0x35	53
148	0x1e	30
149	0x12	18
150	0xc6	-58
151	0xd0	-48
152	0xcc	-52
153	0xe0	-32
154	0xc7	-57
155	0x28	40
156	0xf7	-9
157	0xda	-38
158	0x38	56
159	0x10	16
160	0x18	24
161	0xdc	-36
162	0x11	17
163	0x27	39
164	0x01	1
165	0x35	53
166	0xb7	-73
167	0x8e	-114
168	0xcb	-53
169	0xd4	-44
170	0xaf	-81
171	0x2a	42
172	0xfd	-3
173	0xbc	-68
174	0xc2	-62
175	0x41	65
176	0x32	50
177	0xb9	-71
178	0x09	9
179	0x02	2
180	0x0f	15
181	0x43	67
182	0xcd	-51
183	0x81	-127
184	0x38	56
185	0xb3	-77
186	0xe8	-24
187	0x2d	45
188	0xee	-18
189	0xa7	-89
190	0xf6	-10
191	0x26	38
192	0x10	16
193	0xfc	-4
194	0x1d	29
195	0x22	34
196	0x3e	62
197	0x4b	75
198	0xfa	-6
199	0x08	8
200	0x35	53
201	0xdf	-33
202	0xc6	-58
203	0xf7	-9
204	0x03	3
205	0x1a	26
206	0x3b	59
207	0xe5	-27
208	0xfe	-2
209	0x41	65
210	0x0b	11
211	0x6d	109
212	0x1d	29
213	0x52	82
214	0xe2	-30
215	0x11	17
216	0x20	32
217	0x92	-110
218	0xbf	-65
219	0xd6	-42
220	0xde	-34
221	0xfb	-5
222	0x2c	44
223	0x27	39
224	0x1b	27
225	0xfe	-2
226	0xe9	-23
227	0x4f	79
228	0x1a	26
229	0xe3	-29
230	0xd4	-44
231	0xe2	-30
232	0xcb	-53
233	0xbe	-66
234	0xed	-19
235	0xd8	-40
236	0x2b	43
237	0xbf	-65
238	0xed	-19
239	0x48	72
240	0xfe	-2
241	0xc8	-56
242	0x08	8
243	0x13	19
244	0x63	99
245	0xed	-19
246	0x15	21
247	0xed	-19
248	0xf1	-15
249	0xd0	-48
250	0xfa	-6
251	0x24	36
252	0xd2	-46
253	0xf2	-14
254	0x33	51
255	0xfe	-2

model/batch_normalization_4/FusedBatchNormV3;model/conv2d_5/BiasAdd/ReadVariableOp;model/conv2d_5/BiasAdd;model/conv2d_5/Conv2D/ReadVariableOp;model/conv2d_5/Conv2D i1 [16, 3, 3, 16]
0	0x1f	31
1	0xea	-22
2	0xdc	-36
3	0xe3	-29
4	0xe9	-23
5	0x13	19
6	0xd1	-47
7	0x20	32
8	0x0f	15
9	0xeb	-21
10	0x00	0
11	0x1c	28
12	0x56	86
13	0xe3	-29
14	0xf5	-11
15	0xe9	-23
16	0x2d	45
17	0xe9	-23
18	0xf3	-13
19	0xed	-19
20	0x04	4
21	0x12	18
22	0xf1	-15
23	0x02	2
24	0x20	32
25	0x03	3
26	0xf1	-15
27	0x0a	10
28	0x56	86
29	0xc7	-57
30	0x00	0
31	0xfc	-4
32	0xfb	-5
33	0xf3	-13
34	0xda	-38
35	0xd5	-43
36	0xe3	-29
37	0x2f	47
38	0xe0	-32
39	0xf2	-14
40	0x10	16
41	0x16	22
42	0xdf	-33
43	0x00	0
44	0x2c	44
45	0xd5	-43
46	0xc3	-61
47	0x04	4
48	0x1f	31
49	0xb5	-75
50	0xf3	-13
51	0xeb	-21
52	0x09	9
53	0x15	21
54	0xfd	-3
55	0x10	16
56	0x17	23
57	0xd7	-41
58	0x06	6
59	0x0d	13
60	0x23	35
61	0xeb	-21
62	0xd6	-42
63	0xd2	-46
64	0x2c	44
65	0xb7	-73
66	0x16	22
67	0xf5	-11
68	0x2a	42
69	0x31	49
70	0x5b	91
71	0x1f	31
72	0x40	64
73	0xe1	-31
74	0x18	24
75	0x15	21
76	0x18	24
77	0x0b	11
78	0x04	4
79	0xa2	-94
80	0x05	5
81	0xb1	-79
82	0x0e	14
83	0x12	18
84	0x12	18
85	0x2e	46
86	0x65	101
87	0x14	20
88	0x66	102
89	0xe2	-30
90	0x0e	14
91	0x11	17
92	0xdc	-36
93	0x63	99
94	0xe8	-24
95	0x81	-127
96	0xf8	-8
97	0xdc	-36
98	0x0f	15
99	0x00	0
100	0x12	18
101	0x10	16
102	0xe8	-24
103	0x15	21
104	0x05	5
105	0xe1	-31
106	0x01	1
107	0x26	38
108	0xf0	-16
109	0x12	18
110	0xb3	-77
111	0xbc	-68
112	0xff	-1
113	0xd2	-46
114	0x02	2
115	0x0b	11
116	0x3e	62
117	0x1c	28
118	0x31	49
119	0x21	33
120	0x28	40
121	0xe4	-28
122	0x1d	29
123	0x14	20
124	0xe3	-29
125	0x30	48
126	0xf5	-11
127	0xa3	-93
128	0xf1	-15
129	0xdb	-37
130	0x2f	47
131	0xd0	-48
132	0x30	48
133	0x26	38
134	0x31	49
135	0x06	6
136	0x17	23
137	0xd6	-42
138	0x0b	11
139	0x1f	31
140	0xbf	-65
141	0x7d	125
142	0xe2	-30
143	0xe0	-32
144	0x2a	42
145	0x15	21
146	0x03	3
147	0x12	18
148	0xfe	-2
149	0x0e	14
150	0x11	17
151	0x04	4
152	0x20	32
153	0x01	1
154	0x02	2
155	0x18	24
156	0x13	19
157	0xf4	-12
158	0x27	39
159	0x1c	28
160	0x1b	27
161	0xfd	-3
162	0x1b	27
163	0xfd	-3
164	0xf9	-7
165	0x0e	14
166	0x03	3
167	0x2b	43
168	0xfd	-3
169	0xe8	-24
170	0x01	1
171	0x17	23
172	0x07	7
173	0xf8	-8
174	0x17	23
175	0x22	34
176	0xe2	-30
177	0xed	-19
178	0x13	19
179	0xe4	-28
180	0xff	-1
181	0xed	-19
182	0xfb	-5
183	0x3a	58
184	0xe3	-29
185	0xf9	-7
186	0x1b	27
187	0xf9	-7
188	0xef	-17
189	0x11	17
190	0xe7	-25
191	0xfe	-2
192	0x10	16
193	0x0d	13
194	0x02	2
195	0xbc	-68
196	0xfe	-2
197	0x0e	14
198	0x06	6
199	0x07	7
200	0xea	-22
201	0x03	3
202	0x1d	29
203	0x0f	15
204	0x0a	10
205	0x10	16
206	0x19	25
207	0x35	53
208	0x1b	27
209	0x0d	13
210	0x1f	31
211	0xdf	-33
212	0x00	0
213	0xfd	-3
214	0xf0	-16
215	0x1e	30
216	0xea	-22
217	0xee	-18
218	0x16	22
219	0xf6	-10
220	0xdf	-33
221	0x23	35
222	0x21	33
223	0x10	16
224	0xb3	-77
225	0xe7	-25
226	0x81	-127
227	0x46	70
228	0x08	8
229	0xf4	-12
230	0xf3	-13
231	0x3d	61
232	0x08	8
233	0x1f	31
234	0x27	39
235	0xd7	-41
236	0xf0	-16
237	0x25	37
238	0xe3	-29
239	0x32	50
240	0x00	0
241	0xed	-19
242	0xf1	-15
243	0x16	22
244	0x03	3
245	0x15	21
246	0x0c	12
247	0x0c	12
248	0x07	7
249	0x04	4
250	0x19	25
251	0xec	-20
252	0xff	-1
253	0x21	33
254	0x00	0
255	0x18	24

model/batch_normalization_5/FusedBatchNormV3;model/conv2d_6/BiasAdd/ReadVariableOp;model/conv2d_6/BiasAdd;model/conv2d_6/Conv2D/ReadVariableOp;model/conv2d_6/Conv2D i1 [16, 3, 3, 16]
0	0x20	32
1	0x0d	13
2	0x08	8
3	0x3e	62
4	0xb5	-75
5	0x00	0
6	0xe7	-25
7	0x1a	26
8	0x0a	10
9	0xca	-54
10	0xf3	-13
11	0xed	-19
12	0xbd	-67
13	0x2b	43
14	0x20	32
15	0x58	88
16	0x1e	30
17	0xd7	-41
18	0x05	5
19	0x11	17
20	0xe0	-32
21	0xe7	-25
22	0xe2	-30
23	0xf9	-7
24	0xfc	-4
25	0xe8	-24
26	0x27	39
27	0x22	34
28	0xab	-85
29	0xf6	-10
30	0x18	24
31	0x1b	27
32	0x1c	28
33	0xdc	-36
34	0x0c	12
35	0xf5	-11
36	0x0c	12
37	0xf4	-12
38	0xd7	-41
39	0xe9	-23
40	0x20	32
41	0x2e	46
42	0x1f	31
43	0x02	2
44	0xe6	-26
45	0xe8	-24
46	0xe3	-29
47	0x02	2
48	0x16	22
49	0xe8	-24
50	0xf2	-14
51	0x0b	11
52	0xc8	-56
53	0xf0	-16
54	0xf0	-16
55	0x0a	10
56	0xfc	-4
57	0xb1	-79
58	0x13	19
59	0x1b	27
60	0x91	-111
61	0x2c	44
62	0x04	4
63	0x35	53
64	0xff	-1
65	0xcd	-51
66	0xf9	-7
67	0xe1	-31
68	0x15	21
69	0xcd	-51
70	0xdd	-35
71	0xfe	-2
72	0x13	19
73	0xf0	-16
74	0x17	23
75	0x2a	42
76	0xcd	-51
77	0xfa	-6
78	0x04	4
79	0xef	-17
80	0xee	-18
81	0x39	57
82	0xf2	-14
83	0xe1	-31
84	0x2e	46
85	0x05	5
86	0xdb	-37
87	0xf1	-15
88	0x1a	26
89	0x38	56
90	0xe8	-24
91	0xf8	-8
92	0x39	57
93	0xda	-38
94	0xe5	-27
95	0xf9	-7
96	0xf8	-8
97	0xc5	-59
98	0xf8	-8
99	0xfe	-2
100	0x0c	12
101	0xec	-20
102	0x01	1
103	0xda	-38
104	0x11	17
105	0xee	-18
106	0xfc	-4
107	0xf2	-14
108	0xd2	-46
109	0x04	4
110	0xdc	-36
111	0xf9	-7
112	0xf9	-7
113	0x04	4
114	0x00	0
115	0xe8	-24
116	0x25	37
117	0xf6	-10
118	0xf0	-16
119	0xfb	-5
120	0x0f	15
121	0x25	37
122	0xdc	-36
123	0xe2	-30
124	0x37	55
125	0xea	-22
126	0xcf	-49
127	0xb9	-71
128	0xf4	-12
129	0x14	20
130	0x1a	26
131	0xfd	-3
132	0x05	5
133	0x45	69
134	0x00	0
135	0xe8	-24
136	0x05	5
137	0x38	56
138	0xc7	-57
139	0xd5	-43
140	0x7f	127
141	0xe4	-28
142	0xcd	-51
143	0xdf	-33
144	0xfb	-5
145	0x98	-104
146	0x05	5
147	0xe7	-25
148	0xdf	-33
149	0x33	51
150	0x24	36
151	0xa1	-95
152	0xf2	-14
153	0xfc	-4
154	0xd7	-41
155	0x13	19
156	0x1a	26
157	0x07	7
158	0x92	-110
159	0xc4	-60
160	0xf0	-16
161	0x81	-127
162	0x29	41
163	0x1d	29
164	0xef	-17
165	0x37	55
166	0x1d	29
167	0xe2	-30
168	0x45	69
169	0x14	20
170	0xea	-22
171	0x28	40
172	0xde	-34
173	0xe9	-23
174	0xfd	-3
175	0xc2	-62
176	0x1b	27
177	0x08	8
178	0x1e	30
179	0x56	86
180	0x1e	30
181	0xd9	-39
182	0xeb	-21
183	0x31	49
184	0xf8	-8
185	0x08	8
186	0xec	-20
187	0xd8	-40
188	0xec	-20
189	0x0b	11
190	0x10	16
191	0x1e	30
192	0xee	-18
193	0x9e	-98
194	0x2b	43
195	0x20	32
196	0x01	1
197	0x73	115
198	0x13	19
199	0xe2	-30
200	0x3b	59
201	0xe8	-24
202	0xf7	-9
203	0x49	73
204	0xd2	-46
205	0x19	25
206	0xf4	-12
207	0xcd	-51
208	0xf9	-7
209	0x7e	126
210	0xf2	-14
211	0x2c	44
212	0xf7	-9
213	0xe7	-25
214	0xe9	-23
215	0x6c	108
216	0xdf	-33
217	0xf0	-16
218	0xfe	-2
219	0x05	5
220	0xb8	-72
221	0xe5	-27
222	0x65	101
223	0x1a	26
224	0x2f	47
225	0xda	-38
226	0xe2	-30
227	0x22	34
228	0xf8	-8
229	0xbd	-67
230	0xde	-34
231	0x39	57
232	0xab	-85
233	0x07	7
234	0xfb	-5
235	0xa7	-89
236	0x00	0
237	0x00	0
238	0x93	-109
239	0x1b	27
240	0x0f	15
241	0x4e	78
242	0xb8	-72
243	0x2f	47
244	0x2a	42
245	0xbc	-68
246	0x05	5
247	0x1b	27
248	0xee	-18
249	0xce	-50
250	0xf7	-9
251	0x11	17
252	0xec	-20
253	0x10	16
254	0x39	57
255	0xf3	-13

model/batch_normalization_6/FusedBatchNormV3;model/conv2d_7/BiasAdd/ReadVariableOp;model/conv2d_7/BiasAdd;model/conv2d_7/Conv2D/ReadVariableOp;model/conv2d_7/Conv2D1 i1 [16, 3, 3, 16]
0	0xd7	-41
1	0xb6	-74
2	0x1a	26
3	0xeb	-21
4	0xf9	-7
5	0xff	-1
6	0xcf	-49
7	0x11	17
8	0xe3	-29
9	0x2e	46
10	0x3f	63
11	0x10	16
12	0x10	16
13	0x2e	46
14	0xe0	-32
15	0x0d	13
16	0xe3	-29
17	0xd2	-46
18	0xe6	-26
19	0xe5	-27
20	0x0c	12
21	0xfb	-5
22	0xaa	-86
23	0xda	-38
24	0xcf	-49
25	0x2a	42
26	0x18	24
27	0xd7	-41
28	0xfc	-4
29	0x4e	78
30	0xe6	-26
31	0x00	0
32	0x0f	15
33	0xfd	-3
34	0xdd	-35
35	0xd7	-41
36	0x13	19
37	0xf9	-7
38	0xb6	-74
39	0xe8	-24
40	0xe7	-25
41	0x15	21
42	0x16	22
43	0xeb	-21
44	0xf6	-10
45	0x1e	30
46	0xbf	-65
47	0xfa	-6
48	0xed	-19
49	0xcf	-49
50	0xc6	-58
51	0x14	20
52	0x2d	45
53	0x3c	60
54	0xf0	-16
55	0xf4	-12
56	0xfe	-2
57	0x0e	14
58	0x19	25
59	0xdf	-33
60	0xd0	-48
61	0x40	64
62	0xee	-18
63	0x2d	45
64	0x16	22
65	0xc7	-57
66	0x88	-120
67	0xf9	-7
68	0x37	55
69	0x22	34
70	0xc8	-56
71	0xc4	-60
72	0xe9	-23
73	0x0e	14
74	0x0f	15
75	0x87	-121
76	0xf2	-14
77	0x4b	75
78	0xed	-19
79	0xf1	-15
80	0x39	57
81	0xeb	-21
82	0x87	-121
83	0xd4	-44
84	0x4a	74
85	0x11	17
86	0x9c	-100
87	0xc3	-61
88	0xcb	-53
89	0x07	7
90	0x1f	31
91	0xd8	-40
92	0xd9	-39
93	0x15	21
94	0xcd	-51
95	0xe4	-28
96	0x04	4
97	0xf7	-9
98	0xbf	-65
99	0xe7	-25
100	0x26	38
101	0x23	35
102	0xcf	-49
103	0xe7	-25
104	0x31	49
105	0x1a	26
106	0x0b	11
107	0x12	18
108	0xf0	-16
109	0x59	89
110	0x26	38
111	0x0d	13
112	0x3f	63
113	0xdb	-37
114	0x8f	-113
115	0xfc	-4
116	0x25	37
117	0x25	37
118	0xcc	-52
119	0x01	1
120	0xf9	-7
121	0xe5	-27
122	0x0a	10
123	0xc8	-56
124	0x01	1
125	0x5c	92
126	0x17	23
127	0x08	8
128	0x37	55
129	0xe3	-29
130	0x81	-127
131	0xd8	-40
132	0x22	34
133	0x25	37
134	0xff	-1
135	0xf0	-16
136	0xca	-54
137	0xe6	-26
138	0x1f	31
139	0xe4	-28
140	0x01	1
141	0x51	81
142	0xf5	-11
143	0x11	17
144	0xd4	-44
145	0x25	37
146	0x21	33
147	0xf4	-12
148	0xec	-20
149	0xf6	-10
150	0x01	1
151	0x13	19
152	0x31	49
153	0xe5	-27
154	0xd2	-46
155	0xd8	-40
156	0x1f	31
157	0xff	-1
158	0x05	5
159	0xfc	-4
160	0x24	36
161	0x37	55
162	0x30	48
163	0xee	-18
164	0xed	-19
165	0xd2	-46
166	0xe7	-25
167	0xbb	-69
168	0x09	9
169	0xf9	-7
170	0x0e	14
171	0xda	-38
172	0x28	40
173	0x2c	44
174	0xf6	-10
175	0xf8	-8
176	0x3d	61
177	0xf2	-14
178	0x33	51
179	0xf3	-13
180	0x02	2
181	0xc0	-64
182	0xc1	-63
183	0xd3	-45
184	0xc5	-59
185	0x51	81
186	0xe0	-32
187	0xeb	-21
188	0x2c	44
189	0x40	64
190	0xcb	-53
191	0x11	17
192	0xfa	-6
193	0x14	20
194	0x2e	46
195	0xc9	-55
196	0xf9	-7
197	0xf2	-14
198	0xd2	-46
199	0xc5	-59
200	0x2b	43
201	0x2a	42
202	0xd3	-45
203	0xb8	-72
204	0x23	35
205	0xe7	-25
206	0xe4	-28
207	0xed	-19
208	0x28	40
209	0x08	8
210	0x08	8
211	0xdb	-37
212	0xe6	-26
213	0xbe	-66
214	0x81	-127
215	0xb3	-77
216	0x09	9
217	0x2a	42
218	0xe4	-28
219	0x0e	14
220	0xf2	-14
221	0x0f	15
222	0xa8	-88
223	0xae	-82
224	0x41	65
225	0x34	52
226	0x52	82
227	0xf3	-13
228	0x02	2
229	0xc6	-58
230	0xb3	-77
231	0xdc	-36
232	0xe0	-32
233	0x3a	58
234	0xf7	-9
235	0xc9	-55
236	0x1a	26
237	0xfe	-2
238	0xf4	-12
239	0xca	-54
240	0x24	36
241	0xee	-18
242	0x0e	14
243	0xd7	-41
244	0x0c	12
245	0x01	1
246	0xc1	-63
247	0x95	-107
248	0x0a	10
249	0x1f	31
250	0xdb	-37
251	0xe9	-23
252	0xdc	-36
253	0xe5	-27
254	0xde	-34
255	0xdd	-35

model/conv2d_10/Conv2D i1 [32, 1, 1, 16]
0	0xec	-20
1	0x2e	46
2	0xcf	-49
3	0x24	36
4	0x7f	127
5	0xf5	-11
6	0xf3	-13
7	0x33	51
8	0x1a	26
9	0x34	52
10	0xaa	-86
11	0xa9	-87
12	0x7a	122
13	0x0d	13
14	0xf3	-13
15	0x3b	59
16	0x23	35
17	0xf8	-8
18	0x56	86
19	0xef	-17
20	0x0b	11
21	0xf2	-14
22	0xa8	-88
23	0x25	37
24	0x2a	42
25	0xc1	-63
26	0xe5	-27
27	0x81	-127
28	0x1f	31
29	0x15	21
30	0x0f	15
31	0x5b	91
32	0x3a	58
33	0x00	0
34	0xa3	-93
35	0x0b	11
36	0xed	-19
37	0x26	38
38	0x37	55
39	0x7f	127
40	0xfd	-3
41	0x71	113
42	0x21	33
43	0x6a	106
44	0xee	-18
45	0x2a	42
46	0x26	38
47	0xde	-34
48	0x55	85
49	0xe2	-30
50	0x4c	76
51	0xf6	-10
52	0xc5	-59
53	0xfe	-2
54	0x45	69
55	0x81	-127
56	0x49	73
57	0xbe	-66
58	0x19	25
59	0xa2	-94
60	0x0d	13
61	0x43	67
62	0x39	57
63	0x28	40
64	0x7f	127
65	0x0b	11
66	0xee	-18
67	0xfd	-3
68	0xeb	-21
69	0x0b	11
70	0xbe	-66
71	0x1b	27
72	0x02	2
73	0x36	54
74	0xfe	-2
75	0x92	-110
76	0xe6	-26
77	0xdc	-36
78	0xda	-38
79	0x82	-126
80	0x81	-127
81	0x24	36
82	0xf7	-9
83	0x36	54
84	0x65	101
85	0x0e	14
86	0x5b	91
87	0x08	8
88	0x2f	47
89	0x31	49
90	0xc0	-64
91	0x21	33
92	0x5d	93
93	0xf8	-8
94	0x1f	31
95	0x4b	75
96	0x7f	127
97	0xf7	-9
98	0x24	36
99	0x19	25
100	0xdc	-36
101	0x1b	27
102	0x23	35
103	0x0e	14
104	0x1b	27
105	0x02	2
106	0x33	51
107	0x23	35
108	0x14	20
109	0xdf	-33
110	0xf7	-9
111	0x50	80
112	0x6e	110
113	0x03	3
114	0x53	83
115	0x7f	127
116	0xfb	-5
117	0x1a	26
118	0x36	54
119	0x08	8
120	0x09	9
121	0x50	80
122	0xcc	-52
123	0x1f	31
124	0x30	48
125	0x06	6
126	0x0d	13
127	0xf1	-15
128	0x81	-127
129	0x27	39
130	0xcb	-53
131	0x36	54
132	0x19	25
133	0x30	48
134	0x16	22
135	0x5a	90
136	0x0e	14
137	0xeb	-21
138	0x30	48
139	0xff	-1
140	0x36	54
141	0xdf	-33
142	0x2f	47
143	0x6c	108
144	0xd3	-45
145	0xb8	-72
146	0x9f	-97
147	0xd2	-46
148	0xbf	-65
149	0x2f	47
150	0xf4	-12
151	0xc1	-63
152	0x05	5
153	0xa5	-91
154	0xe8	-24
155	0x7f	127
156	0xbd	-67
157	0xd9	-39
158	0xfa	-6
159	0x4a	74
160	0xf1	-15
161	0x43	67
162	0xd3	-45
163	0xfc	-4
164	0x7f	127
165	0xf1	-15
166	0xc3	-61
167	0x35	53
168	0x10	16
169	0x48	72
170	0xf6	-10
171	0x07	7
172	0x1b	27
173	0xee	-18
174	0xb5	-75
175	0xb7	-73
176	0xc4	-60
177	0x0d	13
178	0xc6	-58
179	0x6d	109
180	0xbc	-68
181	0x00	0
182	0xe5	-27
183	0xfa	-6
184	0x10	16
185	0xd1	-47
186	0x33	51
187	0x25	37
188	0x17	23
189	0xb5	-75
190	0x0b	11
191	0x7f	127
192	0xd2	-46
193	0x0d	13
194	0x1c	28
195	0x52	82
196	0xf5	-11
197	0x4c	76
198	0x38	56
199	0xe8	-24
200	0x71	113
201	0x8a	-118
202	0x81	-127
203	0xd9	-39
204	0xf8	-8
205	0x9d	-99
206	0xd4	-44
207	0x3b	59
208	0x58	88
209	0xcb	-53
210	0xfc	-4
211	0xba	-70
212	0x53	83
213	0x23	35
214	0xfb	-5
215	0x7f	127
216	0xf0	-16
217	0x2f	47
218	0xb9	-71
219	0x68	104
220	0x20	32
221	0xb7	-73
222	0xd2	-46
223	0x8a	-118
224	0xfd	-3
225	0xee	-18
226	0x65	101
227	0x3b	59
228	0xcd	-51
229	0x15	21
230	0x13	19
231	0x64	100
232	0xe8	-24
233	0x47	71
234	0x7f	127
235	0x49	73
236	0x55	85
237	0x1e	30
238	0xfd	-3
239	0xf5	-11
240	0xd1	-47
241	0xea	-22
242	0x59	89
243	0xcc	-52
244	0x19	25
245	0x1f	31
246	0x38	56
247	0xa7	-89
248	0xe9	-23
249	0x7f	127
250	0xa6	-90
251	0xc9	-55
252	0xae	-82
253	0x15	21
254	0xef	-17
255	0x25	37

model/batch_normalization_7/FusedBatchNormV3;model/conv2d_8/BiasAdd/ReadVariableOp;model/conv2d_8/BiasAdd;model/conv2d_8/Conv2D/ReadVariableOp;model/conv2d_8/Conv2D i1 [32, 3, 3, 16]
0	0xe6	-26
1	0xc0	-64
2	0x1e	30
3	0x1e	30
4	0x00	0
5	0xe6	-26
6	0xff	-1
7	0xfe	-2
8	0x40	64
9	0x00	0
10	0xe6	-26
11	0x1f	31
12	0xf9	-7
13	0x00	0
14	0xf1	-15
15	0x45	69
16	0xed	-19
17	0x49	73
18	0xda	-38
19	0x1a	26
20	0x1b	27
21	0x9a	-102
22	0x1b	27
23	0x50	80
24	0x4c	76
25	0x43	67
26	0xdb	-37
27	0x35	53
28	0xe9	-23
29	0x4f	79
30	0x3a	58
31	0x47	71
32	0x0b	11
33	0x18	24
34	0xeb	-21
35	0x15	21
36	0x05	5
37	0xe6	-26
38	0x2b	43
39	0x01	1
40	0x2a	42
41	0x20	32
42	0xc5	-59
43	0xee	-18
44	0xf4	-12
45	0x15	21
46	0xf6	-10
47	0x36	54
48	0x01	1
49	0xeb	-21
50	0x09	9
51	0x1a	26
52	0x1f	31
53	0xc0	-64
54	0xf1	-15
55	0x35	53
56	0x22	34
57	0x2a	42
58	0xcd	-51
59	0x35	53
60	0xe6	-26
61	0x33	51
62	0xfc	-4
63	0x3a	58
64	0xf8	-8
65	0x4a	74
66	0xd4	-44
67	0xf1	-15
68	0x1b	27
69	0xbc	-68
70	0xf6	-10
71	0x5d	93
72	0xf0	-16
73	0x2f	47
74	0xd7	-41
75	0x11	17
76	0x07	7
77	0x3f	63
78	0x26	38
79	0x15	21
80	0x0a	10
81	0x49	73
82	0xce	-50
83	0xdb	-37
84	0xf4	-12
85	0x23	35
86	0x0c	12
87	0xee	-18
88	0xbe	-66
89	0xec	-20
90	0xd7	-41
91	0xe2	-30
92	0x0c	12
93	0xe5	-27
94	0xfe	-2
95	0xe8	-24
96	0x38	56
97	0x2d	45
98	0xfc	-4
99	0x0d	13
100	0x01	1
101	0xcc	-52
102	0x00	0
103	0x3e	62
104	0xc3	-61
105	0x0a	10
106	0xdc	-36
107	0x11	17
108	0x04	4
109	0xfd	-3
110	0xd8	-40
111	0x00	0
112	0x12	18
113	0x34	52
114	0xe5	-27
115	0xed	-19
116	0x14	20
117	0x0f	15
118	0x0a	10
119	0x20	32
120	0x81	-127
121	0x0f	15
122	0xf4	-12
123	0xe7	-25
124	0x29	41
125	0xed	-19
126	0xcd	-51
127	0xa8	-88
128	0x0e	14
129	0x00	0
130	0xec	-20
131	0x08	8
132	0xf2	-14
133	0x10	16
134	0x06	6
135	0xde	-34
136	0xcd	-51
137	0xd2	-46
138	0x02	2
139	0xfb	-5
140	0xfd	-3
141	0xd5	-43
142	0xd9	-39
143	0xb6	-74
144	0xd0	-48
145	0x1f	31
146	0x0d	13
147	0x40	64
148	0x13	19
149	0xff	-1
150	0xb9	-71
151	0xb3	-77
152	0x0c	12
153	0x29	41
154	0xba	-70
155	0x2d	45
156	0xc8	-56
157	0xe1	-31
158	0xf0	-16
159	0x01	1
160	0xf9	-7
161	0x47	71
162	0x24	36
163	0x12	18
164	0xe9	-23
165	0x06	6
166	0xcd	-51
167	0xbe	-66
168	0x10	16
169	0x44	68
170	0x94	-108
171	0x5f	95
172	0x8d	-115
173	0xde	-34
174	0x0b	11
175	0x44	68
176	0xeb	-21
177	0x14	20
178	0x55	85
179	0xca	-54
180	0xf1	-15
181	0x12	18
182	0xf2	-14
183	0xf2	-14
184	0xed	-19
185	0x52	82
186	0xda	-38
187	0x46	70
188	0xce	-50
189	0x0f	15
190	0x2b	43
191	0xeb	-21
192	0x0a	10
193	0x3c	60
194	0x00	0
195	0x68	104
196	0x14	20
197	0xff	-1
198	0xdf	-33
199	0xac	-84
200	0x0c	12
201	0x0f	15
202	0xca	-54
203	0x0a	10
204	0xca	-54
205	0xbb	-69
206	0xe7	-25
207	0x25	37
208	0x17	23
209	0x5c	92
210	0x2d	45
211	0x40	64
212	0x00	0
213	0x04	4
214	0xed	-19
215	0xb3	-77
216	0x1e	30
217	0x1d	29
218	0xa5	-91
219	0x5b	91
220	0x81	-127
221	0xd2	-46
222	0xf7	-9
223	0x51	81
224	0x13	19
225	0x29	41
226	0x3f	63
227	0xdf	-33
228	0xf9	-7
229	0x27	39
230	0x28	40
231	0xcd	-51
232	0x01	1
233	0x39	57
234	0xb8	-72
235	0x5a	90
236	0xc7	-57
237	0xd6	-42
238	0x1c	28
239	0x1f	31
240	0x06	6
241	0x15	21
242	0x0e	14
243	0x11	17
244	0x03	3
245	0xf2	-14
246	0xc7	-57
247	0x07	7
248	0xf3	-13
249	0x06	6
250	0x02	2
251	0x1a	26
252	0xcb	-53
253	0xda	-38
254	0xf5	-11
255	0x32	50

model/batch_normalization_8/FusedBatchNormV3;model/conv2d_9/BiasAdd/ReadVariableOp;model/conv2d_9/BiasAdd;model/conv2d_9/Conv2D/ReadVariableOp;model/conv2d_9/Conv2D i1 [32, 3, 3, 32]
0	0x5a	90
1	0xff	-1
2	0x00	0
3	0x2e	46
4	0xea	-22
5	0xdc	-36
6	0xfb	-5
7	0xe5	-27
8	0x29	41
9	0xcf	-49
10	0xf2	-14
11	0x08	8
12	0x1b	27
13	0xf3	-13
14	0xb5	-75
15	0x1b	27
16	0xfc	-4
17	0x0f	15
18	0x0d	13
19	0xe7	-25
20	0x07	7
21	0x17	23
22	0x35	53
23	0xf0	-16
24	0xf0	-16
25	0xfc	-4
26	0x13	19
27	0xef	-17
28	0xe1	-31
29	0xe6	-26
30	0x18	24
31	0x0d	13
32	0x3a	58
33	0x00	0
34	0x40	64
35	0x1f	31
36	0xd7	-41
37	0xdb	-37
38	0xe0	-32
39	0x24	36
40	0x04	4
41	0xdd	-35
42	0x31	49
43	0xf7	-9
44	0x1e	30
45	0xe8	-24
46	0xbc	-68
47	0x0d	13
48	0xeb	-21
49	0x0e	14
50	0x03	3
51	0xb7	-73
52	0x46	70
53	0x3b	59
54	0x02	2
55	0x18	24
56	0xdd	-35
57	0x27	39
58	0xf5	-11
59	0xef	-17
60	0xf5	-11
61	0x02	2
62	0x31	49
63	0xf6	-10
64	0x23	35
65	0xf1	-15
66	0xfd	-3
67	0x19	25
68	0xf1	-15
69	0x01	1
70	0xf3	-13
71	0x65	101
72	0xf4	-12
73	0xdf	-33
74	0x20	32
75	0xf0	-16
76	0x02	2
77	0xa0	-96
78	0xde	-34
79	0x1c	28
80	0xed	-19
81	0x20	32
82	0x15	21
83	0xe7	-25
84	0xfc	-4
85	0xf3	-13
86	0x11	17
87	0x2c	44
88	0xf2	-14
89	0x0e	14
90	0xfc	-4
91	0xfb	-5
92	0x2e	46
93	0x1f	31
94	0x44	68
95	0x07	7
96	0x33	51
97	0x13	19
98	0x06	6
99	0x0d	13
100	0x17	23
101	0xec	-20
102	0xef	-17
103	0xf5	-11
104	0x2c	44
105	0xf2	-14
106	0xef	-17
107	0x11	17
108	0xf6	-10
109	0xff	-1
110	0xc7	-57
111	0x0e	14
112	0x02	2
113	0xdf	-33
114	0x02	2
115	0xd7	-41
116	0x08	8
117	0x46	70
118	0xd9	-39
119	0xf2	-14
120	0xbd	-67
121	0x0c	12
122	0xe5	-27
123	0xde	-34
124	0x00	0
125	0xff	-1
126	0x1d	29
127	0xf2	-14
128	0x3e	62
129	0xea	-22
130	0x0d	13
131	0x26	38
132	0xf1	-15
133	0xf7	-9
134	0x07	7
135	0x21	33
136	0x21	33
137	0xf6	-10
138	0x18	24
139	0xe3	-29
140	0x01	1
141	0xce	-50
142	0xab	-85
143	0xf5	-11
144	0xb5	-75
145	0xdf	-33
146	0xdc	-36
147	0xb7	-73
148	0x00	0
149	0x40	64
150	0xcc	-52
151	0x04	4
152	0x81	-127
153	0xda	-38
154	0xd9	-39
155	0xf5	-11
156	0x1a	26
157	0x13	19
158	0x46	70
159	0xcd	-51
160	0x16	22
161	0x03	3
162	0xfa	-6
163	0x12	18
164	0xd1	-47
165	0xfb	-5
166	0x00	0
167	0x4a	74
168	0xe7	-25
169	0xec	-20
170	0x30	48
171	0x04	4
172	0x02	2
173	0xbf	-65
174	0xc7	-57
175	0x03	3
176	0xd7	-41
177	0x10	16
178	0xfc	-4
179	0xfa	-6
180	0xe3	-29
181	0x22	34
182	0xde	-34
183	0x27	39
184	0xa9	-87
185	0xcc	-52
186	0xff	-1
187	0x0e	14
188	0x3c	60
189	0x1f	31
190	0x4b	75
191	0xd5	-43
192	0x1d	29
193	0x2f	47
194	0xeb	-21
195	0x34	52
196	0x05	5
197	0x21	33
198	0x19	25
199	0xe7	-25
200	0xeb	-21
201	0x0b	11
202	0xef	-17
203	0x1a	26
204	0x01	1
205	0x42	66
206	0xbb	-69
207	0x04	4
208	0xef	-17
209	0xed	-19
210	0xe6	-26
211	0xec	-20
212	0xe9	-23
213	0x10	16
214	0xe3	-29
215	0xfa	-6
216	0x8b	-117
217	0x12	18
218	0x27	39
219	0x06	6
220	0xdf	-33
221	0x0c	12
222	0xfd	-3
223	0xdc	-36
224	0x1d	29
225	0x20	32
226	0xe8	-24
227	0x22	34
228	0xc4	-60
229	0x00	0
230	0xf8	-8
231	0xf7	-9
232	0xd0	-48
233	0x17	23
234	0x08	8
235	0x0d	13
236	0xfc	-4
237	0x09	9
238	0xc4	-60
239	0xe9	-23
240	0xde	-34
241	0xef	-17
242	0xe2	-30
243	0xe4	-28
244	0xd4	-44
245	0x34	52
246	0xd2	-46
247	0x20	32
248	0x88	-120
249	0xe3	-29
250	0x0e	14
251	0x00	0
252	0xb8	-72
253	0x25	37
254	0x1b	27
255	0xd7	-41

model/batch_normalization_9/FusedBatchNormV3;model/conv2d_11/BiasAdd/ReadVariableOp;model/conv2d_11/BiasAdd;model/conv2d_11/Conv2D/ReadVariableOp;model/conv2d_11/Conv2D i1 [32, 3, 3, 32]
0	0x0c	12
1	0xc9	-55
2	0xe6	-26
3	0xf9	-7
4	0xff	-1
5	0x05	5
6	0xec	-20
7	0x04	4
8	0x53	83
9	0x06	6
10	0xf3	-13
11	0x43	67
12	0x2b	43
13	0x1f	31
14	0x3b	59
15	0x0e	14
16	0xe6	-26
17	0xe8	-24
18	0xa7	-89
19	0xe4	-28
20	0x0d	13
21	0x00	0
22	0x10	16
23	0xe5	-27
24	0xe3	-29
25	0xdb	-37
26	0xfd	-3
27	0x11	17
28	0xa2	-94
29	0xf5	-11
30	0xed	-19
31	0x17	23
32	0x2d	45
33	0x0a	10
34	0xdf	-33
35	0x03	3
36	0xed	-19
37	0x3d	61
38	0xeb	-21
39	0xfe	-2
40	0x15	21
41	0x24	36
42	0x10	16
43	0x59	89
44	0x0e	14
45	0xf5	-11
46	0x16	22
47	0x04	4
48	0x05	5
49	0xfa	-6
50	0xcc	-52
51	0x19	25
52	0x17	23
53	0xf8	-8
54	0x01	1
55	0x02	2
56	0xc8	-56
57	0xff	-1
58	0xf7	-9
59	0x0a	10
60	0xf9	-7
61	0xd3	-45
62	0xe2	-30
63	0x02	2
64	0x23	35
65	0x33	51
66	0xfb	-5
67	0xf1	-15
68	0xfb	-5
69	0x15	21
70	0x2a	42
71	0x11	17
72	0xe8	-24
73	0x13	19
74	0x08	8
75	0xfe	-2
76	0x0a	10
77	0x12	18
78	0xe2	-30
79	0xe5	-27
80	0x17	23
81	0xf7	-9
82	0xf8	-8
83	0x11	17
84	0x01	1
85	0x0c	12
86	0x0c	12
87	0xfe	-2
88	0x2b	43
89	0x2c	44
90	0x05	5
91	0x1a	26
92	0x2f	47
93	0xf3	-13
94	0xbf	-65
95	0xa4	-92
96	0x22	34
97	0xdb	-37
98	0xdc	-36
99	0xf4	-12
100	0x0d	13
101	0x25	37
102	0xa9	-87
103	0x00	0
104	0x36	54
105	0xf2	-14
106	0x22	34
107	0x2b	43
108	0x20	32
109	0xfd	-3
110	0xfa	-6
111	0x03	3
112	0xf8	-8
113	0xf9	-7
114	0x8a	-118
115	0x32	50
116	0x21	33
117	0xfc	-4
118	0x2c	44
119	0x0e	14
120	0x9f	-97
121	0xfb	-5
122	0x14	20
123	0x00	0
124	0xd8	-40
125	0xe6	-26
126	0x34	52
127	0xf9	-7
128	0x13	19
129	0x05	5
130	0xf7	-9
131	0xec	-20
132	0xdd	-35
133	0x12	18
134	0xef	-17
135	0xfc	-4
136	0x13	19
137	0xff	-1
138	0x11	17
139	0x1f	31
140	0x02	2
141	0xe3	-29
142	0xd7	-41
143	0xfa	-6
144	0x1d	29
145	0xff	-1
146	0xec	-20
147	0x10	16
148	0xee	-18
149	0xfd	-3
150	0x08	8
151	0x08	8
152	0x21	33
153	0x12	18
154	0xdc	-36
155	0xf3	-13
156	0xe1	-31
157	0x13	19
158	0xe1	-31
159	0xdd	-35
160	0xed	-19
161	0x04	4
162	0x2f	47
163	0xe1	-31
164	0xf5	-11
165	0xd4	-44
166	0x2d	45
167	0x17	23
168	0xc5	-59
169	0xfc	-4
170	0xdd	-35
171	0xe0	-32
172	0xfe	-2
173	0x26	38
174	0xee	-18
175	0x18	24
176	0x06	6
177	0xd4	-44
178	0x4b	75
179	0xee	-18
180	0xf3	-13
181	0x0b	11
182	0x00	0
183	0x11	17
184	0x7f	127
185	0xfc	-4
186	0xd7	-41
187	0xd2	-46
188	0x2c	44
189	0x2d	45
190	0x9f	-97
191	0xda	-38
192	0x2c	44
193	0xf9	-7
194	0xf9	-7
195	0xef	-17
196	0x00	0
197	0x0c	12
198	0xbd	-67
199	0xf7	-9
200	0x16	22
201	0x00	0
202	0x39	57
203	0x17	23
204	0x0d	13
205	0x14	20
206	0xe6	-26
207	0x01	1
208	0x0f	15
209	0xe4	-28
210	0xdd	-35
211	0x27	39
212	0x02	2
213	0x06	6
214	0x2a	42
215	0x21	33
216	0xbc	-68
217	0x13	19
218	0x01	1
219	0xef	-17
220	0xeb	-21
221	0xf9	-7
222	0xea	-22
223	0xda	-38
224	0xf1	-15
225	0x07	7
226	0x1a	26
227	0xe3	-29
228	0xf7	-9
229	0xce	-50
230	0x02	2
231	0x18	24
232	0x05	5
233	0x0c	12
234	0xfa	-6
235	0xc8	-56
236	0xff	-1
237	0xf0	-16
238	0x1c	28
239	0x06	6
240	0xf6	-10
241	0xe1	-31
242	0x00	0
243	0xf6	-10
244	0xd9	-39
245	0xfc	-4
246	0x03	3
247	0x0b	11
248	0xee	-18
249	0x0d	13
250	0xe7	-25
251	0xdd	-35
252	0xde	-34
253	0x23	35
254	0xe7	-25
255	0xe9	-23

model/batch_normalization_10/FusedBatchNormV3;model/conv2d_12/BiasAdd/ReadVariableOp;model/conv2d_12/BiasAdd;model/conv2d_12/Conv2D/ReadVariableOp;model/conv2d_12/Conv2D i1 [32, 3, 3, 32]
0	0xde	-34
1	0xfa	-6
2	0xdb	-37
3	0xe6	-26
4	0xf6	-10
5	0x19	25
6	0xf0	-16
7	0xea	-22
8	0x30	48
9	0xf9	-7
10	0x1f	31
11	0xd4	-44
12	0xe1	-31
13	0xe1	-31
14	0xec	-20
15	0x3d	61
16	0xf9	-7
17	0x0d	13
18	0x12	18
19	0xf8	-8
20	0x0d	13
21	0xc1	-63
22	0xe5	-27
23	0xcd	-51
24	0x27	39
25	0x29	41
26	0xe8	-24
27	0x10	16
28	0x02	2
29	0x07	7
30	0xa6	-90
31	0x07	7
32	0xc0	-64
33	0xe8	-24
34	0x0f	15
35	0xf5	-11
36	0x11	17
37	0x26	38
38	0xf8	-8
39	0xf8	-8
40	0x1f	31
41	0xd0	-48
42	0x0f	15
43	0x1e	30
44	0xb6	-74
45	0x1a	26
46	0x0d	13
47	0x6d	109
48	0x16	22
49	0x07	7
50	0x37	55
51	0xe8	-24
52	0x20	32
53	0xa6	-90
54	0xf9	-7
55	0xd3	-45
56	0x3a	58
57	0xfe	-2
58	0x23	35
59	0xe5	-27
60	0xdc	-36
61	0x12	18
62	0x9a	-102
63	0xfa	-6
64	0x81	-127
65	0x05	5
66	0x1a	26
67	0xe3	-29
68	0x03	3
69	0x32	50
70	0xf8	-8
71	0x25	37
72	0xf2	-14
73	0xc3	-61
74	0xea	-22
75	0x72	114
76	0xc3	-61
77	0x27	39
78	0x1e	30
79	0x48	72
80	0xed	-19
81	0x0c	12
82	0x2c	44
83	0xd2	-46
84	0x12	18
85	0xfd	-3
86	0xef	-17
87	0xf8	-8
88	0x2b	43
89	0xf7	-9
90	0x30	48
91	0xc5	-59
92	0xf6	-10
93	0x44	68
94	0xa6	-90
95	0xbb	-69
96	0x31	49
97	0x29	41
98	0xcc	-52
99	0xe8	-24
100	0xe2	-30
101	0xec	-20
102	0xe1	-31
103	0xc6	-58
104	0x0d	13
105	0x0f	15
106	0x42	66
107	0xc8	-56
108	0xd0	-48
109	0xf9	-7
110	0xb8	-72
111	0xff	-1
112	0x38	56
113	0xf8	-8
114	0xdb	-37
115	0xfa	-6
116	0x19	25
117	0xcd	-51
118	0xf9	-7
119	0x11	17
120	0x48	72
121	0x18	24
122	0x09	9
123	0x00	0
124	0x06	6
125	0xff	-1
126	0xfc	-4
127	0x5f	95
128	0xbe	-66
129	0xfb	-5
130	0xf4	-12
131	0xeb	-21
132	0x02	2
133	0xe2	-30
134	0xc9	-55
135	0xdd	-35
136	0xfb	-5
137	0xe0	-32
138	0x08	8
139	0x1c	28
140	0xbb	-69
141	0x0a	10
142	0x16	22
143	0xe5	-27
144	0x4d	77
145	0xd1	-47
146	0xf9	-7
147	0xed	-19
148	0x06	6
149	0xd1	-47
150	0xd1	-47
151	0x11	17
152	0x29	41
153	0xec	-20
154	0x35	53
155	0xda	-38
156	0xf5	-11
157	0x14	20
158	0xfb	-5
159	0x1c	28
160	0xd6	-42
161	0x23	35
162	0xfb	-5
163	0xd9	-39
164	0x0a	10
165	0xf9	-7
166	0xce	-50
167	0xf8	-8
168	0xca	-54
169	0xc3	-61
170	0xd9	-39
171	0x5c	92
172	0xd1	-47
173	0x20	32
174	0x37	55
175	0xc6	-58
176	0x1a	26
177	0xe5	-27
178	0xf7	-9
179	0xd9	-39
180	0x29	41
181	0x17	23
182	0xcd	-51
183	0xfe	-2
184	0x0d	13
185	0xe7	-25
186	0x2d	45
187	0xdf	-33
188	0x0d	13
189	0x18	24
190	0xf7	-9
191	0xf0	-16
192	0x52	82
193	0xeb	-21
194	0xf4	-12
195	0x0e	14
196	0xdc	-36
197	0xf4	-12
198	0x00	0
199	0xb0	-80
200	0xd3	-45
201	0x06	6
202	0x1f	31
203	0xb5	-75
204	0xbd	-67
205	0x00	0
206	0x8a	-118
207	0x17	23
208	0x22	34
209	0x03	3
210	0x00	0
211	0xef	-17
212	0xe7	-25
213	0xfe	-2
214	0xef	-17
215	0x2f	47
216	0x3c	60
217	0x03	3
218	0xf3	-13
219	0xf9	-7
220	0x06	6
221	0x0f	15
222	0xff	-1
223	0x31	49
224	0x11	17
225	0xc4	-60
226	0xc1	-63
227	0xf7	-9
228	0xec	-20
229	0xf0	-16
230	0xed	-19
231	0xd1	-47
232	0xd0	-48
233	0xf8	-8
234	0xda	-38
235	0xd8	-40
236	0xe3	-29
237	0xf1	-15
238	0x06	6
239	0xe9	-23
240	0x12	18
241	0xf3	-13
242	0x0c	12
243	0xf1	-15
244	0xe3	-29
245	0xfd	-3
246	0xdc	-36
247	0x16	22
248	0xf0	-16
249	0xe5	-27
250	0x0f	15
251	0xe8	-24
252	0xf9	-7
253	0xff	-1
254	0xc9	-55
255	0x0a	10

model/batch_normalization_11/FusedBatchNormV3;model/conv2d_13/BiasAdd/ReadVariableOp;model/conv2d_13/BiasAdd;model/conv2d_13/Conv2D/ReadVariableOp;model/conv2d_13/Conv2D i1 [32, 3, 3, 32]
0	0xcf	-49
1	0xd1	-47
2	0xfd	-3
3	0x27	39
4	0x09	9
5	0x08	8
6	0xe1	-31
7	0x38	56
8	0x03	3
9	0xde	-34
10	0x3c	60
11	0xf9	-7
12	0xf3	-13
13	0xfb	-5
14	0x7f	127
15	0xda	-38
16	0x30	48
17	0xeb	-21
18	0x2e	46
19	0xe0	-32
20	0x02	2
21	0x05	5
22	0xe1	-31
23	0xeb	-21
24	0x59	89
25	0x27	39
26	0xe3	-29
27	0x1b	27
28	0xf5	-11
29	0xfc	-4
30	0xe8	-24
31	0x0e	14
32	0x4b	75
33	0x01	1
34	0x03	3
35	0xe6	-26
36	0x24	36
37	0x14	20
38	0xb1	-79
39	0x03	3
40	0x37	55
41	0xe2	-30
42	0x36	54
43	0x23	35
44	0xdf	-33
45	0x35	53
46	0x33	51
47	0x14	20
48	0x04	4
49	0x10	16
50	0xc4	-60
51	0xee	-18
52	0xdf	-33
53	0x14	20
54	0xed	-19
55	0xe3	-29
56	0x01	1
57	0x1f	31
58	0xe1	-31
59	0xfd	-3
60	0xbc	-68
61	0x04	4
62	0xd5	-43
63	0xd2	-46
64	0x2a	42
65	0x2b	43
66	0xec	-20
67	0x27	39
68	0xdc	-36
69	0x13	19
70	0x2e	46
71	0xe3	-29
72	0xd2	-46
73	0x07	7
74	0x14	20
75	0x09	9
76	0x1d	29
77	0xf0	-16
78	0xfd	-3
79	0x12	18
80	0xf6	-10
81	0x13	19
82	0xfd	-3
83	0x14	20
84	0x10	16
85	0xf8	-8
86	0xe6	-26
87	0x03	3
88	0xc7	-57
89	0xef	-17
90	0x04	4
91	0x1b	27
92	0x08	8
93	0x15	21
94	0xbe	-66
95	0x16	22
96	0x0b	11
97	0xdb	-37
98	0xfe	-2
99	0x12	18
100	0x1c	28
101	0xfa	-6
102	0xee	-18
103	0x02	2
104	0x17	23
105	0xfa	-6
106	0xec	-20
107	0xfb	-5
108	0xe2	-30
109	0xee	-18
110	0x30	48
111	0x0f	15
112	0xfd	-3
113	0xf4	-12
114	0x0e	14
115	0x02	2
116	0x10	16
117	0x05	5
118	0x0a	10
119	0x02	2
120	0xc8	-56
121	0x1c	28
122	0x23	35
123	0xd0	-48
124	0xdb	-37
125	0xdd	-35
126	0x3e	62
127	0xf4	-12
128	0x78	120
129	0xe1	-31
130	0xf4	-12
131	0xe4	-28
132	0x0c	12
133	0x15	21
134	0xf6	-10
135	0xd0	-48
136	0xfa	-6
137	0xfd	-3
138	0x16	22
139	0x15	21
140	0xd3	-45
141	0x1b	27
142	0xf3	-13
143	0x16	22
144	0xdb	-37
145	0x0b	11
146	0xca	-54
147	0x04	4
148	0xee	-18
149	0x09	9
150	0xbe	-66
151	0xf1	-15
152	0x96	-106
153	0xf8	-8
154	0x36	54
155	0xb1	-79
156	0xfb	-5
157	0x0f	15
158	0x14	20
159	0xda	-38
160	0x21	33
161	0x25	37
162	0xc1	-63
163	0x46	70
164	0xe0	-32
165	0x0c	12
166	0x61	97
167	0xf9	-7
168	0xe9	-23
169	0x09	9
170	0x2b	43
171	0x05	5
172	0xe2	-30
173	0xe2	-30
174	0xe5	-27
175	0x17	23
176	0xec	-20
177	0x33	51
178	0x07	7
179	0x26	38
180	0x0f	15
181	0x16	22
182	0xdc	-36
183	0xf6	-10
184	0xa8	-88
185	0xdb	-37
186	0x33	51
187	0x00	0
188	0x0d	13
189	0x0e	14
190	0xe2	-30
191	0x08	8
192	0x0c	12
193	0x2e	46
194	0x0a	10
195	0x07	7
196	0x30	48
197	0xe8	-24
198	0xf2	-14
199	0x2e	46
200	0xeb	-21
201	0xf4	-12
202	0xe9	-23
203	0xee	-18
204	0xf3	-13
205	0xf5	-11
206	0xe3	-29
207	0x2d	45
208	0xe5	-27
209	0xba	-70
210	0x0d	13
211	0xb9	-71
212	0xff	-1
213	0xfc	-4
214	0xf2	-14
215	0xf3	-13
216	0x10	16
217	0x07	7
218	0xeb	-21
219	0xb2	-78
220	0x16	22
221	0x11	17
222	0x01	1
223	0xbb	-69
224	0xfa	-6
225	0x0e	14
226	0x21	33
227	0xe4	-28
228	0xf9	-7
229	0xde	-34
230	0x1a	26
231	0x0b	11
232	0xbc	-68
233	0x0a	10
234	0x23	35
235	0xdc	-36
236	0xdb	-37
237	0xf2	-14
238	0xd0	-48
239	0xf5	-11
240	0xd6	-42
241	0xea	-22
242	0x29	41
243	0xb4	-76
244	0xed	-19
245	0xfb	-5
246	0xd2	-46
247	0xf4	-12
248	0x16	22
249	0xd2	-46
250	0xda	-38
251	0xeb	-21
252	0x35	53
253	0x13	19
254	0xe0	-32
255	0xe7	-25

model/batch_normalization_12/FusedBatchNormV3;model/conv2d_14/BiasAdd/ReadVariableOp;model/conv2d_14/BiasAdd;model/conv2d_14/Conv2D/ReadVariableOp;model/conv2d_14/Conv2D1 i1 [32, 3, 3, 32]
0	0x33	51
1	0x09	9
2	0x1f	31
3	0x0b	11
4	0xf8	-8
5	0xe9	-23
6	0x60	96
7	0xe4	-28
8	0x10	16
9	0x00	0
10	0x01	1
11	0xe9	-23
12	0xe0	-32
13	0xf8	-8
14	0xec	-20
15	0x4d	77
16	0x36	54
17	0x3b	59
18	0x3f	63
19	0xfb	-5
20	0xe7	-25
21	0x1e	30
22	0xd7	-41
23	0x1e	30
24	0xe9	-23
25	0x20	32
26	0x3c	60
27	0xf7	-9
28	0x05	5
29	0xe2	-30
30	0x5b	91
31	0x25	37
32	0x5c	92
33	0x09	9
34	0xdc	-36
35	0x38	56
36	0x19	25
37	0xfa	-6
38	0x64	100
39	0xb9	-71
40	0x71	113
41	0x00	0
42	0x0f	15
43	0xe5	-27
44	0xe2	-30
45	0xb9	-71
46	0xcf	-49
47	0x57	87
48	0xf9	-7
49	0x21	33
50	0x2d	45
51	0xd1	-47
52	0x10	16
53	0xf8	-8
54	0xe0	-32
55	0xe0	-32
56	0xd9	-39
57	0x19	25
58	0x39	57
59	0xf9	-7
60	0xe5	-27
61	0xec	-20
62	0xfd	-3
63	0x1a	26
64	0x69	105
65	0x14	20
66	0x0f	15
67	0x32	50
68	0x32	50
69	0x31	49
70	0x41	65
71	0xce	-50
72	0x39	57
73	0x00	0
74	0x10	16
75	0x02	2
76	0xdf	-33
77	0x02	2
78	0xe3	-29
79	0x1b	27
80	0x06	6
81	0xd0	-48
82	0x05	5
83	0xe8	-24
84	0xfc	-4
85	0x03	3
86	0xd8	-40
87	0xc2	-62
88	0xc8	-56
89	0xc7	-57
90	0x17	23
91	0xff	-1
92	0xd7	-41
93	0xec	-20
94	0xe1	-31
95	0x09	9
96	0x0c	12
97	0xe9	-23
98	0x1c	28
99	0x22	34
100	0x19	25
101	0xaf	-81
102	0x42	66
103	0xc9	-55
104	0x1e	30
105	0x00	0
106	0x1d	29
107	0xec	-20
108	0xcc	-52
109	0x0c	12
110	0xf2	-14
111	0x62	98
112	0x0e	14
113	0x1f	31
114	0xf9	-7
115	0xff	-1
116	0xf6	-10
117	0xf2	-14
118	0xe8	-24
119	0x10	16
120	0xe7	-25
121	0x3f	63
122	0x14	20
123	0xb6	-74
124	0xf4	-12
125	0xef	-17
126	0x16	22
127	0x47	71
128	0x2c	44
129	0xee	-18
130	0x02	2
131	0x10	16
132	0x26	38
133	0xc8	-56
134	0x38	56
135	0x9b	-101
136	0x2a	42
137	0x00	0
138	0x19	25
139	0xe6	-26
140	0xd2	-46
141	0xae	-82
142	0xe6	-26
143	0x7f	127
144	0xe5	-27
145	0xe9	-23
146	0xef	-17
147	0xe5	-27
148	0x0a	10
149	0xeb	-21
150	0xeb	-21
151	0xd9	-39
152	0xda	-38
153	0x03	3
154	0x1b	27
155	0xbe	-66
156	0xe1	-31
157	0xfb	-5
158	0xe7	-25
159	0x14	20
160	0x4b	75
161	0x0c	12
162	0x11	17
163	0x34	52
164	0x20	32
165	0x14	20
166	0x54	84
167	0xc3	-61
168	0x01	1
169	0x00	0
170	0x1f	31
171	0x06	6
172	0xdc	-36
173	0x08	8
174	0xfb	-5
175	0x18	24
176	0xf9	-7
177	0xe7	-25
178	0xe6	-26
179	0xee	-18
180	0xe7	-25
181	0xca	-54
182	0xe1	-31
183	0xec	-20
184	0xe4	-28
185	0xa2	-94
186	0x1f	31
187	0xe3	-29
188	0xde	-34
189	0xf4	-12
190	0x11	17
191	0x05	5
192	0x02	2
193	0x06	6
194	0xc5	-59
195	0x22	34
196	0x0a	10
197	0xb9	-71
198	0x42	66
199	0xe1	-31
200	0x34	52
201	0x00	0
202	0x2e	46
203	0xf4	-12
204	0xd6	-42
205	0x00	0
206	0x00	0
207	0x17	23
208	0xe4	-28
209	0x10	16
210	0xd7	-41
211	0xe6	-26
212	0x11	17
213	0x07	7
214	0xee	-18
215	0x06	6
216	0xe8	-24
217	0x31	49
218	0x29	41
219	0xa6	-90
220	0xf6	-10
221	0xd1	-47
222	0xd2	-46
223	0x2f	47
224	0x0e	14
225	0x0a	10
226	0xfa	-6
227	0xf2	-14
228	0x0e	14
229	0xc9	-55
230	0xfc	-4
231	0xc1	-63
232	0x4e	78
233	0x00	0
234	0x28	40
235	0xf6	-10
236	0xd0	-48
237	0xea	-22
238	0xed	-19
239	0x27	39
240	0xce	-50
241	0x0f	15
242	0xe1	-31
243	0xd0	-48
244	0x12	18
245	0xe8	-24
246	0xe9	-23
247	0xd8	-40
248	0xcc	-52
249	0xf0	-16
250	0x1c	28
251	0xc4	-60
252	0xde	-34
253	0xe8	-24
254	0xf2	-14
255	0x21	33
