TFLite-model/01bA_ResNet20_CIFAR-10_Q-full.tflite (tflite, 272304 bytes, 22 tensors)

model/dense/MatMul i1 [10, 60] scale=0.0032591117 zero_point=0
0.1368827 -0.16947381 0.15643737 -0.026072893 0.0065182233 0.16295558 -0.2248787 -0.032591116
0.071700454 -0.12710536 0.084736906 -0.17599203 -0.2542107 -0.032591116 0.27702448 -0.22161959
0.035850227 0.048886675 -0.27702448 -0.06192312 0.20858315 0.016295558 0.21510138 -0.01955467
0.37153873 -0.2542107 -0.29657915 -0.15317824 0.06192312 -0.33242938 0.3356885 -0.06844135
0.2248787 0.009777335 -0.110809796 0.09777335 0.0 -0.10103246 0.042368453 -0.13362359
-0.09777335 -0.10755069 -0.16621469 0.2737654 -0.03910934 0.33242938 -0.06844135 0.34872496
-0.18576936 0.22161959 0.029332004 0.21836048 -0.0065182233 0.094514236 0.0032591117 -0.045627564
-0.11732802 -0.0032591117 0.28680182 -0.13362359 0.03910934 -0.094514236 0.09777335 0.12384624
0.15317824 0.110809796 0.01955467 -0.071700454 0.22813782 0.21836048 -0.16621469 -0.37153873
0.071700454 0.06518223 0.071700454 0.1368827 -0.35198405 -0.110809796 -0.032591116 0.14991914
-0.07821868 -0.07821868 -0.12384624 0.20858315 -0.23465604 0.09777335 -0.22161959 -0.016295558
-0.06192312 0.1401418 -0.15317824 -0.01955467 -0.10755069 0.23465604 0.38131607 0.3617614
-0.17925113 0.39435253 -0.009777335 -0.15643737 0.11406891 0.09777335 0.029332004 -0.14340091
-0.009777335 -0.1922876 0.18576936 -0.084736906 -0.15969647 0.05866401 0.20532404 0.08147779
0.21184225 -0.06192312 -0.16947381 0.12058713 0.3682796 0.15643737 0.045627564 -0.07821868
0.18576936 -0.016295558 -0.026072893 0.052145787 -0.045627564 0.31287473 0.18902847 0.009777335
-0.18902847 -0.10429157 0.33242938 0.10103246 -0.21184225 0.01955467 0.01955467 -0.071700454
0.17273292 0.2542107 -0.12384624 0.15643737 -0.07821868 -0.3096156 0.14340091 -0.06518223
-0.0032591117 0.26724717 0.14340091 -0.1922876 -0.08147779 0.12384624 0.10429157 -0.029332004
-0.1955467 -0.03910934 0.17925113 -0.094514236 0.09777335 -0.21836048 -0.09125513 0.3063565
-0.12058713 -0.032591116 -0.035850227 -0.084736906 0.032591116 0.31939295 -0.24117427 0.23791516
-0.071700454 0.23139693 0.084736906 0.094514236 0.26072893 0.29332006 0.013036447 -0.33894762
0.17925113 -0.41390717 0.18902847 0.08799601 -0.16947381 0.24443337 -0.12384624 -0.12384624
0.09125513 -0.3650205 -0.094514236 0.1368827 0.17925113 0.3063565 -0.18902847 -0.2509516
-0.13362359 -0.013036447 -0.41064808 -0.23791516 -0.23139693 0.37479785 -0.029332004 -0.071700454
0.09777335 0.048886675 0.3063565 0.055404898 -0.24117427 -0.110809796 0.12058713 -0.05866401
-0.045627564 0.20532404 -0.03910934 0.20532404 0.24443337 -0.18251026 0.24769248 -0.34220672
-0.032591116 -0.12384624 -0.14991914 -0.009777335 0.13036446 0.08799601 0.016295558 0.14666003
-0.03910934 -0.1401418 0.1368827 0.026072893 0.035850227 0.26398805 -0.34872496 -0.13036446
-0.13036446 -0.14666003 0.07821868 -0.22813782 -0.045627564 -0.01955467 0.094514236 0.06192312
-0.12058713 0.11732802 -0.18251026 0.01955467 -0.07821868 -0.37479785 0.029332004 0.055404898
-0.15969647 0.052145787 0.042368453 -0.12384624 0.17599203 0.06192312 0.055404898 0.33242938
00000000: 2acc 30f8 0232 bbf6 16d9 1aca b2f6 55bc
00000010: 0b0f abed 4005 42fa 72b2 a5d1 139a 67eb
00000020: 4503 de1e 00e1 0dd7 e2df cd54 f466 eb6b
00000030: c744 0943 fe1d 01f2 dcff 58d7 0ce3 1e26
00000040: 2f22 06ea 4643 cd8e 1614 162a 94de f62e
00000050: e8e8 da40 b81e bcfb ed2b d1fa df48 756f
00000060: c979 fdd0 231e 09d4 fdc5 39e6 cf12 3f19
00000070: 41ed cc25 7130 0ee8 39fb f810 f260 3a03
00000080: c6e0 661f bf06 06ea 354e da30 e8a1 2cec
00000090: ff52 2cc5 e726 20f7 c4f4 37e3 1ebd e45e
000000a0: dbf6 f5e6 0a62 b649 ea47 1a1d 505a 0498
000000b0: 3781 3a1b cc4b dada 1c90 e32a 375e c6b3
000000c0: d7fc 82b7 b973 f7ea 1e0f 5e11 b6de 25ee
000000d0: f23f f43f 4bc8 4c97 f6da d2fd 281b 052d
000000e0: f4d5 2a08 0b51 95d8 d8d3 18ba f2fa 1d13
000000f0: db24 c806 e88d 0911 cf10 0dda 3613 1166

model/batch_normalization_3/FusedBatchNormV3;model/conv2d_3/Conv2D/ReadVariableOp;model/conv2d_3/Conv2D;model/batch_normalization_9/FusedBatchNormV3 i1 [15, 3, 3, 3]
62 55 -38 -9 63 -43 -10 49
127 -3 -26 76 -31 -28 1 95
-6 27 16 69 -35 -59 18 -24
5 -21 -48 -127 109 41 6 66
-83 -13 -125 87 76 15 -51 12
67 28 -78 -33 -98 28 -58 -42
18 30 120 53 35 25 -61 -57
-94 -113 -127 -25 35 -1 0 -17
-24 100 -117 6 -74 -108 -82 -57
35 42 -68 -74 68 18 65 -22
-114 -5 29 43 108 -88 -50 104
60 -78 1 127 42 11 -111 -26
6 -32 -123 -14 54 100 -14 23
121 30 -37 -3 35 79 63 25
6 -72 38 60 -7 122 80 -16
32 16 4 -11 -28 -117 34 -39
-49 21 48 80 -6 127 42 33
-18 3 -51 -11 46 26 -68 -22
86 -77 2 -127 -78 -22 91 70
1 -39 -19 29 -24 -38 6 -37
22 -17 30 -74 -2 11 -43 125
6 -66 -123 -51 58 -24 -111 -3
24 -10 5 30 26 74 -127 -64
60 -80 41 -24 -34 -101 83 20
-43 66 58 -38 16 -48 -78 53
51 127 13 -22 11 -6 11 112
39 -80 24 31 29 40 -13 4
88 32 -73 -22 -3 38 36 55
63 26 -63 31 57 39 4 -19
-15 27 10 119 -39 127 -79 106
-69 39 21 -72 25 86 -60 -36
93 17 -30 68 -106 -89 104 48
00000000: 3e37 daf7 3fd5 f631 7ffd e64c e1e4 015f
00000010: fa1b 1045 ddc5 12e8 05eb d081 6d29 0642
00000020: adf3 8357 4c0f cd0c 431c b2df 9e1c c6d6
00000030: 121e 7835 2319 c3c7 a28f 81e7 23ff 00ef
00000040: e864 8b06 b694 aec7 232a bcb6 4412 41ea
00000050: 8efb 1d2b 6ca8 ce68 3cb2 017f 2a0b 91e6
00000060: 06e0 85f2 3664 f217 791e dbfd 234f 3f19
00000070: 06b8 263c f97a 50f0 2010 04f5 e48b 22d9
00000080: cf15 3050 fa7f 2a21 ee03 cdf5 2e1a bcea
00000090: 56b3 0281 b2ea 5b46 01d9 ed1d e8da 06db
000000a0: 16ef 1eb6 fe0b d57d 06be 85cd 3ae8 91fd
000000b0: 18f6 051e 1a4a 81c0 3cb0 29e8 de9b 5314
000000c0: d542 3ada 10d0 b235 337f 0dea 0bfa 0b70
000000d0: 27b0 181f 1d28 f304 5820 b7ea fd26 2437
000000e0: 3f1a c11f 3927 04ed f11b 0a77 d97f b16a
000000f0: bb27 15b8 1956 c4dc 5d11 e244 96a7 6830

model/batch_normalization_4/FusedBatchNormV3;model/conv2d_4/Conv2D/ReadVariableOp;model/conv2d_4/Conv2D;model/batch_normalization_9/FusedBatchNormV3 i1 [15, 3, 3, 15]
59 1 39 -92 70 -27 -107 -44
-17 43 107 -34 -49 6 -51 56
0 -41 -113 50 83 22 -23 -43
-16 -17 -40 -22 44 -17 1 -60
42 -47 -69 -103 -18 3 -83 -17
77 -25 -80 37 35 27 77 33
77 -59 -23 -89 -21 14 -24 30
7 -75 26 -56 127 46 100 53
-106 50 -60 3 -17 47 9 -56
33 43 -46 83 -76 -67 -35 29
-23 -18 18 -43 -81 -124 -65 41
51 101 79 87 10 22 -40 -5
28 14 -100 -55 25 -58 2 26
-41 24 -21 -43 86 -23 34 -38
-61 -35 75 31 74 74 -45 76
-109 8 53 61 80 38 68 31
-83 63 93 -49 43 -63 -108 118
61 2 29 61 -10 -11 -43 32
-62 -52 -34 -59 19 53 -12 6
65 24 22 -20 -127 -100 36 16
43 -96 13 -91 -23 50 -6 -42
-38 -54 15 19 -49 27 100 -44
-17 45 18 -2 22 -96 21 28
22 -41 -77 -11 -58 -114 -110 11
56 -20 -124 -29 3 -23 68 -6
-122 -14 -10 -17 -57 -16 65 -56
-19 -55 94 -75 -77 6 -31 -27
-89 -45 -24 -23 -17 -28 121 5
29 -48 40 41 -51 39 -7 117
-66 40 -45 43 -2 26 -56 58
-10 9 49 -51 -47 -51 69 43
53 -57 39 43 -49 -22 -104 -97
00000000: 3b01 27a4 46e5 95d4 ef2b 6bde cf06 cd38
00000010: 00d7 8f32 5316 e9d5 f0ef d8ea 2cef 01c4
00000020: 2ad1 bb99 ee03 adef 4de7 b025 231b 4d21
00000030: 4dc5 e9a7 eb0e e81e 07b5 1ac8 7f2e 6435
00000040: 9632 c403 ef2f 09c8 212b d253 b4bd dd1d
00000050: e9ee 12d5 af84 bf29 3365 4f57 0a16 d8fb
00000060: 1c0e 9cc9 19c6 021a d718 ebd5 56e9 22da
00000070: c3dd 4b1f 4a4a d34c 9308 353d 5026 441f
00000080: ad3f 5dcf 2bc1 9476 3d02 1d3d f6f5 d520
00000090: c2cc dec5 1335 f406 4118 16ec 819c 2410
000000a0: 2ba0 0da5 e932 fad6 daca 0f13 cf1b 64d4
000000b0: ef2d 12fe 16a0 151c 16d7 b3f5 c68e 920b
000000c0: 38ec 84e3 03e9 44fa 86f2 f6ef c7f0 41c8
000000d0: edc9 5eb5 b306 e1e5 a7d3 e8e9 efe4 7905
000000e0: 1dd0 2829 cd27 f975 be28 d32b fe1a c83a
000000f0: f609 31cd d1cd 452b 35c7 272b cfea 989f

model/batch_normalization_5/FusedBatchNormV3;model/conv2d_5/Conv2D/ReadVariableOp;model/conv2d_5/Conv2D;model/batch_normalization_9/FusedBatchNormV3 i1 [15, 3, 3, 15]
-55 -56 46 -68 17 11 -89 49
14 -58 -8 75 -8 -28 -70 21
-18 -10 5 79 57 15 -13 83
-19 17 94 25 2 55 -89 56
46 93 -55 -92 101 23 -31 -89
-15 39 94 -81 -61 25 7 52
13 39 -12 -65 -14 -52 -27 14
-60 -31 43 -102 -44 34 55 -100
90 92 93 88 -34 7 47 32
23 -55 59 20 -48 -11 69 24
-15 -69 37 1 94 102 -70 -57
100 36 -16 -80 -36 -97 44 68
47 -10 45 7 -69 71 -4 22
20 -54 -3 93 -92 -7 14 19
-87 -22 -47 12 13 -78 -56 -57
58 -80 54 6 -68 32 -60 -80
43 -27 -127 -64 69 -38 38 -77
-54 38 64 81 -31 39 -57 85
-6 25 20 -4 -51 -38 -15 -21
-6 56 45 -25 73 27 68 37
-21 35 37 16 -89 15 -71 2
76 55 96 -9 23 -21 48 -63
-78 -31 29 12 -41 -51 -121 -25
42 59 -48 -28 -90 97 -67 -39
21 -17 -7 -85 61 39 -40 -41
66 22 -126 -16 -39 -15 -4 37
95 -17 -23 16 -25 87 -7 0
35 -127 -10 79 -73 -3 -49 118
8 58 101 54 13 -3 73 -92
46 -53 -63 36 91 13 38 33
-5 -12 -59 -59 -21 -24 -48 78
16 -122 30 1 35 3 66 -70
00000000: c9c8 2ebc 110b a731 0ec6 f84b f8e4 ba15
00000010: eef6 054f 390f f353 ed11 5e19 0237 a738
00000020: 2e5d c9a4 6517 e1a7 f127 5eaf c319 0734
00000030: 0d27 f4bf f2cc e50e c4e1 2b9a d422 379c
00000040: 5a5c 5d58 de07 2f20 17c9 3b14 d0f5 4518
00000050: f1bb 2501 5e66 bac7 6424 f0b0 dc9f 2c44
00000060: 2ff6 2d07 bb47 fc16 14ca fd5d a4f9 0e13
00000070: a9ea d10c 0db2 c8c7 3ab0 3606 bc20 c4b0
00000080: 2be5 81c0 45da 26b3 ca26 4051 e127 c755
00000090: fa19 14fc cdda f1eb fa38 2de7 491b 4425
000000a0: eb23 2510 a70f b902 4c37 60f7 17eb 30c1
000000b0: b2e1 1d0c d7cd 87e7 2a3b d0e4 a661 bdd9
000000c0: 15ef f9ab 3d27 d8d7 4216 82f0 d9f1 fc25
000000d0: 5fef e910 e757 f900 2381 f64f b7fd cf76
000000e0: 083a 6536 0dfd 49a4 2ecb c124 5b0d 2621
000000f0: fbf4 c5c5 ebe8 d04e 1086 1e01 2303 42ba

model/batch_normalization_6/FusedBatchNormV3;model/conv2d_6/Conv2D/ReadVariableOp;model/conv2d_6/Conv2D;model/batch_normalization_9/FusedBatchNormV3 i1 [15, 3, 3, 15]
56 -28 35 -58 -40 15 116 115
59 124 12 -100 77 -108 93 -24
-79 -18 -100 -19 61 -20 -34 43
-102 -64 12 -48 15 -29 110 76
-42 19 55 -23 13 49 17 -16
3 -39 37 -52 24 -51 74 -38
74 31 100 -71 18 28 117 102
-65 77 -26 51 65 17 -53 98
58 -127 4 32 -67 72 87 87
75 -14 64 -85 -41 -38 -91 67
117 38 22 -20 -25 -62 11 57
-31 -23 22 73 -18 -52 51 -34
-11 57 -54 -6 27 -27 -100 3
-57 -13 77 -70 98 -39 2 15
-15 15 74 46 28 -29 29 11
-55 -7 -51 -84 98 68 -4 87
-43 -25 74 97 72 64 60 6
68 -40 -75 -127 94 24 -81 -78
-106 19 -21 24 29 54 71 -59
48 53 101 -25 4 -14 48 75
-88 21 -4 57 30 -2 -58 -22
39 111 57 29 -6 35 -13 -16
7 -29 -23 -41 108 -89 46 -21
-17 -73 40 5 10 -31 70 -84
-70 0 -63 30 46 -69 -24 -20
11 -3 -28 -64 44 -43 -33 91
-38 -35 13 -69 -35 -40 -17 69
30 -19 37 -30 39 19 -68 -37
59 -66 -57 -76 -47 98 25 59
20 -2 28 -31 -76 13 -67 64
67 40 42 40 15 1 -42 -12
57 -125 95 125 111 -33 69 -42
00000000: 38e4 23c6 d80f 7473 3b7c 0c9c 4d94 5de8
00000010: b1ee 9ced 3dec de2b 9ac0 0cd0 0fe3 6e4c
00000020: d613 37e9 0d31 11f0 03d9 25cc 18cd 4ada
00000030: 4a1f 64b9 121c 7566 bf4d e633 4111 cb62
00000040: 3a81 0420 bd48 5757 4bf2 40ab d7da a543
00000050: 7526 16ec e7c2 0b39 e1e9 1649 eecc 33de
00000060: f539 cafa 1be5 9c03 c7f3 4dba 62d9 020f
00000070: f10f 4a2e 1ce3 1d0b c9f9 cdac 6244 fc57
00000080: d5e7 4a61 4840 3c06 44d8 b581 5e18 afb2
00000090: 9613 eb18 1d36 47c5 3035 65e7 04f2 304b
000000a0: a815 fc39 1efe c6ea 276f 391d fa23 f3f0
000000b0: 07e3 e9d7 6ca7 2eeb efb7 2805 0ae1 46ac
000000c0: ba00 c11e 2ebb e8ec 0bfd e4c0 2cd5 df5b
000000d0: dadd 0dbb ddd8 ef45 1eed 25e2 2713 bcdb
000000e0: 3bbe c7b4 d162 193b 14fe 1ce1 b40d bd40
000000f0: 4328 2a28 0f01 d6f4 3983 5f7d 6fdf 45d6

model/batch_normalization_7/FusedBatchNormV3;model/conv2d_7/Conv2D/ReadVariableOp;model/conv2d_7/Conv2D;model/batch_normalization_9/FusedBatchNormV3 i1 [15, 3, 3, 15]
30 -60 3 -47 -68 -41 -55 49
9 0 102 -3 -9 88 -71 -3
10 -38 28 -22 -42 -2 -56 -91
7 38 23 -74 -36 -49 30 3
12 30 -26 -127 -37 -83 -50 25
40 15 39 -4 59 26 65 9
-126 50 47 -11 -31 60 -82 3
43 -42 -44 -65 -14 45 -8 107
-6 -29 -31 102 71 -49 2 -117
82 75 28 12 -7 -6 -3 -17
3 11 35 107 22 55 -52 11
30 -1 -87 -39 -11 57 91 -74
18 41 55 -39 -54 21 -75 -28
-56 -4 34 37 19 52 -7 56
23 116 111 -93 53 93 94 -12
69 -35 -91 -78 -115 29 -29 -62
-49 -55 -77 -29 -12 1 29 11
-13 76 48 -93 -104 99 65 -38
59 25 24 4 -71 -46 10 5
-34 41 23 43 -104 110 96 -24
82 -103 2 -88 -52 -34 104 -75
-61 -74 -8 71 -99 -28 25 -57
1 67 -27 -14 -103 -42 -13 -91
44 36 -9 -11 7 16 -6 17
-59 17 114 53 96 -36 81 -8
-56 -27 -68 74 -50 100 -1 -127
54 -2 19 23 25 -70 43 99
-19 -16 108 18 -91 55 45 -19
103 16 81 -11 -60 93 -56 -55
-63 -97 -74 7 28 94 -111 11
-33 -19 -75 83 14 76 35 -43
81 67 76 63 20 -64 -2 109
00000000: 1ec4 03d1 bcd7 c931 0900 66fd f758 b9fd
00000010: 0ada 1cea d6fe c8a5 0726 17b6 dccf 1e03
00000020: 0c1e e681 dbad ce19 280f 27fc 3b1a 4109
00000030: 8232 2ff5 e13c ae03 2bd6 d4bf f22d f86b
00000040: fae3 e166 47cf 028b 524b 1c0c f9fa fdef
00000050: 030b 236b 1637 cc0b 1eff a9d9 f539 5bb6
00000060: 1229 37d9 ca15 b5e4 c8fc 2225 1334 f938
00000070: 1774 6fa3 355d 5ef4 45dd a5b2 8d1d e3c2
00000080: cfc9 b3e3 f401 1d0b f34c 30a3 9863 41da
00000090: 3b19 1804 b9d2 0a05 de29 172b 986e 60e8
000000a0: 5299 02a8 ccde 68b5 c3b6 f847 9de4 19c7
000000b0: 0143 e5f2 99d6 f3a5 2c24 f7f5 0710 fa11
000000c0: c511 7235 60dc 51f8 c8e5 bc4a ce64 ff81
000000d0: 36fe 1317 19ba 2b63 edf0 6c12 a537 2ded
000000e0: 6710 51f5 c45d c8c9 c19f b607 1c5e 910b
000000f0: dfed b553 0e4c 23d5 5143 4c3f 14c0 fe6d

model/batch_normalization_8/FusedBatchNormV3;model/conv2d_8/Conv2D/ReadVariableOp;model/conv2d_8/Conv2D;model/batch_normalization_9/FusedBatchNormV3 i1 [15, 3, 3, 15]
-4 27 -66 -111 48 64 17 34
4 -4 5 -85 -104 -11 22 -54
-17 -39 -13 11 64 -2 16 110
-81 97 21 74 -63 53 -50 67
-12 -13 -72 103 29 91 71 32
22 -29 -18 22 -44 30 -9 2
12 5 -72 20 -13 -48 18 58
-25 61 25 -34 9 -94 26 85
1 44 -89 -104 -48 -35 34 127
54 45 -1 -50 55 -126 0 30
56 -32 117 -49 -16 -16 75 -33
39 -62 -113 33 -35 52 43 30
-39 -47 -17 12 -17 -16 -36 62
-16 115 52 -47 49 25 53 52
35 -108 -10 -12 -31 -64 98 9
49 4 89 -36 -14 -109 -89 -88
25 -33 -45 -78 16 -83 -67 -2
-26 -92 -76 1 35 -22 2 71
57 -29 -56 -62 112 55 70 -12
-1 54 -15 -72 -14 -55 -68 -4
-82 81 15 -8 56 38 -16 14
-13 35 42 62 20 -10 -7 56
-18 -75 10 -72 7 -59 127 -22
-9 -88 -108 51 52 -48 0 7
-8 -37 -1 23 -21 81 44 -39
81 54 -38 94 -24 -37 -16 -30
-9 74 44 16 -109 30 -81 -67
123 -37 -42 12 -55 85 -35 -70
2 0 -94 -22 -13 127 -22 -27
-50 108 45 -90 -19 -1 109 95
-21 14 41 23 -18 9 -20 -16
-26 -21 -11 55 7 75 -32 -79
00000000: fc1b be91 3040 1122 04fc 05ab 98f5 16ca
00000010: efd9 f30b 40fe 106e af61 154a c135 ce43
00000020: f4f3 b867 1d5b 4720 16e3 ee16 d41e f702
00000030: 0c05 b814 f3d0 123a e73d 19de 09a2 1a55
00000040: 012c a798 d0dd 227f 362d ffce 3782 001e
00000050: 38e0 75cf f0f0 4bdf 27c2 8f21 dd34 2b1e
00000060: d9d1 ef0c eff0 dc3e f073 34d1 3119 3534
00000070: 2394 f6f4 e1c0 6209 3104 59dc f293 a7a8
00000080: 19df d3b2 10ad bdfe e6a4 b401 23ea 0247
00000090: 39e3 c8c2 7037 46f4 ff36 f1b8 f2c9 bcfc
000000a0: ae51 0ff8 3826 f00e f323 2a3e 14f6 f938
000000b0: eeb5 0ab8 07c5 7fea f7a8 9433 34d0 0007
000000c0: f8db ff17 eb51 2cd9 5136 da5e e8db f0e2
000000d0: f74a 2c10 931e afbd 7bdb d60c c955 ddba
000000e0: 0200 a2ea f37f eae5 ce6c 2da6 edff 6d5f
000000f0: eb0e 2917 ee09 ecf0 e6eb f537 074b e0b1

model/batch_normalization_9/FusedBatchNormV3;model/conv2d_9/Conv2D/ReadVariableOp;model/conv2d_9/Conv2D i1 [15, 3, 3, 15]
74 -38 -31 -26 4 15 30 -79
59 -75 -28 20 -1 35 -82 -23
-4 -125 -121 -14 -62 3 9 49
-71 9 -88 -59 22 -16 -20 -33
-10 -34 45 89 116 -52 -72 5
82 61 53 -46 33 -70 -73 44
102 -40 83 121 -86 101 47 92
68 73 10 37 5 51 57 81
61 105 54 70 -4 53 3 53
104 74 18 -42 68 -7 108 -15
121 37 78 123 62 45 -6 44
57 -54 28 -64 -12 127 23 105
-72 -83 -44 -37 -14 121 -97 71
7 -65 71 30 15 56 -22 1
30 -85 -97 10 53 98 102 25
43 11 -61 -34 -26 33 19 19
13 -74 102 91 38 -8 -32 -62
-23 -79 2 -30 33 21 -20 31
-88 54 1 -10 -3 35 -114 -25
-80 74 14 -36 37 -17 -25 54
-31 -42 -82 -115 67 -68 82 -5
-49 -64 -11 45 99 20 47 29
-67 -21 38 52 -32 29 39 -65
109 30 66 25 74 -90 -70 -26
-13 -52 102 21 -20 -71 7 -92
4 86 55 80 33 -67 -7 -43
61 43 -11 -4 -51 -101 36 12
19 24 21 -84 5 49 70 9
-2 -111 -38 50 -17 -38 -127 26
-37 19 22 66 -62 39 -17 -17
98 26 23 -112 19 49 72 -34
-1 101 -37 -19 -11 -18 30 51
00000000: 4ada e1e6 040f 1eb1 3bb5 e414 ff23 aee9
00000010: fc83 87f2 c203 0931 b909 a8c5 16f0 ecdf
00000020: f6de 2d59 74cc b805 523d 35d2 21ba b72c
00000030: 66d8 5379 aa65 2f5c 4449 0a25 0533 3951
00000040: 3d69 3646 fc35 0335 684a 12d6 44f9 6cf1
00000050: 7925 4e7b 3e2d fa2c 39ca 1cc0 f47f 1769
00000060: b8ad d4db f279 9f47 07bf 471e 0f38 ea01
00000070: 1eab 9f0a 3562 6619 2b0b c3de e621 1313
00000080: 0db6 665b 26f8 e0c2 e9b1 02e2 2115 ec1f
00000090: a836 01f6 fd23 8ee7 b04a 0edc 25ef e736
000000a0: e1d6 ae8d 43bc 52fb cfc0 f52d 6314 2f1d
000000b0: bdeb 2634 e01d 27bf 6d1e 4219 4aa6 bae6
000000c0: f3cc 6615 ecb9 07a4 0456 3750 21bd f9d5
000000d0: 3d2b f5fc cd9b 240c 1318 15ac 0531 4609
000000e0: fe91 da32 efda 811a db13 1642 c227 efef
000000f0: 621a 1790 1331 48de ff65 dbed f5ee 1e33

model/batch_normalization_10/FusedBatchNormV3;model/conv2d_10/Conv2D/ReadVariableOp;model/conv2d_10/Conv2D;model/batch_normalization_15/FusedBatchNormV3 i1 [30, 3, 3, 15]
31 58 12 -111 30 0 -28 42
29 104 11 -62 -32 40 28 -87
86 -17 9 14 -19 -21 -42 94
-5 28 14 -11 26 -12 23 108
15 20 -45 -28 12 0 -44 0
-17 67 -24 123 8 -82 -3 44
-40 -17 21 70 -59 -34 8 -20
38 56 9 27 -91 -12 87 -52
78 -3 41 30 -47 -7 57 -6
-32 5 2 -51 113 -1 -40 -24
127 6 -100 -35 49 -104 -6 23
-53 63 44 19 -38 -29 -85 -32
56 34 -41 82 -57 15 123 -10
-23 59 39 81 104 34 54 -73
103 -105 25 -5 -26 -8 -37 -12
-20 37 -43 29 -13 87 23 -56
-29 -62 -70 -19 -8 38 -38 10
85 -19 41 46 105 -51 1 24
60 -1 -2 -16 -73 -94 2 78
23 -38 -34 43 -73 -99 -9 69
37 27 -97 -83 -82 122 -106 25
63 -30 65 -60 39 -107 89 -2
-65 -4 -26 -23 82 -7 4 1
26 -33 -5 54 -97 -12 -91 -11
82 126 57 -82 -29 -78 37 119
65 -29 -115 -27 43 21 -27 -36
30 -30 -67 -33 -1 -36 -14 24
-45 -1 23 125 64 -41 -83 47
11 7 28 95 -9 -40 -56 83
-16 16 3 -64 31 19 37 -9
7 109 11 58 -60 -19 -5 -50
8 -81 -37 -78 50 -53 13 1
00000000: 1f3a 0c91 1e00 e42a 1d68 0bc2 e028 1ca9
00000010: 56ef 090e edeb d65e fb1c 0ef5 1af4 176c
00000020: 0f14 d3e4 0c00 d400 ef43 e87b 08ae fd2c
00000030: d8ef 1546 c5de 08ec 2638 091b a5f4 57cc
00000040: 4efd 291e d1f9 39fa e005 02cd 71ff d8e8
00000050: 7f06 9cdd 3198 fa17 cb3f 2c13 dae3 abe0
00000060: 3822 d752 c70f 7bf6 e93b 2751 6822 36b7
00000070: 6797 19fb e6f8 dbf4 ec25 d51d f357 17c8
00000080: e3c2 baed f826 da0a 55ed 292e 69cd 0118
00000090: 3cff fef0 b7a2 024e 17da de2b b79d f745
000000a0: 251b 9fad ae7a 9619 3fe2 41c4 2795 59fe
000000b0: bffc e6e9 52f9 0401 1adf fb36 9ff4 a5f5
000000c0: 527e 39ae e3b2 2577 41e3 8de5 2b15 e5dc
000000d0: 1ee2 bddf ffdc f218 d3ff 177d 40d7 ad2f
000000e0: 0b07 1c5f f7d8 c853 f010 03c0 1f13 25f7
000000f0: 076d 0b3a c4ed fbce 08af dbb2 32cb 0d01

model/batch_normalization_11/FusedBatchNormV3;model/conv2d_11/Conv2D/ReadVariableOp;model/conv2d_11/Conv2D;model/batch_normalization_15/FusedBatchNormV3 i1 [30, 3, 3, 30]
9 -80 -108 67 85 -36 -15 -80
8 -55 5 59 -101 -95 17 -7
0 -44 -75 -21 -107 46 -63 -4
77 -56 -22 -41 -63 -125 102 34
29 43 14 -25 10 51 -9 -45
51 -73 -48 29 16 122 57 -91
107 12 59 -35 -29 -79 32 27
-70 93 43 -53 86 72 -35 56
-34 12 -113 -13 -77 35 108 -53
-95 125 31 34 41 -16 -9 -108
34 -22 39 44 -1 54 -12 6
39 90 -34 -11 18 -107 16 -26
42 -98 -14 13 108 14 -16 -13
59 -74 -26 -22 -93 37 -23 -5
-64 -98 63 -30 -47 74 57 28
-8 61 49 23 -37 -2 -7 8
-4 -6 55 -100 -25 -101 76 -76
33 -82 -52 20 67 -58 49 -110
60 -81 -53 -29 20 -127 -41 10
38 90 -116 15 -23 107 23 12
-66 27 -2 56 -56 -33 -41 -38
-123 23 78 71 38 60 32 -1
-40 91 -44 7 46 40 -47 -94
43 -19 -16 -53 48 -23 38 77
-58 41 47 -48 -110 -13 74 -74
-67 -17 85 33 8 -29 9 -61
13 -3 4 12 0 114 114 22
88 11 -77 96 60 49 9 -122
16 -18 9 -11 36 -39 7 53
81 43 68 81 -42 -119 81 -70
0 19 3 -7 -48 -96 60 -62
117 -61 104 -11 22 27 -9 -87
00000000: 09b0 9443 55dc f1b0 08c9 053b 9ba1 11f9
00000010: 00d4 b5eb 952e c1fc 4dc8 ead7 c183 6622
00000020: 1d2b 0ee7 0a33 f7d3 33b7 d01d 107a 39a5
00000030: 6b0c 3bdd e3b1 201b ba5d 2bcb 5648 dd38
00000040: de0c 8ff3 b323 6ccb a17d 1f22 29f0 f794
00000050: 22ea 272c ff36 f406 275a def5 1295 10e6
00000060: 2a9e f20d 6c0e f0f3 3bb6 e6ea a325 e9fb
00000070: c09e 3fe2 d14a 391c f83d 3117 dbfe f908
00000080: fcfa 379c e79b 4cb4 21ae cc14 43c6 3192
00000090: 3caf cbe3 1481 d70a 265a 8c0f e96b 170c
000000a0: be1b fe38 c8df d7da 8517 4e47 263c 20ff
000000b0: d85b d407 2e28 d1a2 2bed f0cb 30e9 264d
000000c0: c629 2fd0 92f3 4ab6 bdef 5521 08e3 09c3
000000d0: 0dfd 040c 0072 7216 580b b360 3c31 0986
000000e0: 10ee 09f5 24d9 0735 512b 4451 d689 51ba
000000f0: 0013 03f9 d0a0 3cc2 75c3 68f5 161b f7a9

model/conv2d_12/Conv2D i1 [30, 1, 1, 15]
-27 -83 18 127 -39 0 57 92
-11 6 72 80 -49 70 -35 -38
-38 -20 -28 -24 37 -17 -54 -88
23 -127 78 -19 15 -10 -30 46
-3 -83 -59 7 72 94 40 45
81 38 105 -85 -127 3 -16 -3
30 -73 10 -64 -69 8 71 106
81 -48 -127 32 43 -57 -52 73
-34 16 5 42 99 -14 -112 33
-127 6 -39 -74 124 107 -120 103
-125 37 50 78 -102 -1 -124 -49
-22 127 24 99 6 -57 -47 -11
-127 -44 65 109 53 86 123 29
15 -23 -13 -127 -77 75 -24 -23
-124 31 113 -35 -52 -28 11 -10
31 24 -127 45 64 25 -48 39
3 10 31 120 -67 5 -89 25
-82 19 -2 -79 -127 104 0 -102
-6 54 27 -4 86 -80 -70 97
-6 -20 54 -18 72 53 -70 -127
-87 17 -14 16 2 -7 38 -34
-68 -76 -2 -127 23 24 15 119
24 -70 30 -66 127 52 -36 19
-124 26 57 -60 -6 47 34 122
58 -32 29 -57 100 31 29 -41
127 -24 -104 43 91 22 92 -46
56 -27 -127 -8 13 -11 40 -44
37 64 24 -58 37 65 12 55
-49 -10 25 37 -127 -6 -17 -29
54 84 -16 74 -5 87 84 67
54 78 127 -96 -68 40 80 -17
-58 -13 8 -121 18 -7 17 -44
00000000: e5ad 127f d900 395c f506 4850 cf46 ddda
00000010: daec e4e8 25ef caa8 1781 4eed 0ff6 e22e
00000020: fdad c507 485e 282d 5126 69ab 8103 f0fd
00000030: 1eb7 0ac0 bb08 476a 51d0 8120 2bc7 cc49
00000040: de10 052a 63f2 9021 8106 d9b6 7c6b 8867
00000050: 8325 324e 9aff 84cf ea7f 1863 06c7 d1f5
00000060: 81d4 416d 3556 7b1d 0fe9 f381 b34b e8e9
00000070: 841f 71dd cce4 0bf6 1f18 812d 4019 d027
00000080: 030a 1f78 bd05 a719 ae13 feb1 8168 009a
00000090: fa36 1bfc 56b0 ba61 faec 36ee 4835 ba81
000000a0: a911 f210 02f9 26de bcb4 fe81 1718 0f77
000000b0: 18ba 1ebe 7f34 dc13 841a 39c4 fa2f 227a
000000c0: 3ae0 1dc7 641f 1dd7 7fe8 982b 5b16 5cd2
000000d0: 38e5 81f8 0df5 28d4 2540 18c6 2541 0c37
000000e0: cff6 1925 81fa efe3 3654 f04a fb57 5443
000000f0: 364e 7fa0 bc28 50ef c6f3 0887 12f9 11d4

model/batch_normalization_12/FusedBatchNormV3;model/conv2d_13/Conv2D/ReadVariableOp;model/conv2d_13/Conv2D;model/batch_normalization_15/FusedBatchNormV3 i1 [30, 3, 3, 30]
118 -40 56 -3 54 -60 50 37
-36 -89 -65 53 59 41 -86 -37
-12 -16 10 -77 2 52 -19 -18
127 -111 76 -29 -54 54 54 -12
-63 106 -70 -48 -44 -41 -62 91
-49 -49 -106 -23 -41 -40 52 -21
-49 39 -20 -76 30 77 -62 -61
-8 -20 -36 50 -63 68 57 96
-23 52 -18 104 81 62 12 22
-9 -84 -21 52 5 -13 -11 -2
-15 4 6 56 93 17 14 107
23 -53 -44 -13 -8 115 -23 -119
-57 -16 0 -120 -5 4 35 44
42 41 13 -33 -37 -104 -45 -32
-3 -49 -93 62 63 -15 -78 -37
-23 -57 64 20 -86 68 -22 -58
-52 32 18 69 8 -20 -30 100
51 89 -48 -11 59 15 -3 -54
-72 -78 13 21 3 -50 25 117
-110 21 -59 -54 -33 -62 57 8
30 -33 -11 -39 37 10 25 56
20 -2 109 0 -37 38 -1 81
33 37 6 9 27 37 -9 32
-28 97 -53 27 74 67 4 66
59 -17 42 94 -82 -15 -69 52
35 9 22 39 68 121 61 -55
-29 -115 -32 -100 40 69 -58 -60
-104 -1 26 -63 5 111 102 -30
27 83 -25 27 -70 -80 3 -17
14 -48 57 -39 24 -3 -75 94
-9 12 -94 7 114 22 -21 -32
22 -55 28 22 -38 -106 49 7
00000000: 76d8 38fd 36c4 3225 dca7 bf35 3b29 aadb
00000010: f4f0 0ab3 0234 edee 7f91 4ce3 ca36 36f4
00000020: c16a bad0 d4d7 c25b cfcf 96e9 d7d8 34eb
00000030: cf27 ecb4 1e4d c2c3 f8ec dc32 c144 3960
00000040: e934 ee68 513e 0c16 f7ac eb34 05f3 f5fe
00000050: f104 0638 5d11 0e6b 17cb d4f3 f873 e989
00000060: c7f0 0088 fb04 232c 2a29 0ddf db98 d3e0
00000070: fdcf a33e 3ff1 b2db e9c7 4014 aa44 eac6
00000080: cc20 1245 08ec e264 3359 d0f5 3b0f fdca
00000090: b8b2 0d15 03ce 1975 9215 c5ca dfc2 3908
000000a0: 1edf f5d9 250a 1938 14fe 6d00 db26 ff51
000000b0: 2125 0609 1b25 f720 e461 cb1b 4a43 0442
000000c0: 3bef 2a5e aef1 bb34 2309 1627 4479 3dc9
000000d0: e38d e09c 2845 c6c4 98ff 1ac1 056f 66e2
000000e0: 1b53 e71b bab0 03ef 0ed0 39d9 18fd b55e
000000f0: f70c a207 7216 ebe0 16c9 1c16 da96 3107

model/batch_normalization_13/FusedBatchNormV3;model/conv2d_14/Conv2D/ReadVariableOp;model/conv2d_14/Conv2D;model/batch_normalization_15/FusedBatchNormV3 i1 [30, 3, 3, 30]
70 -39 0 -117 28 25 13 -42
72 56 62 -94 0 7 -3 87
-15 29 96 -3 73 7 -44 18
-17 -34 -106 24 -53 -5 40 -8
-89 2 44 0 -54 25 -14 13
-96 57 39 -23 -13 -2 80 7
-83 84 -63 69 -61 -66 38 -117
45 20 -30 -15 -18 102 41 -36
-54 -34 -7 -15 -60 18 45 1
95 -6 -97 -75 81 55 98 -86
25 45 -50 -89 63 15 87 -37
-22 60 72 99 47 103 15 8
110 -42 -78 -21 -9 36 -75 -22
-111 57 112 17 39 16 -47 -51
-27 -8 57 37 101 -12 -115 31
-106 25 1 13 46 51 72 21
-26 58 -79 -68 36 59 -65 68
-36 88 40 -39 22 23 -47 50
-90 -23 76 -48 -3 72 -14 -8
-66 47 -43 24 -42 -28 -12 11
-22 -14 105 -2 -80 -76 -24 -57
-74 -100 95 -57 111 8 -32 7
88 -63 28 -68 9 45 -42 14
-94 5 26 -82 -73 5 29 -45
59 -46 -62 -49 55 -82 -68 -17
-6 -24 55 -66 -14 10 -13 -29
37 13 -80 53 -63 -89 127 -127
-28 81 -5 25 -69 15 47 54
-13 103 -18 87 100 -86 -49 -65
33 88 -19 5 27 -24 -38 -3
-77 124 -68 -30 84 -28 79 -6
72 32 64 23 -110 33 -59 -98
00000000: 46d9 008b 1c19 0dd6 4838 3ea2 0007 fd57
00000010: f11d 60fd 4907 d412 efde 9618 cbfb 28f8
00000020: a702 2c00 ca19 f20d a039 27e9 f3fe 5007
00000030: ad54 c145 c3be 268b 2d14 e2f1 ee66 29dc
00000040: cade f9f1 c412 2d01 5ffa 9fb5 5137 62aa
00000050: 192d cea7 3f0f 57db ea3c 4863 2f67 0f08
00000060: 6ed6 b2eb f724 b5ea 9139 7011 2710 d1cd
00000070: e5f8 3925 65f4 8d1f 9619 010d 2e33 4815
00000080: e63a b1bc 243b bf44 dc58 28d9 1617 d132
00000090: a6e9 4cd0 fd48 f2f8 be2f d518 d6e4 f40b
000000a0: eaf2 69fe b0b4 e8c7 b69c 5fc7 6f08 e007
000000b0: 58c1 1cbc 092d d60e a205 1aae b705 1dd3
000000c0: 3bd2 c2cf 37ae bcef fae8 37be f20a f3e3
000000d0: 250d b035 c1a7 7f81 e451 fb19 bb0f 2f36
000000e0: f367 ee57 64aa cfbf 2158 ed05 1be8 dafd
000000f0: b37c bce2 54e4 4ffa 4820 4017 9221 c59e

model/batch_normalization_14/FusedBatchNormV3;model/conv2d_15/Conv2D/ReadVariableOp;model/conv2d_15/Conv2D;model/batch_normalization_15/FusedBatchNormV3 i1 [30, 3, 3, 30]
33 -50 -63 0 57 -18 103 -22
49 -26 96 28 65 -24 5 17
-59 -8 -25 37 96 -55 87 41
11 -40 14 81 -21 -91 -7 -71
12 63 125 -88 29 -9 -23 42
-33 8 2 -53 -5 62 21 -40
56 -52 102 5 -3 -25 112 17
-89 -9 -50 -72 -73 11 -33 -40
-119 -41 43 -55 76 16 -32 -22
119 50 77 -7 -58 -60 -12 -37
-70 -38 36 -49 34 -8 31 103
48 47 -103 -100 -116 19 27 -4
-12 67 15 -8 7 -27 92 -62
-8 -60 42 12 79 81 -16 -29
-66 26 51 -48 66 10 -9 3
9 6 19 37 -93 -14 1 -9
-108 -20 -34 75 54 -20 -60 -39
-38 34 -72 76 75 95 -83 -66
98 -10 -66 -105 -45 -10 32 -59
70 64 -15 -16 -14 100 68 -19
34 -17 1 28 -28 -6 9 -81
-46 15 -34 34 26 46 -34 -36
-20 26 -119 -30 38 -72 -60 23
72 -48 -44 56 42 -68 63 -11
-71 49 -40 51 -33 101 67 -51
-114 90 -94 -19 -27 104 16 48
-41 7 8 -111 -60 0 -49 60
15 -82 -33 25 38 -41 93 -54
-94 25 -48 -19 56 11 -67 -67
10 -61 29 -52 5 3 28 87
-18 45 38 26 -37 -7 -98 -19
10 -8 89 -42 10 57 0 58
00000000: 21ce c100 39ee 67ea 31e6 601c 41e8 0511
00000010: c5f8 e725 60c9 5729 0bd8 0e51 eba5 f9b9
00000020: 0c3f 7da8 1df7 e92a df08 02cb fb3e 15d8
00000030: 38cc 6605 fde7 7011 a7f7 ceb8 b70b dfd8
00000040: 89d7 2bc9 4c10 e0ea 7732 4df9 c6c4 f4db
00000050: bada 24cf 22f8 1f67 302f 999c 8c13 1bfc
00000060: f443 0ff8 07e5 5cc2 f8c4 2a0c 4f51 f0e3
00000070: be1a 33d0 420a f703 0906 1325 a3f2 01f7
00000080: 94ec de4b 36ec c4d9 da22 b84c 4b5f adbe
00000090: 62f6 be97 d3f6 20c5 4640 f1f0 f264 44ed
000000a0: 22ef 011c e4fa 09af d20f de22 1a2e dedc
000000b0: ec1a 89e2 26b8 c417 48d0 d438 2abc 3ff5
000000c0: b931 d833 df65 43cd 8e5a a2ed e568 1030
000000d0: d707 0891 c400 cf3c 0fae df19 26d7 5dca
000000e0: a219 d0ed 380b bdbd 0ac3 1dcc 0503 1c57
000000f0: ee2d 261a dbf9 9eed 0af8 59d6 0a39 003a

model/batch_normalization_15/FusedBatchNormV3;model/conv2d_16/Conv2D/ReadVariableOp;model/conv2d_16/Conv2D i1 [30, 3, 3, 30]
-89 92 -56 -18 42 -77 44 -88
37 3 -47 -17 -11 112 -8 -55
66 34 -19 -42 -14 -40 101 -46
-15 -88 93 80 -46 29 47 -10
-100 96 -43 2 -66 1 87 101
-41 -41 39 23 23 -14 -49 87
-24 -84 -4 -108 76 68 42 61
36 39 -26 -62 -15 -66 -14 2
-39 73 29 -79 -7 24 53 12
38 111 68 104 -91 -119 66 -8
-115 5 31 -57 56 69 -88 44
-55 -95 -29 54 89 1 53 56
-7 42 -30 30 40 63 -13 9
-5 -102 99 -51 -45 67 41 100
102 29 73 -28 88 40 -1 90
38 122 26 -33 -75 -16 0 51
36 -91 34 -24 -28 -30 12 61
25 32 -64 72 75 -5 -43 -96
-58 -35 59 24 27 -55 39 -23
25 25 3 -4 -10 101 -59 30
-26 35 4 48 -41 24 8 -34
-7 62 28 -88 80 -41 -71 -42
-5 -102 -51 -37 -2 -24 -30 0
3 77 32 -38 23 50 -14 -32
-20 10 -104 -26 -59 -104 56 1
-99 27 -43 -26 -127 66 55 -33
38 -63 -80 -2 41 127 56 13
39 4 -20 -7 -40 -94 8 -5
35 71 -32 -69 -45 109 41 -15
-34 -27 37 39 15 4 -66 48
49 3 41 12 39 -119 57 -114
0 25 37 -65 -9 -30 -52 45
00000000: a75c c8ee 2ab3 2ca8 2503 d1ef f570 f8c9
00000010: 4222 edd6 f2d8 65d2 f1a8 5d50 d21d 2ff6
00000020: 9c60 d502 be01 5765 d7d7 2717 17f2 cf57
00000030: e8ac fc94 4c44 2a3d 2427 e6c2 f1be f202
00000040: d949 1db1 f918 350c 266f 4468 a589 42f8
00000050: 8d05 1fc7 3845 a82c c9a1 e336 5901 3538
00000060: f92a e21e 283f f309 fb9a 63cd d343 2964
00000070: 661d 49e4 5828 ff5a 267a 1adf b5f0 0033
00000080: 24a5 22e8 e4e2 0c3d 1920 c048 4bfb d5a0
00000090: c6dd 3b18 1bc9 27e9 1919 03fc f665 c51e
000000a0: e623 0430 d718 08de f93e 1ca8 50d7 b9d6
000000b0: fb9a cddb fee8 e200 034d 20da 1732 f2e0
000000c0: ec0a 98e6 c598 3801 9d1b d5e6 8142 37df
000000d0: 26c1 b0fe 297f 380d 2704 ecf9 d8a2 08fb
000000e0: 2347 e0bb d36d 29f1 dee5 2527 0f04 be30
000000f0: 3103 290c 2789 398e 0019 25bf f7e2 cc2d

model/batch_normalization_16/FusedBatchNormV3;model/conv2d_17/Conv2D/ReadVariableOp;model/conv2d_17/Conv2D;model/batch_normalization_21/FusedBatchNormV3 i1 [60, 3, 3, 30]
54 16 24 -11 -19 105 98 -20
52 -6 -41 68 -15 69 23 -30
-11 39 103 9 -4 -76 36 -35
-53 19 81 45 -70 -26 -33 34
-52 -90 34 -3 -19 -17 -25 -45
-111 110 -56 66 86 48 -21 99
112 12 -77 -10 -32 80 -38 -32
74 10 -4 -48 -66 96 -2 76
86 -26 -38 76 -68 90 -41 51
-112 97 55 26 91 -47 74 20
69 36 -30 -8 -31 -21 30 72
43 -5 14 23 -6 -19 -29 -58
-61 -26 17 -39 25 -52 -27 -6
-28 -45 89 69 44 103 16 -58
2 -18 -7 64 84 -36 -18 6
-118 9 -88 -63 21 6 -59 5
-16 118 9 -74 20 -14 -19 -87
-64 111 -10 3 23 -67 72 -105
73 54 0 26 114 53 47 -77
76 -49 -67 -112 -73 53 -27 33
73 -8 -84 -68 -44 69 29 -24
41 48 -27 -20 -75 -54 -118 -24
-74 97 -89 71 18 80 -85 -9
1 30 86 -37 44 6 -101 13
11 -17 -61 -18 -42 18 -42 27
68 127 -53 -4 2 -18 -65 -62
-101 -2 -35 -32 72 61 65 5
-22 35 -29 56 -59 -79 5 -103
-40 -39 -73 96 26 20 118 -58
11 -31 -87 93 2 -74 4 -115
-16 -40 41 13 -13 37 22 79
18 -19 -87 -40 -12 67 57 -66
00000000: 3610 18f5 ed69 62ec 34fa d744 f145 17e2
00000010: f527 6709 fcb4 24dd cb13 512d bae6 df22
00000020: cca6 22fd edef e7d3 916e c842 5630 eb63
00000030: 700c b3f6 e050 dae0 4a0a fcd0 be60 fe4c
00000040: 56e6 da4c bc5a d733 9061 371a 5bd1 4a14
00000050: 4524 e2f8 e1eb 1e48 2bfb 0e17 faed e3c6
00000060: c3e6 11d9 19cc e5fa e4d3 5945 2c67 10c6
00000070: 02ee f940 54dc ee06 8a09 a8c1 1506 c505
00000080: f076 09b6 14f2 eda9 c06f f603 17bd 4897
00000090: 4936 001a 7235 2fb3 4ccf bd90 b735 e521
000000a0: 49f8 acbc d445 1de8 2930 e5ec b5ca 8ae8
000000b0: b661 a747 1250 abf7 011e 56db 2c06 9b0d
000000c0: 0bef c3ee d612 d61b 447f cbfc 02ee bfc2
000000d0: 9bfe dde0 483d 4105 ea23 e338 c5b1 0599
000000e0: d8d9 b760 1a14 76c6 0be1 a95d 02b6 048d
000000f0: f0d8 290d f325 164f 12ed a9d8 f443 39be

model/batch_normalization_17/FusedBatchNormV3;model/conv2d_18/Conv2D/ReadVariableOp;model/conv2d_18/Conv2D;model/batch_normalization_21/FusedBatchNormV3 i1 [60, 3, 3, 60]
-40 66 -36 -64 99 -88 47 6
9 -55 14 93 -45 88 -54 20
71 -4 49 15 -31 -1 30 -12
-2 6 -13 -14 15 64 -49 38
23 -103 7 -29 -32 49 -2 -56
-30 -70 45 88 8 1 -12 -69
39 -58 -63 47 -118 -9 -55 -51
63 44 4 -32 -30 14 15 22
76 31 -7 19 67 -103 -40 117
80 80 -50 18 -9 -85 62 -15
-32 3 27 -17 -3 16 -3 2
58 -55 108 -53 92 -27 -75 102
20 -90 -50 -26 -32 -105 -5 63
120 -34 -111 -54 -16 50 55 33
38 63 -88 80 -51 11 4 65
-82 -52 -101 7 -32 -32 -47 -58
-4 102 114 -33 118 -13 40 50
40 -110 93 -1 -37 39 45 -84
-10 76 -41 -8 21 -27 64 2
-52 -66 1 -1 -11 -31 57 -65
-20 44 -42 57 10 -17 3 -40
75 -78 -34 -112 26 10 -99 30
-35 -48 3 -94 4 42 97 -91
73 3 71 -42 78 74 64 -20
-96 -70 -25 60 38 46 -71 5
-4 52 -44 -1 52 24 81 -51
70 -93 -64 -17 -11 30 -50 3
113 2 4 47 -89 -19 -54 33
-2 -2 -39 -15 -77 -88 -52 59
-86 -10 -28 -81 48 81 -92 -23
-22 -18 110 43 -86 12 -46 -121
10 -48 15 -15 7 45 -17 75
00000000: d842 dcc0 63a8 2f06 09c9 0e5d d358 ca14
00000010: 47fc 310f e1ff 1ef4 fe06 f3f2 0f40 cf26
00000020: 1799 07e3 e031 fec8 e2ba 2d58 0801 f4bb
00000030: 27c6 c12f 8af7 c9cd 3f2c 04e0 e20e 0f16
00000040: 4c1f f913 4399 d875 5050 ce12 f7ab 3ef1
00000050: e003 1bef fd10 fd02 3ac9 6ccb 5ce5 b566
00000060: 14a6 cee6 e097 fb3f 78de 91ca f032 3721
00000070: 263f a850 cd0b 0441 aecc 9b07 e0e0 d1c6
00000080: fc66 72df 76f3 2832 2892 5dff db27 2dac
00000090: f64c d7f8 15e5 4002 ccbe 01ff f5e1 39bf
000000a0: ec2c d639 0aef 03d8 4bb2 de90 1a0a 9d1e
000000b0: ddd0 03a2 042a 61a5 4903 47d6 4e4a 40ec
000000c0: a0ba e73c 262e b905 fc34 d4ff 3418 51cd
000000d0: 46a3 c0ef f51e ce03 7102 042f a7ed ca21
000000e0: fefe d9f1 b3a8 cc3b aaf6 e4af 3051 a4e9
000000f0: eaee 6e2b aa0c d287 0ad0 0ff1 072d ef4b

model/conv2d_19/Conv2D i1 [60, 1, 1, 30]
35 -110 -19 71 5 -40 -37 -40
7 -32 -2 -67 127 -37 -5 2
125 24 118 4 101 -68 47 44
32 -61 -60 -33 72 111 22 -83
87 -102 115 -87 28 -127 -125 117
10 -38 -38 -11 7 -39 24 66
28 11 -66 93 102 -112 19 -31
12 -52 101 71 -51 37 -84 -39
-112 28 -39 88 -59 -81 -103 -63
4 80 -82 -1 10 -48 -66 -32
46 -111 105 -32 70 104 -71 43
127 -25 25 -39 -127 -10 21 27
30 -21 76 -102 -72 -12 -63 93
-53 -18 -68 67 -72 -91 39 -61
-30 -8 -54 -63 61 -22 44 60
-10 -81 66 -12 -43 75 5 -39
88 -37 -28 -92 5 -122 50 -2
-3 -9 -127 -52 44 55 101 52
-17 -13 55 41 -45 21 12 -94
11 7 -76 1 51 33 -27 8
61 -44 -23 -79 32 -34 36 18
-51 69 16 50 42 -97 83 24
127 102 86 22 -80 -72 -67 -12
62 94 45 28 -47 68 10 -5
-29 -45 88 -11 -126 -127 -10 8
-29 -57 97 -21 -122 43 79 36
-60 64 -85 9 32 68 -73 75
21 26 -11 20 108 -17 17 42
-111 79 -24 -55 49 -87 -99 7
-59 56 -67 -46 120 -127 10 -54
18 25 -10 -34 -66 -3 0 73
-51 -102 33 37 99 118 25 -49
00000000: 2392 ed47 05d8 dbd8 07e0 febd 7fdb fb02
00000010: 7d18 7604 65bc 2f2c 20c3 c4df 486f 16ad
00000020: 579a 73a9 1c81 8375 0ada daf5 07d9 1842
00000030: 1c0b be5d 6690 13e1 0ccc 6547 cd25 acd9
00000040: 901c d958 c5af 99c1 0450 aeff 0ad0 bee0
00000050: 2e91 69e0 4668 b92b 7fe7 19d9 81f6 151b
00000060: 1eeb 4c9a b8f4 c15d cbee bc43 b8a5 27c3
00000070: e2f8 cac1 3dea 2c3c f6af 42f4 d54b 05d9
00000080: 58db e4a4 0586 32fe fdf7 81cc 2c37 6534
00000090: eff3 3729 d315 0ca2 0b07 b401 3321 e508
000000a0: 3dd4 e9b1 20de 2412 cd45 1032 2a9f 5318
000000b0: 7f66 5616 b0b8 bdf4 3e5e 2d1c d144 0afb
000000c0: e3d3 58f5 8281 f608 e3c7 61eb 862b 4f24
000000d0: c440 ab09 2044 b74b 151a f514 6cef 112a
000000e0: 914f e8c9 31a9 9d07 c538 bdd2 7881 0aca
000000f0: 1219 f6de befd 0049 cd9a 2125 6376 19cf

model/batch_normalization_18/FusedBatchNormV3;model/conv2d_20/Conv2D/ReadVariableOp;model/conv2d_20/Conv2D;model/batch_normalization_21/FusedBatchNormV3 i1 [60, 3, 3, 60]
9 -23 -52 90 29 -57 79 32
93 19 -86 -2 27 2 22 83
28 103 30 -7 -1 14 -59 76
-42 60 -109 48 82 92 -75 74
-23 70 -83 -42 -10 -54 -126 -13
-96 56 78 -56 -8 1 31 -49
102 -125 50 30 25 113 102 -41
116 -9 -109 2 40 30 53 16
-21 -56 -10 25 101 11 -19 -126
19 19 5 14 -56 3 68 -68
-32 118 -76 -55 -63 -21 43 48
-94 18 51 -59 94 -36 10 -35
-54 -24 28 5 -62 -61 0 -110
-39 87 50 -14 110 -106 48 115
-58 51 -29 45 76 -64 -34 75
6 -2 -66 59 -28 -120 -40 -74
11 126 -86 8 -73 -30 26 22
58 21 5 -57 -49 -59 -123 -46
75 -3 -65 23 -33 -39 45 15
-17 -21 27 -114 46 -7 31 -30
-52 98 83 -29 61 -101 67 -100
-14 -20 -37 50 -23 13 43 91
-2 27 -17 -127 45 -90 15 35
71 -68 -9 19 111 15 56 67
6 -39 -79 10 -2 -46 23 -25
-12 -2 82 -115 -40 -9 12 24
19 48 -34 -16 -50 111 16 59
123 -22 -31 -38 -4 -13 -109 -14
10 -40 -40 -30 -56 -93 7 42
82 39 -120 -50 -75 -25 80 -109
-5 6 43 2 -2 2 65 -26
-21 -61 -19 100 58 41 47 100
00000000: 09e9 cc5a 1dc7 4f20 5d13 aafe 1b02 1653
00000010: 1c67 1ef9 ff0e c54c d63c 9330 525c b54a
00000020: e946 add6 f6ca 82f3 a038 4ec8 f801 1fcf
00000030: 6683 321e 1971 66d7 74f7 9302 281e 3510
00000040: ebc8 f619 650b ed82 1313 050e c803 44bc
00000050: e076 b4c9 c1eb 2b30 a212 33c5 5edc 0add
00000060: cae8 1c05 c2c3 0092 d957 32f2 6e96 3073
00000070: c633 e32d 4cc0 de4b 06fe be3b e488 d8b6
00000080: 0b7e aa08 b7e2 1a16 3a15 05c7 cfc5 85d2
00000090: 4bfd bf17 dfd9 2d0f efeb 1b8e 2ef9 1fe2
000000a0: cc62 53e3 3d9b 439c f2ec db32 e90d 2b5b
000000b0: fe1b ef81 2da6 0f23 47bc f713 6f0f 3843
000000c0: 06d9 b10a fed2 17e7 f4fe 528d d8f7 0c18
000000d0: 1330 def0 ce6f 103b 7bea e1da fcf3 93f2
000000e0: 0ad8 d8e2 c8a3 072a 5227 88ce b5e7 5093
000000f0: fb06 2b02 fe02 41e6 ebc3 ed64 3a29 2f64

model/batch_normalization_19/FusedBatchNormV3;model/conv2d_21/Conv2D/ReadVariableOp;model/conv2d_21/Conv2D;model/batch_normalization_21/FusedBatchNormV3 i1 [60, 3, 3, 60]
-47 87 -1 -84 120 -110 -117 -34
21 -62 -58 -9 6 -95 27 -26
16 -64 -13 118 -45 -26 62 -107
-63 -43 -79 13 18 -15 10 -51
38 -48 -86 -54 62 2 -66 45
-53 -107 -52 56 -54 118 60 -24
-29 -40 -73 -58 34 -53 -120 -10
37 1 32 -68 -38 52 -3 -31
-55 -30 -20 -30 24 2 17 2
-83 -28 -94 54 -25 84 -85 -23
39 117 -70 -68 -13 74 51 -27
-68 -32 -37 114 28 30 83 14
-44 90 72 22 12 21 -1 88
45 -69 -74 -49 28 35 81 51
-16 -5 28 -48 32 20 18 77
60 3 -42 -84 43 37 -8 -4
-90 124 -127 -35 6 55 15 -103
25 -25 -94 -95 -60 53 44 27
-46 32 -9 53 46 4 26 -65
-61 -14 -68 -10 -47 -73 -35 27
82 117 22 68 -9 -32 64 -27
20 72 85 16 65 -70 -46 -51
-57 21 -35 -53 69 -123 96 90
-6 31 -50 -94 24 -35 -14 6
27 88 -12 -16 -33 -20 -26 -58
77 41 50 -97 88 51 57 -32
52 49 -1 62 -55 -8 82 49
-4 50 14 32 18 40 86 12
20 -117 110 63 -63 -96 19 2
66 60 -21 9 28 33 -86 43
51 -18 -21 48 -97 12 -40 7
92 -59 60 36 63 2 -15 -79
00000000: d157 ffac 7892 8bde 15c2 c6f7 06a1 1be6
00000010: 10c0 f376 d3e6 3e95 c1d5 b10d 12f1 0acd
00000020: 26d0 aaca 3e02 be2d cb95 cc38 ca76 3ce8
00000030: e3d8 b7c6 22cb 88f6 2501 20bc da34 fde1
00000040: c9e2 ece2 1802 1102 ade4 a236 e754 abe9
00000050: 2775 babc f34a 33e5 bce0 db72 1c1e 530e
00000060: d45a 4816 0c15 ff58 2dbb b6cf 1c23 5133
00000070: f0fb 1cd0 2014 124d 3c03 d6ac 2b25 f8fc
00000080: a67c 81dd 0637 0f99 19e7 a2a1 c435 2c1b
00000090: d220 f735 2e04 1abf c3f2 bcf6 d1b7 dd1b
000000a0: 5275 1644 f7e0 40e5 1448 5510 41ba d2cd
000000b0: c715 ddcb 4585 605a fa1f cea2 18dd f206
000000c0: 1b58 f4f0 dfec e6c6 4d29 329f 5833 39e0
000000d0: 3431 ff3e c9f8 5231 fc32 0e20 1228 560c
000000e0: 148b 6e3f c1a0 1302 423c eb09 1c21 aa2b
000000f0: 33ee eb30 9f0c d807 5cc5 3c24 3f02 f1b1

model/batch_normalization_20/FusedBatchNormV3;model/conv2d_22/Conv2D/ReadVariableOp;model/conv2d_22/Conv2D;model/batch_normalization_21/FusedBatchNormV3 i1 [60, 3, 3, 60]
-56 20 24 57 -74 -78 42 48
28 -99 79 -34 30 71 101 88
-63 -81 111 19 82 44 82 59
3 -64 -15 48 124 -103 -24 -10
-20 -62 21 78 96 -7 22 -24
-9 10 71 15 -126 -17 -102 82
39 29 32 -65 20 -84 -36 -64
19 -40 -16 -8 10 46 -7 -63
-94 -79 -14 -60 -43 -5 -24 32
-20 8 -3 76 -62 -99 -56 9
-32 102 21 7 0 -37 100 11
52 70 -38 12 -117 -99 -22 -73
58 -55 -8 38 -60 25 -41 -52
6 -73 49 -80 42 28 7 -29
-6 -52 -123 44 -121 -82 -37 -79
73 30 90 68 43 30 -12 -16
-1 -101 53 -44 81 72 23 52
6 -35 -57 6 69 -75 24 113
-1 20 86 -35 86 -15 85 18
-29 51 -20 -61 -28 -19 6 -39
38 52 59 -93 -28 58 80 -54
-106 13 -101 104 -52 29 -18 -6
-35 55 9 65 67 -4 -83 -52
-26 -1 -72 -47 -2 63 -3 -52
16 -18 -1 -73 -19 -41 86 -17
-44 -46 -51 49 -35 -11 -66 14
13 59 -10 78 32 -8 -9 -101
-7 -107 0 -55 26 -20 -123 -33
-93 -2 80 -49 -15 50 57 97
-24 28 45 69 -47 52 95 12
-122 39 37 16 30 -2 70 -56
109 -1 -70 70 -24 -121 -15 -13
00000000: c814 1839 b6b2 2a30 1c9d 4fde 1e47 6558
00000010: c1af 6f13 522c 523b 03c0 f130 7c99 e8f6
00000020: ecc2 154e 60f9 16e8 f70a 470f 82ef 9a52
00000030: 271d 20bf 14ac dcc0 13d8 f0f8 0a2e f9c1
00000040: a2b1 f2c4 d5fb e820 ec08 fd4c c29d c809
00000050: e066 1507 00db 640b 3446 da0c 8b9d eab7
00000060: 3ac9 f826 c419 d7cc 06b7 31b0 2a1c 07e3
00000070: facc 852c 87ae dbb1 491e 5a44 2b1e f4f0
00000080: ff9b 35d4 5148 1734 06dd c706 45b5 1871
00000090: ff14 56dd 56f1 5512 e333 ecc3 e4ed 06d9
000000a0: 2634 3ba3 e43a 50ca 960d 9b68 cc1d eefa
000000b0: dd37 0941 43fc adcc e6ff b8d1 fe3f fdcc
000000c0: 10ee ffb7 edd7 56ef d4d2 cd31 ddf5 be0e
000000d0: 0d3b f64e 20f8 f79b f995 00c9 1aec 85df
000000e0: a3fe 50cf f132 3961 e81c 2d45 d134 5f0c
000000f0: 8627 2510 1efe 46c8 6dff ba46 e887 f1f3

model/batch_normalization_21/FusedBatchNormV3;model/conv2d_23/Conv2D/ReadVariableOp;model/conv2d_23/Conv2D i1 [60, 3, 3, 60]
-66 11 9 25 -90 15 -21 -51
-35 115 -25 -14 -33 -108 -84 24
23 -9 -65 58 48 -71 -55 -71
22 -30 32 65 -56 -40 -22 -63
111 76 38 -30 -75 -37 -45 7
2 -23 29 22 87 -39 -49 -3
3 12 -46 21 124 -79 -16 46
-31 -46 70 -23 -26 -30 -71 -29
-46 67 -66 -18 16 -36 41 79
-36 55 14 -93 -10 -62 -114 25
74 -33 -18 -27 -28 41 -31 -34
10 -51 -23 67 22 -39 18 -65
26 59 -31 -68 -36 -9 47 -86
-23 -43 59 -45 -33 0 32 -124
30 3 -94 -66 -38 -31 -95 93
32 52 -63 15 -4 -55 103 -75
-2 -20 94 -61 -33 -19 -124 61
20 104 13 -59 -5 79 -28 0
22 6 3 -84 26 26 -54 -61
36 -50 61 -9 -61 25 -33 -2
-127 -10 -48 -15 20 24 -34 53
-1 -39 -94 23 5 23 -123 62
26 -18 58 69 -55 -38 -23 -33
-52 57 -20 40 -57 -23 -77 13
109 -56 -88 -18 17 -31 -56 83
52 36 -97 -60 31 -49 5 59
33 78 -11 -11 -79 79 -91 -71
18 73 111 -88 19 54 -29 -111
68 -1 -102 -55 55 42 -14 -51
29 -27 -32 -37 -69 -53 32 -1
87 24 99 87 89 -34 26 5
-46 -12 84 15 -24 -41 38 -60
00000000: be0b 0919 a60f ebcd dd73 e7f2 df94 ac18
00000010: 17f7 bf3a 30b9 c9b9 16e2 2041 c8d8 eac1
00000020: 6f4c 26e2 b5db d307 02e9 1d16 57d9 cffd
00000030: 030c d215 7cb1 f02e e1d2 46e9 e6e2 b9e3
00000040: d243 beee 10dc 294f dc37 0ea3 f6c2 8e19
00000050: 4adf eee5 e429 e1de 0acd e943 16d9 12bf
00000060: 1a3b e1bc dcf7 2faa e9d5 3bd3 df00 2084
00000070: 1e03 a2be dae1 a15d 2034 c10f fcc9 67b5
00000080: feec 5ec3 dfed 843d 1468 0dc5 fb4f e400
00000090: 1606 03ac 1a1a cac3 24ce 3df7 c319 dffe
000000a0: 81f6 d0f1 1418 de35 ffd9 a217 0517 853e
000000b0: 1aee 3a45 c9da e9df cc39 ec28 c7e9 b30d
000000c0: 6dc8 a8ee 11e1 c853 3424 9fc4 1fcf 053b
000000d0: 214e f5f5 b14f a5b9 1249 6fa8 1336 e391
000000e0: 44ff 9ac9 372a f2cd 1de5 e0db bbcb 20ff
000000f0: 5718 6357 59de 1a05 d2f4 540f e8d7 26c4
