TFLite-model/01bA_ResNet20_CIFAR-10_Q-none.tflite (tflite, 966972 bytes, 25 tensors)

model/dense/MatMul f4 [10, 60]
000000 1b 4d 0c 3e 0f f5 2b be a3 86 21 3e b1 6a da bc
       0.13701288 -0.16792701 0.15774016 -0.026662203
000010 69 1e c5 3b 36 0b 27 3e 16 d5 67 be 61 ae 07 bd
       0.006015588 0.1631287 -0.2263988 -0.033125285
000020 d7 ec 94 3d 73 94 01 be 78 15 ad 3d 0b cd 32 be
       0.07271736 -0.12654285 0.084513605 -0.1746103
000030 5a fe 81 be a6 3f 05 bd 57 27 8e 3e 61 d0 62 be
       -0.25389367 -0.032531403 0.2776439 -0.22149803
000040 e1 b4 16 3d 08 ae 4b 3d ad 83 8e be d3 ed 7d bd
       0.036793593 0.049726516 -0.27834836 -0.061994385
000050 ae 05 57 3e 3e c3 90 3c 58 55 5d 3e ca ba a1 bc
       0.2099826 0.017671224 0.21614587 -0.019742388
000060 eb e8 be 3e da 4b 82 be e9 cc 97 be 9a 3e 1b be
       0.37287077 -0.25448495 -0.29648522 -0.151606
000070 da 69 80 3d 7c be a9 be 98 b2 ab 3e 75 f6 88 bd
       0.062701896 -0.3315314 0.33534694 -0.06687633
000080 1a 5d 65 3e 0a 05 31 3c b1 40 e4 bd db ff c8 3d
       0.22398797 0.010804424 -0.111451514 0.098144256
000090 93 57 99 ba 22 2b d0 bd 31 ea 31 3d 10 54 09 be
       -0.0011699073 -0.10164477 0.043436233 -0.13410974
0000a0 27 50 c9 bd 10 eb dc bd d5 4d 29 be 00 0f 8c 3e
       -0.09829741 -0.10787022 -0.16533597 0.27355194
0000b0 e6 76 1f bd eb 05 ab 3e 7a 1e 8e bd dd 56 b3 3e
       -0.03893175 0.33402953 -0.06939407 0.3502721
0000c0 9c 72 3e be 51 67 62 3e c9 72 f1 3c 8a 07 5f 3e
       -0.18598408 0.22109725 0.02947368 0.2178022
0000d0 f8 38 f7 bb 32 af c2 3d 0a ad 24 3b 10 a9 39 bd
       -0.007544633 0.09506072 0.0025127553 -0.045327246
0000e0 34 be ef bd cb b7 51 bb 09 0e 93 3e 76 67 07 be
       -0.117062 -0.0032000418 0.28721645 -0.13223061
0000f0 8d 28 20 3d 41 f2 c0 bd 05 42 c8 3d d0 5a 00 3e
       0.039101172 -0.09421206 0.09778217 0.12534642
000100 21 8a 1b 3e ca 38 e2 3d 96 f3 a1 3c 14 35 94 bd
       0.15189411 0.11045988 0.019769471 -0.07236686
000110 f9 b4 6a 3e 42 b5 5f 3e 2a c0 2a be c3 a1 be be
       0.22920598 0.21846488 -0.16674867 -0.3723279
000120 16 bf 90 3d b8 14 87 3d 56 00 94 3d 5c 40 0d 3e
       0.07067697 0.06595749 0.072266266 0.13794082
000130 ad f8 b4 be 1c a2 e4 bd 56 0f 00 bd 51 80 18 3e
       -0.35345975 -0.111637324 -0.031264625 0.14892699
000140 f1 ec a2 bd 0b 3e a1 bd d5 38 fe bd ac ee 54 3e
       -0.07955349 -0.07873162 -0.124131836 0.20794171
000150 74 9e 6f be b7 44 c5 3d f7 cf 61 be b6 54 89 bc
       -0.23400289 0.09632247 -0.22051989 -0.016764026
000160 17 57 7a bd b0 e2 10 3e 66 7b 1c be dd 71 a9 bc
       -0.06111821 0.14148974 -0.15281448 -0.020684177
000170 57 8d dd bd ee 8f 70 3e 3c 9d c3 3e 0f fb b8 3e
       -0.10817974 0.23492405 0.38205898 0.36129043
000180 b1 af 38 be 37 a5 c9 3e 06 c5 11 bc 28 e1 20 be
       -0.18035771 0.3938386 -0.008897072 -0.1571089
000190 92 44 eb 3d b6 e0 c8 3d d0 5c fd 3c 96 54 12 be
       0.11487688 0.09808485 0.030928046 -0.1429008
0001a0 92 85 05 bc 1f 18 46 be 38 2c 3f 3e 88 62 ac bd
       -0.008149521 -0.19345139 0.18669212 -0.08417231
0001b0 95 d7 24 be 96 08 71 3d 1e 00 51 3e 72 05 aa 3d
       -0.16097863 0.05884608 0.20410201 0.0830182
0001c0 66 96 59 3e a4 9e 7a bd 60 6a 2d be 16 31 f4 3d
       0.21248779 -0.061186448 -0.1693511 0.11923425
0001d0 29 25 bd 3e a1 df 1e 3e a3 d1 34 3d 35 47 9e bd
       0.36942413 0.15514995 0.044145238 -0.077284254
0001e0 b8 55 3f 3e 2a 9d 7f bc 7d 6a cf bc 22 e7 54 3d
       0.18685043 -0.015601436 -0.025319332 0.051978238
0001f0 e9 29 37 bd 0a 86 a0 3e 4b 1b 42 3e 68 f5 2a 3c
       -0.044717703 0.31352264 0.18955724 0.010434486
000200 88 a0 42 be 5f 7b d7 bd 68 d2 aa 3e 97 7f cf 3d
       -0.1900655 -0.10521578 0.33363652 0.10131758
000210 f9 87 58 be 6f 5e a3 3c 59 a7 97 3c 6a 51 95 bd
       -0.2114562 0.01994249 0.018512415 -0.07290919
000220 ab 07 32 3e 13 af 81 3e 5b 9c fb bd 59 1f 20 3e
       0.17385738 0.25328884 -0.12285682 0.15636958
000230 99 4e a3 bd ea 53 9f be 60 ec 13 3e 96 db 85 bd
       -0.07973976 -0.3111871 0.14445639 -0.06536023
000240 07 5c 9e bb 3a 03 89 3e 16 4f 14 3e 22 f1 44 be
       -0.004832748 0.26760274 0.14483294 -0.1923261
000250 e3 60 a8 bd a0 df fa 3d 37 3c d5 3d 6b 62 e5 bc
       -0.08221605 0.12249684 0.10411876 -0.02800103
000260 2d 12 49 be 4c 4f 22 bd e7 f7 36 3e 79 93 bf bd
       -0.1963584 -0.039626405 0.17868005 -0.093543
000270 39 76 c6 3d 37 98 5e be 96 91 bd bd 09 bd 9c 3e
       0.09690518 -0.21737753 -0.09256284 0.30612972
000280 75 3b f5 bd 56 32 03 bd 78 fb 17 bd e1 22 ab bd
       -0.11974231 -0.032030426 -0.037105054 -0.08356262
000290 61 5e 0a 3d 6b 16 a3 3e c3 f8 76 be 32 c8 72 3e
       0.033781413 0.3185304 -0.24118333 0.23709181
0002a0 a5 66 95 bd 44 f0 6c 3e 5b c2 ad 3d 65 7f c1 3d
       -0.072949685 0.23138529 0.08484336 0.09448127
0002b0 6d d4 85 3e 22 9d 96 3e 51 95 3d 3c aa 3d ae be
       0.2613863 0.29416758 0.011571244 -0.3403142
0002c0 c9 ba 38 3e a4 eb d3 be 1e 2e 43 3e 93 54 b6 3d
       0.18040003 -0.41390717 0.19060561 0.0890285
0002d0 37 b0 2c be a1 4d 7a 3e 83 53 fa bd a7 ca ff bd
       -0.16864096 0.24443676 -0.1222296 -0.12489825
0002e0 22 c5 b9 3d 7c b5 ba be 71 14 c2 bd 2f d2 0d 3e
       0.09070803 -0.36466587 -0.09476555 0.1384971
0002f0 cd 32 37 3e 0b e6 9c 3e ae 56 42 be c6 02 81 be
       0.17890473 0.3064426 -0.18978378 -0.25197428
000300 65 d8 09 be 13 07 6f bc 3e d0 d1 be fc 0d 73 be
       -0.13461454 -0.014589089 -0.4097919 -0.23735803
000310 25 a4 6b be a0 5d c0 3e c6 17 e6 bc ee 54 95 bd
       -0.23011835 0.3757143 -0.028087508 -0.0729159
000320 9e e5 c5 3d d6 f7 4c 3d ed 24 9c 3e 08 6d 5d 3d
       0.09662937 0.050041042 0.30496922 0.05405906
000330 7b f6 75 be 7c 61 e1 bd ee a4 f8 3d 90 d0 6e bd
       -0.24019806 -0.11004922 0.12140833 -0.05830437
000340 d9 f0 40 bd 15 5e 51 3e 3e b3 26 bd 47 cc 51 3e
       -0.04710469 0.20446046 -0.040698282 0.20488082
000350 9f f4 7b 3e f9 43 3b be af fe 7c 3e 9a 2f af be
       0.24605034 -0.18287648 0.24706529 -0.34216005
000360 8a 91 05 bd 6d ae fc bd f0 da 17 be 0d 99 23 bc
       -0.0326095 -0.123379566 -0.14829612 -0.009985221
000370 07 42 04 3e 9c f9 b4 3d 28 f1 81 3c da 83 17 3e
       0.12915812 0.08836672 0.015862063 0.14796391
000380 43 04 1c bd 55 6b 10 be 67 18 0d 3e 56 94 d5 3c
       -0.03809 -0.14103444 0.1377884 0.026071709
000390 e4 b8 10 3d ef 28 87 3e da 89 b2 be 12 2a 04 be
       0.035332575 0.26398417 -0.34870797 -0.12906674
0003a0 93 68 04 be 62 16 16 be af 06 a2 3d e7 4a 6a be
       -0.12930517 -0.14656976 0.07911431 -0.22880135
0003b0 80 2a 41 bd 0f d5 a6 bc 10 3c c2 3d 6c f1 80 3d
       -0.04715967 -0.020365266 0.09484112 0.062960476
0003c0 84 b2 f9 bd 50 9c ed 3d 81 ce 3b be 36 8a a7 3c
       -0.12192252 0.1160208 -0.18340494 0.020451646
0003d0 42 c1 9d bd ac 53 bf be 33 ac ec 3c ac 53 66 3d
       -0.077028766 -0.37368524 0.028890705 0.05623214
0003e0 97 74 23 be e3 c4 50 3d fa 90 2d 3d eb 23 00 be
       -0.15962444 0.050969016 0.04237459 -0.12513702
0003f0 5e 71 34 3e b9 54 81 3d 79 05 65 3d 0f c6 aa 3e
       0.17621371 0.06314988 0.055913422 0.33354232

model/batch_normalization_3/FusedBatchNormV3;model/conv2d_3/Conv2D/ReadVariableOp;model/conv2d_3/Conv2D;model/batch_normalization_9/FusedBatchNormV3 f4 [15, 3, 3, 3]
000000 f7 a5 98 3e be 65 87 3e 68 d9 3a be 8b c1 37 bd
       0.2981412 0.2644481 -0.18246996 -0.04486231
000010 2f ca 9c 3e 4d 00 56 be ae 83 4f bd 4b 0b 71 3e
       0.30623004 -0.20898552 -0.05066269 0.23539464
000020 3a 21 1d 3f 19 a8 87 bc 50 aa 01 be 21 75 bb 3e
       0.61378825 -0.016559647 -0.12662625 0.366128
000030 44 c3 1b be bc 39 0c be 7e b2 9d 3b 92 51 ea 3e
       -0.15211207 -0.13693899 0.0048125377 0.45765358
000040 1f 2a ee bc f0 e2 06 3e 6c e4 9f 3d b5 a6 aa 3e
       -0.02907282 0.13172507 0.0780724 0.33330312
000050 76 63 2c be 58 95 91 be 38 c4 b6 3d 95 34 ed bd
       -0.16834816 -0.28434253 0.089241445 -0.11582295
000060 23 4c d6 3c da 41 cf bd c7 02 6d be 4e 21 0e bf
       0.026159352 -0.10119982 -0.2314559 -0.5551957
000070 fe f6 f2 3e 1d ab 38 3e 2d 12 c6 3c c6 a9 93 3e
       0.47454065 0.18034025 0.024178589 0.28840464
000080 03 9d b9 be 86 ae 68 bd 00 7f 0b bf fc 7b c3 3e
       -0.36252603 -0.056807064 -0.5449066 0.3818053
000090 bd d1 aa 3e 8d ca 82 3d 9e c1 65 be 2c 5d 5f 3d
       0.33363143 0.0638629 -0.2243714 0.054532215
0000a0 e9 38 95 3e 2d 8d fe 3d 27 54 af be 98 80 15 be
       0.29144982 0.12429271 -0.3424389 -0.14599836
0000b0 0c 23 dc be 17 99 f6 3d 0d f6 81 be 9e 64 3b be
       -0.4299549 0.12040918 -0.25383034 -0.18300101
0000c0 8d 8d a2 3d 78 d8 04 3e 5b 8a 06 3f 82 29 6e 3e
       0.07937155 0.12973201 0.52554864 0.23258021
0000d0 4b 73 1c 3e f5 2a de 3d 18 03 94 be 0e b1 88 be
       0.15278356 0.10848037 -0.2890861 -0.26697582
0000e0 ef b6 e2 be b2 69 08 bf f3 93 19 bf 84 9d ef bd
       -0.44280192 -0.5328628 -0.5999138 -0.116999656
0000f0 67 98 2b 3e fc 49 ad bb 96 f6 02 39 13 80 a3 bd
       0.16757356 -0.0052883606 0.00012489627 -0.079834126
000100 5b 3b e6 bd eb fa f2 3e 5c 4b 0d bf 44 bf e7 3c
       -0.1124179 0.4745706 -0.55193114 0.028289445
000110 2f 8a b2 be 83 91 02 bf db 52 c6 be cf 4c 8a be
       -0.3487105 -0.51003283 -0.3873509 -0.27011725
000120 31 4c 28 3e 90 5f 4a 3e 8b ee a4 be 03 55 b3 be
       0.16435315 0.19763017 -0.32213244 -0.35025796
000130 b8 fc a4 3e 0d c6 b1 3d 58 5b 9e 3e bd 72 d4 bd
       0.3222406 0.08680353 0.30929065 -0.10373447
000140 f6 5c 09 bf 11 7e b5 bc 8e 4a 02 3e 80 be 3d 3e
       -0.5365747 -0.02215484 0.12723753 0.18529701
000150 4d 7e f1 3e e7 0e c3 be 5e fb 5c be d0 d7 e8 3e
       0.47166672 -0.38097307 -0.21580264 0.45477152
000160 ce 1a 86 3e b8 db ac be b4 5a 1e 3b f2 8c 0d 3f
       0.26192325 -0.33761382 0.002416295 0.5529319
000170 7c ea 3b 3e d8 4f 3f 3d 16 12 f8 be 34 fe e6 bd
       0.18351167 0.046707004 -0.48451298 -0.11278954
000180 84 77 e0 3c 33 dc 0f be 76 6a 09 bf 7a 41 7c bd
       0.02740074 -0.14048843 -0.5367807 -0.06158588
000190 78 3e 70 3e b1 08 df 3e 60 99 75 bd 9f cd d0 3d
       0.2346133 0.4356132 -0.059960723 0.10195469
0001a0 1f f1 06 3f 64 30 04 3e ae 5d 26 be 6e 2f 68 bc
       0.5271167 0.12909085 -0.16246673 -0.014171464
0001b0 b6 a0 2c 3e d8 e5 c1 3e b2 dd 99 3e b4 ce f5 3d
       0.16858181 0.3787067 0.30051953 0.12002316
0001c0 da 08 e2 3c 55 ce b0 be 4c 02 3b 3e 8c 4c 93 3e
       0.027592111 -0.3453242 0.18262595 0.28769338
0001d0 e8 f9 0c bd 44 2d 15 3f 32 e4 c2 3e b5 a4 9a bd
       -0.034418017 0.58272195 0.38064724 -0.075509466
0001e0 4b c9 1c 3e d8 5d 9f 3d 4a d8 ab 3c 94 65 5f bd
       0.15311162 0.07781571 0.020977158 -0.05454023
0001f0 8f c7 06 be ad df 0e bf 13 64 27 3e d8 37 3c be
       -0.13162063 -0.5581005 0.16346769 -0.18380678
000200 33 eb 6f be df 63 d1 3d 98 3c 6c 3e c5 a2 c3 3e
       -0.23429565 0.10224127 0.2306999 0.3821012
000210 02 8b dd bc df f4 1a 3f 7f 33 4c 3e e5 9d 0d 3e
       -0.027043823 0.60529894 0.19941519 0.13829763
000220 86 ec 99 bd 8f 8c 54 3c fb cb 59 be eb 7e 3e bd
       -0.075158164 0.012972965 -0.21269219 -0.046507757
000230 77 50 42 3e 6a 2c e1 3d b0 0e 90 be 89 27 bd bd
       0.18976007 0.109947994 -0.28136206 -0.09236056
000240 55 f6 b6 3e 8d af a4 be 31 89 24 3c 63 35 07 bf
       0.3573481 -0.32165185 0.010042475 -0.52815837
000250 d4 8e a6 be 11 c0 be bd 3f 30 c2 3e fc 20 94 3e
       -0.32530844 -0.093139775 0.37927434 0.28931415
000260 d0 cc 28 3b cc a6 24 be 74 dc a0 bd 8a 95 f9 3d
       0.0025756843 -0.16079253 -0.07854548 0.121867254
000270 84 f9 ca bd a7 e7 1f be 2f 15 db 3c 55 a4 1f be
       -0.099108726 -0.15615712 0.0267435 -0.15590031
000280 8f 8d bd 3d 10 aa 93 bd 5a 4f 0e 3e 28 0b b0 be
       0.09255516 -0.07210171 0.13897458 -0.34383512
000290 05 6a 36 bc 53 dd 50 3d 8d 4f 4c be 29 14 14 3f
       -0.011133675 0.05099232 -0.19952221 0.5784326
0002a0 1e 0f ed 3c 6d 42 9c be 80 0f 11 bf ea 54 70 be
       0.028937872 -0.3051943 -0.56664276 -0.23469892
0002b0 72 3e 8a 3e fd b1 de bd 4f ce 03 bf c5 24 52 bc
       0.27000767 -0.10873792 -0.51486677 -0.012826149
0002c0 d2 66 df 3d d9 a5 35 bd c2 aa b2 3c fb d2 0c 3e
       0.10908283 -0.044347618 0.02180994 0.13752358
0002d0 4f b4 f8 3d 83 18 ae 3e 72 26 16 bf 92 6c 98 be
       0.12143766 0.34003076 -0.5865241 -0.29770333
0002e0 d0 0c 8f 3e 07 5a bc be 65 06 44 3e b3 c1 e1 bd
       0.27939463 -0.36787435 0.19143064 -0.11023273
0002f0 85 49 22 be 2f 67 f7 be a6 36 cb 3e 1c 75 c1 3d
       -0.15848358 -0.4832091 0.3969013 0.09446165
000300 99 ae 54 be 51 1b a1 3e 42 c9 8d 3e 1b a6 39 be
       -0.20769729 0.31466153 0.2769261 -0.1812977
000310 25 0c 9c 3d 86 89 6b be 91 ed be be ae d3 82 3e
       0.07619504 -0.2300168 -0.37290624 0.25552124
000320 d7 d5 79 3e c8 f7 1b 3f ab 76 83 3d 97 d2 d8 bd
       0.2439798 0.6092496 0.064191185 -0.10587042
000330 6d 8f 60 3d 2e 9c f1 bc 65 a4 54 3d 84 6e 09 3f
       0.05482428 -0.029493418 0.05191459 0.5368426
000340 b6 e4 41 3e 37 cf c3 be 1c 06 ec 3d 4d bc 18 3e
       0.18934903 -0.3824403 0.11524603 0.14915581
000350 ca 5e 0f 3e b6 2a 45 3e 12 dd 76 bd 77 ea 90 3c
       0.14001003 0.19254574 -0.060269423 0.017689927
000360 f7 d6 b7 3e 61 8d 05 3e 9b bd 97 be 0f 14 b7 bd
       0.35906193 0.13042213 -0.29636845 -0.08939373
000370 c1 62 5c bc 3d 4c 1f 3e 97 7a 15 3e 2f 11 66 3e
       -0.013451279 0.15556426 0.14597546 0.22467493
000380 07 cb 83 3e 6a 62 d5 3d 7a 63 83 be 6f 17 00 3e
       0.25740835 0.104191616 -0.25661832 0.12508939
000390 54 33 6d 3e 1b 97 24 3e 14 61 6d 3c 88 d9 9c bd
       0.23164111 0.16073267 0.014488477 -0.07658678
0003a0 49 46 7a bd 74 ea de 3d 9e aa 22 3d cc 4a f8 3e
       -0.061102185 0.10884562 0.039713494 0.48494565
0003b0 f5 95 20 be a1 57 04 3f 27 b0 a5 be 9a 88 dd 3e
       -0.15682204 0.5169621 -0.32360956 0.4326828
0003c0 2f d1 90 be ec 53 23 3e d6 00 ae 3d af 13 a7 be
       -0.28284594 0.15949982 0.08496253 -0.32632205
0003d0 4f 89 e3 3d 25 07 c7 3e c6 73 8a be 62 99 26 be
       0.11110174 0.38872638 -0.27041453 -0.16269448
0003e0 78 92 d7 3e 7d e9 9a 3d bd d0 0c be 9b 17 9e 3e
       0.42103934 0.075640656 -0.13751502 0.30877385
0003f0 3a 3f f5 be ab 05 cf be 02 03 f2 3e 29 9b 5d 3e
       -0.478998 -0.40434012 0.4726792 0.2164122

model/batch_normalization_4/FusedBatchNormV3;model/conv2d_4/Conv2D/ReadVariableOp;model/conv2d_4/Conv2D;model/batch_normalization_9/FusedBatchNormV3 f4 [15, 3, 3, 15]
000000 e9 5d 02 3e 59 21 02 3b ba 93 ad 3d f7 35 4c be
       0.12731136 0.0019856303 0.08475442 -0.19942461
000010 95 28 1b 3e 91 b6 73 bd 5d bf 6c be 69 03 c2 bd
       0.151522 -0.05950028 -0.23119874 -0.09473307
000020 88 70 16 bd 20 12 bf 3d a4 36 6c 3e c7 79 95 bd
       -0.036728412 0.09329629 0.23067719 -0.07298618
000030 6c 38 da bd 49 a3 43 3c 3b 49 e0 bd 6f e3 f7 3d
       -0.10655293 0.011940786 -0.109514676 0.121039264
000040 6b fc 0d 3a 95 23 b6 bd 62 80 79 be 5d ec dd 3d
       0.00054163364 -0.088935055 -0.2436538 0.10836098
000050 2f 93 37 3e 9a 5f 43 3d 7d 84 4d bd 93 12 be bd
       0.1792724 0.047698595 -0.05017518 -0.092808865
000060 2e e1 0b bd 73 f0 16 bd 8d 5e b0 bd 5d 1e 47 bd
       -0.034150295 -0.036850404 -0.08611784 -0.04861294
000070 18 93 c3 3d 86 da 16 bd a2 34 98 3a 11 00 06 be
       0.0954954 -0.036829494 0.0011612365 -0.13085963
000080 8a 85 b9 3d d5 91 d1 bd 26 a7 18 be 96 63 63 be
       0.09058674 -0.102328934 -0.14907512 -0.22205958
000090 06 6c 22 bd 3a a1 d6 3b dc df 37 be bd 76 16 bd
       -0.0396538 0.0065499814 -0.1795649 -0.03673433
0000a0 44 30 2b 3e c1 16 60 bd dd 99 30 be 6c f1 a5 3d
       0.1671763 -0.0547092 -0.17246194 0.08102688
0000b0 83 4c 9d 3d 2a 01 71 3d b4 44 2b 3e 67 16 90 3d
       0.07680609 0.058839 0.16725427 0.07035523
0000c0 0b f1 29 3e c2 0e 02 be cc a0 47 bd d4 54 44 be
       0.16595857 -0.12700942 -0.048737332 -0.19172984
0000d0 f9 5a 36 bd 01 41 00 3d ef e8 56 bd 95 23 86 3d
       -0.044520352 0.031311993 -0.052468237 0.065497555
0000e0 a8 84 6a 3c e5 14 25 be ad 85 63 3d bd dc f6 bd
       0.014313854 -0.16121252 0.055547405 -0.12053821
0000f0 a1 b4 8c 3e 77 5c cc 3d c6 1c 5d 3e 0f 85 ea 3d
       0.2748156 0.09978574 0.21593007 0.1145116
000100 8a 8f 6a be 6c f3 db 3d 8f 66 04 be 84 69 e9 3b
       -0.22906318 0.107397884 -0.12929748 0.007123174
000110 b6 f5 15 bd f1 af d0 3d 88 3a a4 3c a7 30 f9 bd
       -0.03661128 0.10189808 0.020047441 -0.12167483
000120 1a 8d 91 3d 70 83 bf 3d 09 d4 ca bd 13 4a 37 3e
       0.07106991 0.093512416 -0.09903724 0.17899351
000130 d7 b9 28 be 1a d0 14 be a4 5f 9c bd 80 40 7f 3d
       -0.16477142 -0.1453251 -0.076354295 0.06231737
000140 8d 52 4f bd 70 fe 1d bd 2c 4a 20 3d 4a 1b bf bd
       -0.050615836 -0.03857273 0.039133236 -0.09331377
000150 d6 2e 33 be ff 54 89 be 75 a7 0f be f9 4e b4 3d
       -0.17498335 -0.2682266 -0.14028724 0.08804125
000160 7a 68 e1 3d f1 4b 5f 3e 3b f6 2e 3e ed d8 3f 3e
       0.110062554 0.21806313 0.17086117 0.18735094
000170 d2 33 b7 3c 60 f7 45 3d d4 22 b2 bd d3 86 41 bc
       0.022363577 0.04833162 -0.08698049 -0.01181193
000180 cf 0d 77 3d 64 85 fc 3c 5c ea 5c be e2 99 f2 bd
       0.060315903 0.030825324 -0.21573776 -0.11845757
000190 db 95 5e 3d 2f 9f 00 be d8 9b 5d 3b 8a 7a 64 3d
       0.054342132 -0.12560724 0.0033814814 0.055780925
0001a0 25 35 b4 bd 6d cb 50 3d 12 f8 38 bd 7e 5f bf bd
       -0.08799199 0.050975252 -0.045158453 -0.093443856
0001b0 ff df 3d 3e d9 f9 49 bd e0 27 95 3d 04 5f a6 bd
       0.18542479 -0.04931054 0.07282996 -0.081235915
0001c0 6f 44 06 be d6 dd 9a bd ee 9d 26 3e 7a 77 8b 3d
       -0.13112043 -0.07561843 0.16271183 0.06809898
0001d0 4a 5d 24 3e eb aa 24 3e 6e 5e c7 bd f5 06 28 3e
       0.16051212 0.16080825 -0.09734808 0.16408904
0001e0 4b 36 72 be 1a 86 94 3c fb da ea 3d 67 36 06 3e
       -0.23653524 0.01813035 0.114675485 0.1310669
0001f0 58 bb 31 3e 74 fb a8 3d 6b 12 17 3e c8 7c 89 3d
       0.17356622 0.08251086 0.1475312 0.06713253
000200 9a 70 38 be cd 1e 0b 3e b1 10 4f 3e a7 9e d7 bd
       -0.18011704 0.13585968 0.20221211 -0.105283074
000210 89 9b be 3d 42 7d 0b be 9d d1 6f be 0f c3 82 3e
       0.0930701 -0.13622001 -0.23419805 0.25539443
000220 a9 a8 05 3e f8 14 9d 3b f8 ab 80 3d 73 96 05 3e
       0.1305262 0.0047937594 0.062828004 0.13045673
000230 0a b2 b4 bc d9 e3 bb bc c0 4a bf bd f4 e3 8b 3d
       -0.022057552 -0.022935795 -0.09340429 0.06830588
000240 e5 d6 09 be ad 53 e5 bd e5 6b 94 bd d7 a7 01 be
       -0.13460882 -0.111976005 -0.07247142 -0.12661682
000250 90 0e 26 3d 8f 04 eb 3d b3 84 d9 bc 32 d3 5b 3c
       0.04054123 0.11475479 -0.026552534 0.013417052
000260 61 df 0e 3e c0 93 4f 3d 92 5e 45 3d 31 fc 2e bd
       0.139524 0.050678015 0.048185892 -0.042720977
000270 25 34 8c be dc 10 5d be f8 d0 a0 3d 12 7e 11 3d
       -0.27383533 -0.21588463 0.078523576 0.03552062
000280 ee 57 bf 3d 3c 3b 53 be 1e 57 e7 3c 57 90 48 be
       0.09342943 -0.20628065 0.028239783 -0.19586311
000290 9c b6 4a bd e4 fe da 3d 70 11 50 bc 79 73 b9 bd
       -0.049490556 0.10693148 -0.01269947 -0.09055228
0002a0 e2 91 a9 bd 22 53 ec bd ca a9 07 3d 2b 11 2b 3d
       -0.08279778 -0.11539294 0.033120908 0.04176442
0002b0 0c 0b d7 bd 48 3e 70 3d 92 ce 5d 3e 7c 4b c1 bd
       -0.10500154 0.058653146 0.21660832 -0.094382256
0002c0 7e 8d 17 bd 3c d3 c4 3d b6 e3 20 3d 15 64 9f bb
       -0.03700017 0.09610602 0.039279662 -0.0048642256
0002d0 80 ee 45 3d e7 e0 53 be ff 94 36 3d b8 1c 77 3d
       0.048323154 -0.20691262 0.044575687 0.060330123
0002e0 c9 b6 45 3d 21 6f b5 bd 4a dc 29 be 78 68 c1 bc
       0.04827002 -0.08859087 -0.1658794 -0.023609385
0002f0 60 b5 00 be db b4 7b be 59 5c 72 be 2d 9d c7 3c
       -0.12569189 -0.2458071 -0.2366804 0.02436694
000300 6d 43 f8 3d 9e 7f 2e bd 10 5b 89 be 19 c9 81 bd
       0.121222354 -0.042602174 -0.26827288 -0.063371845
000310 44 8f e5 3b 25 cf 4b bd c6 68 15 3e c8 92 46 bc
       0.007005604 -0.049758095 0.14590749 -0.012119956
000320 26 27 87 be 46 07 f9 bc 4a cc ab bc 23 f5 12 bd
       -0.26397055 -0.030398976 -0.020971436 -0.03587831
000330 97 69 fc bd d2 63 0b bd ea 1b 0f 3e 9a 98 f8 bd
       -0.12324827 -0.034030743 0.13975492 -0.121384814
000340 61 a9 29 bd a9 fa f2 bd 94 1a 50 3e 16 7b 26 be
       -0.041421298 -0.11864216 0.20322639 -0.16257891
000350 88 a9 29 be 31 e1 56 3c 9f 29 8a bd 9d 94 6c bd
       -0.16568577 0.013115213 -0.0674622 -0.057758916
000360 f1 1f 45 be 3f f4 c4 bd a5 43 51 bd d9 31 4d bd
       -0.19250466 -0.09616899 -0.0510899 -0.050096367
000370 be bf 17 bd a6 08 76 bd d3 0c 85 3e 5a b8 35 3c
       -0.037048094 -0.06006684 0.25986347 0.011091316
000380 66 7a 7f 3d 3d 04 d6 bd cc 0d b1 3d de 05 b3 3d
       0.062372588 -0.10450027 0.0864521 0.087413535
000390 4f 7f e2 bd f4 6b ac 3d 58 30 74 bc 05 74 81 3e
       -0.110594384 0.08419028 -0.014904104 0.25283828
0003a0 63 7d 11 be 1e db af 3d 1b e3 c5 bd 7d 59 bc 3d
       -0.14207987 0.08586715 -0.096624576 0.09196756
0003b0 50 6e 81 bb ac 9f 63 3d ff 9c f5 bd f6 5a 00 3e
       -0.003949918 0.055572197 -0.11992835 0.12534699
0003c0 b2 95 b0 bc 02 8e a1 3c 12 9b d6 3d e5 1e e3 bd
       -0.021555755 0.019721035 0.10478796 -0.11089877
0003d0 db ae cf bd 4d 47 e0 bd 95 d7 17 3e 76 f5 bd 3d
       -0.10140773 -0.109510995 0.14828332 0.092753336
0003e0 28 16 e8 3d 3a 31 fa bd 74 4a ae 3d 30 ff bc 3d
       0.11332351 -0.122164205 0.085102946 0.09228361
0003f0 cf cc d7 bd b2 af 40 bd fe f2 65 be 25 61 56 be
       -0.10537111 -0.047042556 -0.22455975 -0.20935495

model/batch_normalization_5/FusedBatchNormV3;model/conv2d_5/Conv2D/ReadVariableOp;model/conv2d_5/Conv2D;model/batch_normalization_9/FusedBatchNormV3 f4 [15, 3, 3, 15]
000000 21 d0 f1 bd b0 69 f6 bd 74 d3 cb 3d ad 66 15 be
       -0.118072756 -0.12031877 0.09952441 -0.14589949
000010 f1 7e 14 3d ac 6a bf 3c 8d 1b 43 be c5 b1 d9 3d
       0.036253873 0.023366295 -0.19053479 0.1062961
000020 a9 9d f1 3c 74 87 00 be 1c ce 85 bc 5e 39 25 3e
       0.029494124 -0.12551671 -0.016333632 0.16135165
000030 10 5d 8f bc 73 93 73 bd d3 49 19 be 8c 65 38 3d
       -0.01750043 -0.05946679 -0.14969568 0.045018718
000040 ac 2e 1f bd 61 21 b2 bc a6 40 28 3c c1 08 2e 3e
       -0.03886287 -0.021744432 0.01026932 0.16995527
000050 ac 28 fc 3d 83 67 01 3d 09 82 e1 bc b2 0a 37 3e
       0.12312445 0.031592857 -0.027527826 0.17875174
000060 3f 0d 29 bd 8d a0 13 3d d9 79 4f 3e a4 e5 5a 3d
       -0.041272398 0.036041785 0.20261325 0.05344166
000070 a1 2e 9a 3b 68 9a f0 3d 07 03 45 be a3 97 f4 3d
       0.0047052656 0.11748201 -0.19239436 0.11942985
000080 77 88 cc 3d 2c cd 4b 3e c8 61 f2 bd 3f 56 4a be
       0.09986966 0.19902486 -0.118350565 -0.19759463
000090 cc 16 5e 3e 90 7f 47 3d ad 66 8a bd e6 5b 43 be
       0.21688384 0.048705637 -0.06757865 -0.19078025
0000a0 1e 23 05 bd 33 e1 a9 3d 16 f1 4e 3e 4c 30 33 be
       -0.032504193 0.082949065 0.20209154 -0.17498893
0000b0 38 3f 07 be 16 2a 5b 3d c4 04 80 3c 70 7f e6 3d
       -0.1320771 0.053506933 0.015627272 0.112547755
0000c0 5c 7f e5 3c 21 a9 a9 3d 97 bd cd bc 22 00 10 be
       0.028014831 0.08284212 -0.025114818 -0.1406255
0000d0 b5 f6 f3 bc 07 88 e5 bd 38 d9 6f bd dc 8f fa 3c
       -0.029780725 -0.11207586 -0.058556765 0.030586176
0000e0 cf 9b 04 be df f1 88 bd 13 44 bf 3d d5 45 61 be
       -0.12950061 -0.06686758 0.09339156 -0.21999295
0000f0 3e 2a c1 bd e2 09 95 3d 71 8f f2 3d 13 20 5c be
       -0.09431885 0.072772756 0.118437655 -0.2149661
000100 49 d0 46 3e f2 9b 4b 3e 2e ad 4c 3e 50 ef 41 3e
       0.19415392 0.19883707 0.19987938 0.18938947
000110 a5 25 95 bd 98 c9 83 3c d6 cb cf 3d 72 b3 8c 3d
       -0.07282571 0.016087338 0.101463005 0.06870164
000120 68 73 4e 3d dc 00 f3 bd dd fc 01 3e d0 36 2f 3d
       0.05040303 -0.11865398 0.12694116 0.042776883
000130 49 78 d4 bd 58 4d bb bc 59 99 18 3e 3e 93 50 3d
       -0.10374505 -0.022864029 0.14902247 0.05092167
000140 ca 08 04 bd 61 e7 16 be cb 90 a2 3d 5a a4 f3 3a
       -0.032234944 -0.14736702 0.07937773 0.0018588409
000150 f3 0d 4f 3e ae c1 5f 3e f2 9a 1a be e2 a8 fc bd
       0.20220165 0.21851227 -0.1509817 -0.12336899
000160 60 c9 5c 3e 81 76 9d 3d a2 56 0d bd 15 d6 30 be
       0.21561193 0.076886185 -0.034506448 -0.17269166
000170 38 de 9e bd c7 09 56 be 0b 0b c3 3d ea e4 15 3e
       -0.077572286 -0.20902167 0.09523591 0.14638105
000180 64 da ce 3d a9 89 ae bc 41 0c c5 3d cf d3 79 3c
       0.101002485 -0.021305876 0.09621478 0.015248253
000190 78 f0 18 be 17 48 1b 3e 15 ae 13 bc 8d e9 3f 3d
       -0.14935482 0.15164219 -0.009013672 0.04685359
0001a0 b6 7c 2e 3d 39 a3 ef bd 67 0e c5 bb 2e 70 4c 3e
       0.042599402 -0.11701054 -0.00601368 0.19964668
0001b0 4f 27 4a be f9 b8 83 bc c1 8c f1 3c 3b c5 23 3d
       -0.19741558 -0.016079413 0.029486062 0.039983016
0001c0 29 e5 3f be 82 81 40 bd 34 2c d1 bd ef 38 da 3c
       -0.18739761 -0.04699851 -0.10213509 0.026638476
0001d0 53 10 e7 3c b6 39 2b be 56 71 f7 bd d2 d5 fb bd
       0.028206026 -0.16721234 -0.12082164 -0.12296642
0001e0 7b bd 00 3e cf c5 30 be bc ef eb 3d ca 77 63 3c
       0.12572281 -0.17262958 0.11520335 0.01388354
0001f0 d7 28 15 be 2d 0e 8d 3d 74 f8 03 be 2a 45 30 be
       -0.1456636 0.068874694 -0.12887746 -0.17213884
000200 9c fe bd 3d b9 21 6e bd d5 d0 8b be 3f 1f 0d be
       0.092770785 -0.05813763 -0.27307764 -0.1378145
000210 fc cf 18 3e 22 24 a5 bd 2d 9c a6 3d 81 73 29 be
       0.1492309 -0.080635324 0.08135257 -0.16547967
000220 38 57 ed bd 21 42 a8 3d 3c 2f 0c 3e 51 04 33 3e
       -0.11588901 0.08215738 0.13689893 0.17482115
000230 d6 f2 89 bd 00 5f ad 3d 5f a0 fb bd 70 c8 3b 3e
       -0.067357704 0.084653854 -0.12286448 0.1833818
000240 64 49 49 bc b3 2f 5a 3d ec e9 2d 3d a2 1c 0a bc
       -0.012285564 0.053268146 0.042459413 -0.008429678
000250 d4 74 e1 bd 0e 63 a8 bd cf 3a 04 bd 65 44 3c bd
       -0.11008611 -0.08222018 -0.032282647 -0.045963664
000260 89 a7 63 bc cb 85 f4 3d 02 ea c3 3d 1a e3 58 bd
       -0.013894924 0.119395815 0.09566118 -0.052950956
000270 bc 90 1f 3e 28 6a 71 3d 3f d8 15 3e fa 95 a3 3d
       0.15582556 0.05893913 0.14633273 0.0798759
000280 ac b7 37 bd 50 c0 98 3d 5d 4f a3 3d 16 92 0a 3d
       -0.044852898 0.07458556 0.07974122 0.033830725
000290 d7 e7 43 be 6e 8f 05 3d 2c be 1b be 03 da 95 3b
       -0.19131409 0.03260749 -0.15209264 0.004573108
0002a0 a3 c3 26 3e f6 fe f1 3d 5e ab 52 3e b3 0d 97 bc
       0.16285567 0.11816208 0.20573184 -0.01843915
0002b0 b3 51 47 3d d6 18 3d bd f2 09 d2 3d 21 d6 0a be
       0.0486619 -0.046166264 0.10255803 -0.13558246
0002c0 1d 70 2c be ad d1 86 bd 4a 29 80 3d ef df cb 3c
       -0.16839643 -0.06582961 0.06257875 0.024887053
0002d0 0d 80 b2 bd 86 22 df bd e3 ce 84 be e3 12 5f bd
       -0.0871583 -0.10895257 -0.25939092 -0.05446137
0002e0 25 00 b7 3d cf 8e 02 3e d2 5a d5 bd 9a ee 79 bd
       0.089355744 0.1274979 -0.10417713 -0.061018564
0002f0 e5 2a 45 be 6d c9 54 3e f8 11 13 be 24 4b ab bd
       -0.19254644 0.20779963 -0.14362323 -0.08363941
000300 ba cd 35 3d da 69 11 bd 00 d3 7e bc 0b fd 3a be
       0.04438565 -0.03550134 -0.015553236 -0.1826059
000310 b9 50 05 3e 5b 6b aa 3d 92 e8 af bd 6a 66 b5 bd
       0.13019074 0.08321258 -0.08589281 -0.088574246
000320 9f 37 11 3e 11 cd 41 3d ec 94 8a be 90 55 10 bd
       0.14181374 0.047314707 -0.27066743 -0.03523785
000330 a2 f1 a9 bd 91 5b 00 bd 0a b4 17 bc cb 2f a4 3d
       -0.08298041 -0.031337325 -0.009259233 0.08016928
000340 ce 0d 51 3e 8a 7f 18 bd 0b 8c 46 bd 9c 1d 09 3d
       0.20415422 -0.037231006 -0.0484734 0.033475503
000350 25 d1 59 bd 65 54 3f 3e a8 e0 80 bc 7f d0 42 39
       -0.05317797 0.18684538 -0.015732124 0.00018578953
000360 d7 88 9a 3d 7f bb 8b be 8a 43 a8 bc bb c7 2c 3e
       0.075456314 -0.27291486 -0.020540018 0.16873066
000370 a6 e2 1f be 53 d2 c2 bb c1 7f d5 bd 71 78 81 3e
       -0.15613803 -0.0059454828 -0.10424758 0.25287202
000380 ac c7 93 3c ed 73 00 3e 52 3a 5e 3e 17 c7 ee 3d
       0.018039547 0.12544222 0.21701935 0.11659067
000390 e3 97 e8 3c 5d ce d1 bb 27 81 21 3e 1c fc 49 be
       0.028392738 -0.0064027742 0.15771924 -0.19725078
0003a0 15 f1 cb 3d 15 3f e7 bd a5 15 0b be b4 f9 9c 3d
       0.09958092 -0.11291329 -0.13582475 0.076648146
0003b0 56 41 47 3e f2 7e dc 3c 62 a6 a5 3d cc 03 92 3d
       0.19458517 0.026916001 0.08088376 0.071296304
0003c0 2e 96 30 bc 49 a3 cd bc 7f f4 01 be 97 7d 02 be
       -0.010777993 -0.025102274 -0.12690924 -0.12743221
0003d0 4f d5 3c bd 93 df 56 bd a8 62 d5 bd 30 54 2b 3e
       -0.046101864 -0.05245931 -0.10419208 0.16731334
0003e0 77 88 09 3d 9b e9 85 be 22 82 85 3d 03 77 f2 3a
       0.03357741 -0.2615479 0.065189615 0.0018498603
0003f0 b9 74 9a 3d 2d 96 b3 3b ef 1c 12 3e 77 f9 1a be
       0.07541794 0.005480549 0.1426885 -0.15134226

model/batch_normalization_6/FusedBatchNormV3;model/conv2d_6/Conv2D/ReadVariableOp;model/conv2d_6/Conv2D;model/batch_normalization_9/FusedBatchNormV3 f4 [15, 3, 3, 15]
000000 22 1d ee 3d aa da 6a bd 65 e6 92 3d 36 c5 f3 bd
       0.116266504 -0.05733744 0.071728505 -0.119028494
000010 87 e0 a9 bd 15 45 02 3d 47 92 73 3e 61 54 72 3e
       -0.08294778 0.031804163 0.23786269 0.23665
000020 fb 60 f7 3d 3f 33 82 3e d9 0b cf 3c 1b a1 53 be
       0.120790444 0.25429723 0.025274204 -0.20666926
000030 e8 a4 21 3e 76 5b 64 be d3 a6 43 3e a9 34 4b bd
       0.15785563 -0.22300515 0.19106607 -0.049610768
000040 12 5a 27 be 7d 85 18 bd 7a 31 53 be ac 58 23 bd
       -0.16342953 -0.03723668 -0.20624343 -0.039879486
000050 60 f7 ff 3d 15 d9 29 bd 9d 37 8f bd 71 9d b4 3d
       0.12498355 -0.04146679 -0.06993029 0.08819092
000060 bf 00 56 be ea 0c 07 be 99 67 c4 3c 20 ae c9 bd
       -0.20898722 -0.1318852 0.02397518 -0.09847665
000070 f2 9f fd 3c c2 7e 78 bd 27 df 67 3e ba a7 20 3e
       0.030960057 -0.06066776 0.2264372 0.15688983
000080 a3 2b b2 bd 52 3b 21 3d 32 c6 e9 3d 0d 4e 3e bd
       -0.08699729 0.039363213 0.11414756 -0.046461154
000090 6e 95 de 3c 09 ef cd 3d 4b 9c 0c 3d 15 be 0a bd
       0.027170863 0.10055358 0.03432874 -0.033872683
0000a0 fe d0 ac 3b 78 86 a4 bd 8d c5 9d 3d 8e 3d dc bd
       0.0052739372 -0.080334604 0.077036954 -0.10753928
0000b0 b6 5c 48 3d 79 a5 d8 bd 7f 01 1b 3e f2 b3 a1 bd
       0.04891654 -0.105784364 0.1513729 -0.0789565
0000c0 da 82 1b 3e 03 ba 81 3d d4 8a 52 3e 1b ca 15 be
       0.15186635 0.06334307 0.20560771 -0.14627878
0000d0 af 35 1a 3d 36 ba 6a 3d 83 6d 77 3e 81 fb 57 3e
       0.037648853 0.05730649 0.24162869 0.21092035
0000e0 39 1c 08 be f2 62 21 3e a8 58 5a bd 82 96 d7 3d
       -0.13292016 0.15760401 -0.053307205 0.10526754
0000f0 e2 27 09 3e d1 a0 0e 3d 3e 74 e0 bd d8 9c 4e 3e
       0.1339412 0.034821335 -0.109596714 0.20177019
000100 1f df f2 3d 65 df 85 be ca 36 08 3c 2a c2 86 3d
       0.11858963 -0.26147 0.008313844 0.065800026
000110 1f 8a 0c be be f1 17 3e 6d 13 38 3e 76 c9 36 3e
       -0.13724564 0.14838311 0.1797616 0.17850289
000120 96 03 1e 3e a4 44 e9 bc 3e f7 05 3e b4 36 33 be
       0.15431055 -0.028475113 0.13082597 -0.17501336
000130 2a c8 ab bd 8e f5 9f bd 50 30 3f be f6 7e 0c 3e
       -0.08387788 -0.07810508 -0.18670774 0.13720307
000140 5e 4f 76 3e 8c 64 9f 3d dc d1 3c 3d e1 11 25 bd
       0.24053714 0.0778285 0.046098575 -0.040300254
000150 f3 ba 4f bd 2c 4f 02 be 86 be b1 3c fd fe ee 3d
       -0.050715398 -0.12725514 0.021697294 0.11669729
000160 e4 09 81 bd 49 ea 44 bd c6 df 39 3d 47 b9 1a 3e
       -0.063007146 -0.048074994 0.045379423 0.1510974
000170 f7 88 17 bd 9b ec db bd 58 ef d6 3d f1 c2 8f bd
       -0.036995854 -0.10738488 0.1049487 -0.07019604
000180 99 e8 be bc ab fe f0 3d b3 18 e3 bd ef 1e 3b bc
       -0.02330427 0.11767324 -0.110886954 -0.011420949
000190 4d 1c 63 3d 88 62 60 bd 70 94 53 be 10 9f e1 3b
       0.05544691 -0.054781467 -0.20662093 0.006885417
0001a0 18 e1 ef bd 89 c9 d8 bc b8 7e 22 3e d2 d7 13 be
       -0.11712855 -0.026463287 0.15868652 -0.14437798
0001b0 c5 a3 4e 3e 9c 51 a5 bd b6 b0 8d 3b c3 fa f6 3c
       0.2017966 -0.080722064 0.004324044 0.03014887
0001c0 f5 3d f7 bc 1a b3 f9 3c c0 b2 1b 3e da 4a c2 3d
       -0.03018091 0.03048091 0.15204906 0.09486933
0001d0 cb 0b 70 3d 9a 0e 74 bd a8 74 78 3d 30 50 b9 3c
       0.058604997 -0.059584238 0.060658127 0.022621244
0001e0 5d d8 e8 bd 2d 07 67 bc 06 cc d8 bd 63 b4 31 be
       -0.11369393 -0.014100832 -0.105857894 -0.17353968
0001f0 f0 86 4f 3e bc a1 0e 3e df 73 0a bc 29 66 38 3e
       0.20266318 0.13928884 -0.008450477 0.18007721
000200 66 2b b4 bd 9f 86 53 bd 84 02 1c 3e d0 81 4d 3e
       -0.0879734 -0.051642057 0.15235335 0.20069051
000210 1f 19 18 3e 0a 00 06 3e bb 04 fc 3d 89 16 5f 3c
       0.14853333 0.13085952 0.1230559 0.013616213
000220 69 e1 17 3e 3a 6d b0 bd eb f7 26 be c4 11 8d be
       0.14832081 -0.08614583 -0.1630551 -0.27552617
000230 3c cd 51 3e 61 4a 55 3d 69 9e 34 be 2c dc 2c be
       0.20488447 0.052072886 -0.17638554 -0.16880864
000240 22 83 6b be 5c 74 2a 3d f5 67 37 bd 11 ed 53 3d
       -0.22999242 0.041614875 -0.044776876 0.051739756
000250 1d 11 81 3d 15 43 f0 3d 40 9e 1d 3e b8 03 02 be
       0.06302092 0.11731545 0.15392399 -0.12696731
000260 c0 b7 d6 3d a9 64 ec 3d d0 45 5f 3e 48 cd 59 bd
       0.10484266 0.11542637 0.21803975 -0.053174287
000270 21 41 05 3c 31 9f f4 bc 72 32 d5 3d e3 76 26 3e
       0.008133204 -0.029861065 0.10410012 0.16256289
000280 ca c1 43 be 91 32 38 3d 01 fc 16 bc 66 5d fb 3d
       -0.19116893 0.0449701 -0.009215356 0.12273674
000290 d3 fe 84 3d e9 90 89 bb 97 87 ff bd d3 b6 46 bd
       0.06493916 -0.004198183 -0.124770336 -0.0485142
0002a0 61 04 ad 3d 8e 87 77 3e d1 37 fe 3d 62 68 7f 3d
       0.08448101 0.24172804 0.1241299 0.062355407
0002b0 4a eb 64 bc 72 38 9d 3d a4 6d ec bc 00 94 0c bd
       -0.013972113 0.07676782 -0.028860874 -0.03432083
0002c0 56 54 77 3c 31 a0 80 bd 25 e0 48 bd 76 a6 b5 bd
       0.015095791 -0.06280554 -0.049041886 -0.088696405
0002d0 c4 db 6e 3e a8 d8 44 be b4 d9 ca 3d cf 30 36 bd
       0.23326021 -0.19223273 0.09904805 -0.04448014
0002e0 2e 34 18 bd 05 a7 22 be 31 28 b3 3d 17 f7 27 3c
       -0.037159137 -0.15884025 0.087479 0.010251782
0002f0 20 9c ac 3c a8 06 89 bd 11 f4 1a 3e 56 29 3b be
       0.02107054 -0.06690723 0.15132166 -0.18277487
000300 46 51 1c be ef c7 36 3a 5f fe 0a be a8 20 87 3d
       -0.15265378 0.00069725415 -0.13573597 0.065980256
000310 32 92 cb 3d 95 eb 18 be 5a 15 54 bd 22 06 36 bd
       0.09939994 -0.14933617 -0.051778175 -0.044439442
000320 46 e1 bd 3c 46 8f f4 bb 34 c7 78 bd 99 d7 0e be
       0.023178708 -0.0074633686 -0.06073685 -0.13949431
000330 bd 8c c3 3d 3d f3 bf bd 53 3f 93 bd 95 5f 4a 3e
       0.09548328 -0.09372566 -0.071898125 0.19763024
000340 d4 bd a6 bd c6 1d 9d bd 61 c2 e1 3c 78 9f 18 be
       -0.081416756 -0.076716945 0.027558507 -0.14904583
000350 e4 32 9d bd ad c2 b0 bd ef 60 17 bd bd 99 18 3e
       -0.07675722 -0.086308815 -0.036957677 0.14902397
000360 4b 73 85 3d 2c 3d 26 bd 43 4f a2 3d 18 2c 86 bd
       0.06516131 -0.04058568 0.07925274 -0.06551379
000370 f7 68 ab 3d 08 c9 29 3d 6f 14 16 be 02 83 a3 bd
       0.0836963 0.041451484 -0.14656232 -0.07983972
000380 57 2c 03 3e f8 41 12 be 37 fd fe bd 3c 65 28 be
       0.12809883 -0.14282978 -0.12450641 -0.16444868
000390 54 fe ce bd 97 ac 58 3e 6e f6 5e 3d 77 17 02 3e
       -0.10107103 0.21159588 0.054434232 0.12704264
0003a0 10 ac 34 3d d0 57 95 bb 37 28 7b 3d c9 c2 87 bd
       0.044109404 -0.004557587 0.06131765 -0.06628949
0003b0 ab 79 28 be 90 fc e1 3c 20 8a 14 be a0 38 0e 3e
       -0.16452663 0.027586251 -0.14505816 0.13888788
0003c0 c3 b9 14 3e 5c 5b b3 3d 31 74 ba 3d f2 35 b2 3d
       0.14523987 0.0875766 0.09104193 0.087016955
0003d0 f0 ca 01 3d 53 dd f0 3a 12 62 ba bd 6b 7e d2 bc
       0.031687677 0.0018376507 -0.09100737 -0.025695046
0003e0 47 d4 fd 3d 61 3b 8b be 2c 3b 52 3e 25 57 8a 3e
       0.12394004 -0.2719374 0.20530385 0.2701961
0003f0 64 ae 76 3e 64 bb 91 bd fc 54 18 3e 41 8b b8 bd
       0.24089962 -0.0711582 0.14876169 -0.090109356

model/batch_normalization_7/FusedBatchNormV3;model/conv2d_7/Conv2D/ReadVariableOp;model/conv2d_7/Conv2D;model/batch_normalization_9/FusedBatchNormV3 f4 [15, 3, 3, 15]
000000 cc e5 85 3d 80 a0 03 be 23 bd e0 3b 07 07 ce bd
       0.06537971 -0.12854195 0.0068584844 -0.10059934
000010 1c d2 15 be fe 27 b2 bd 51 a4 f3 bd 2a 6f d7 3d
       -0.14630932 -0.08699034 -0.11896575 0.1051925
000020 71 c0 9c 3c db f5 88 ba d5 5f 5f 3e 13 2c da bb
       0.019134732 -0.0010449247 0.21813901 -0.006658086
000030 ba 25 99 bc b5 c5 40 3e cc 67 1c be 63 4e b7 bb
       -0.018694747 0.18825419 -0.1527397 -0.005594061
000040 de 7e ab 3c 94 4e a5 bd e3 d5 72 3d a4 60 42 bd
       0.020934518 -0.08071628 0.05928601 -0.047455445
000050 8d 84 b9 bd 26 3c ac bb 27 57 f5 bd 08 b2 48 be
       -0.09058485 -0.0052561937 -0.119795136 -0.19599164
000060 88 2f 72 3c 77 98 a5 3d bd d9 47 3d 57 ef 22 be
       0.01478184 0.08085721 0.048791636 -0.15911613
000070 32 ff 9e bd fd dc d5 bd d7 e2 85 3d 49 46 b7 3b
       -0.077635184 -0.10442541 0.06537407 0.0055930954
000080 8f 52 d4 3c 58 e1 84 3d 59 4f 66 bd 6d 83 8b be
       0.025918273 0.064882934 -0.056228016 -0.27248707
000090 2a 8b a2 bd f1 67 36 be 3e 7a db bd f0 db 58 3d
       -0.079367 -0.17813088 -0.10716675 0.052944124
0000a0 6e b3 b1 3d c7 fc 00 3d bd b9 a9 3d e7 53 16 bc
       0.086768016 0.031491067 0.0828738 -0.009175277
0000b0 3e ab 01 3e bf df 61 3d fe d3 0d 3e 31 56 a2 3c
       0.1266298 0.05514502 0.138504 0.01981649
0000c0 cb 97 8a be 33 97 dd 3d 16 34 ce 3d 3a 73 ba bc
       -0.27068934 0.108198546 0.10068528 -0.022760022
0000d0 81 c4 88 bd 4c cd 02 3e c1 92 33 be 40 d3 e7 3b
       -0.06678105 0.12773627 -0.17536451 0.0070747435
0000e0 52 ff bc 3d ca 0b b7 bd 18 43 bf bd 71 1e 0f be
       0.09228386 -0.089377955 -0.09338969 -0.13976456
0000f0 1c b2 fd bc 57 df c7 3d 9a 7d 93 bc e9 c7 6b 3e
       -0.030968718 0.097593956 -0.018004227 0.23025478
000100 0b b9 50 bc 14 23 7d bd de 43 86 bd d6 ff 60 3e
       -0.01273943 -0.06180103 -0.065559134 0.21972594
000110 50 f4 1a 3e 31 9a d5 bd 7a b6 af 3b 17 cf 80 be
       0.1513226 -0.104298 0.005362329 -0.25157997
000120 cc 8f 33 3e bc 9c 25 3e d5 dc 73 3d 41 5d ce 3c
       0.17535323 0.1617307 0.059536774 0.025190951
000130 8d f3 72 bc 08 e6 42 bc 2d 7a b9 bb 5e f1 17 bd
       -0.014828575 -0.011895664 -0.0056603164 -0.03709542
000140 6e 64 d6 3b 18 62 c2 3c 3c 4e 99 3d 07 6b 6b 3e
       0.006542734 0.023728415 0.07485625 0.22990046
000150 10 9d 45 3d be d7 f2 3d af ea e2 bd 10 0d bd 3c
       0.04824549 0.11857556 -0.110799186 0.023077518
000160 9c a9 81 3d ac 3c 0b bb 98 11 40 be 5a fb a9 bd
       0.063311785 -0.002124588 -0.18756711 -0.08299895
000170 84 9c b9 bc 12 71 fb 3d 3f ec 46 3e be 14 22 be
       -0.02265764 0.12277426 0.19426058 -0.15828225
000180 b6 d8 1d 3d 7f 70 b5 3d e4 95 ef 3d 49 f8 aa bd
       0.03853675 0.088593476 0.11698511 -0.08348138
000190 4d c2 eb bd e2 04 35 3d db 97 25 be 3e 11 75 bd
       -0.11511669 0.04419411 -0.1617121 -0.059830897
0001a0 db 66 f7 bd a8 91 04 bc 34 62 96 3d b2 6d a3 3d
       -0.12080165 -0.008091368 0.073429495 0.07979907
0001b0 2f 15 23 3d 20 80 e2 3d ed b1 83 bc 1f e1 f7 3d
       0.039815124 0.11059594 -0.016076053 0.12103485
0001c0 e8 21 48 3d b8 00 7e 3e 86 5c 73 3e 1c 6c 4d be
       0.04886046 0.24804962 0.23765764 -0.20060772
0001d0 1f 07 eb 3d 5f 9e 4c 3e 43 11 4f 3e 96 e2 d8 bc
       0.114759676 0.19982289 0.20221429 -0.026475232
0001e0 47 66 18 3e 1a cd 9a bd df ef 47 be a4 26 2c be
       0.14882766 -0.07558651 -0.19525097 -0.16811615
0001f0 f8 14 7d be 08 1e 80 3d 7b 35 7f bd ec 39 08 be
       -0.2471503 0.06255728 -0.062306862 -0.13303345
000200 17 e0 d7 bd 19 7d f0 bd a2 5b 28 be ce 47 80 bd
       -0.105407886 -0.117426105 -0.16441205 -0.06263696
000210 37 7d d0 bc f4 0d cf 3a 27 74 7c 3d 87 71 b7 3c
       -0.025450332 0.0015797005 0.06163421 0.022393001
000220 f0 e9 da bc 80 83 20 3e 8a 32 ca 3d 75 fc 42 be
       -0.026722878 0.15675163 0.09872921 -0.19041617
000230 04 9b 59 be f6 2e 50 3e 7d c5 07 3e 49 df 9e bd
       -0.2125054 0.20330414 0.1325893 -0.07757432
000240 c6 a2 f6 3d cf f8 53 3d b8 34 4d 3d 80 4e 07 3c
       0.12042765 0.051750954 0.050099105 0.008258462
000250 a9 49 15 be 52 9f c0 bd b2 c9 a4 3c e8 12 33 3c
       -0.1457888 -0.09405388 0.020115707 0.010929801
000260 75 92 8f bd 08 71 ad 3d 10 ad 3f 3d 13 93 b3 3d
       -0.07010356 0.084688246 0.046795905 0.087682866
000270 d4 bf 59 be 5f 7f 66 3e ef ea 48 3e b6 6d 47 bd
       -0.21264583 0.22509526 0.1962087 -0.048688613
000280 83 47 2c 3e d7 31 59 be d8 55 82 3b f4 51 38 be
       0.16824155 -0.21210419 0.0039775185 -0.18000013
000290 89 db d9 bd 13 af 8f bd 76 b1 5a 3e 31 73 1e be
       -0.10637576 -0.07015815 0.21356758 -0.1547363
0002a0 0a e7 fe bd ff e4 1a be 32 20 8b bc 45 57 15 3e
       -0.12446411 -0.15126418 -0.016983125 0.14584072
0002b0 21 ea 50 be e2 91 6b bd b4 6c 4e 3d cc b0 ef bd
       -0.20401813 -0.05751217 0.050396636 -0.11703643
0002c0 31 bf aa 3a ee ee 0c 3e ba 11 62 bd 66 6e eb bc
       0.001302695 0.1376302 -0.055192687 -0.028739166
0002d0 38 74 59 be 45 76 b0 bd af 27 e1 bc 95 63 3e be
       -0.2123574 -0.08616308 -0.027484743 -0.18592675
0002e0 5f 4e b9 3d eb 81 98 3d fe bf 92 bc 56 1b bd bc
       0.09048151 0.07446655 -0.017913815 -0.023084324
0002f0 40 54 6d 3c b5 22 08 3d 4c 03 4c bc 2f 3f 0c 3d
       0.014485419 0.033236224 -0.012451958 0.034239944
000300 31 e9 f6 bd b2 44 0c 3d 42 3c 70 3e f0 fb de 3d
       -0.120561965 0.0342452 0.23460487 0.10887897
000310 61 8b 4a 3e 16 d8 98 bd 6f bd 29 3e 02 66 84 bc
       0.19779731 -0.0746309 0.1657617 -0.016161922
000320 8e 4c e9 bd 27 06 5f bd 42 43 0e be d4 86 1a 3e
       -0.11391555 -0.054449227 -0.13892844 0.15090495
000330 43 69 d3 bd 79 9d 52 3e 6f 2a fc ba 97 0c 85 be
       -0.103228115 0.20567884 -0.001923872 -0.25986168
000340 a9 a4 e4 3d 45 84 86 bb 77 39 22 3d bf 99 3e 3d
       0.11164219 -0.004105123 0.039605584 0.046533342
000350 1a 12 56 3d 8c e8 13 be 5f c3 b6 3d 0e 20 50 3e
       0.052263357 -0.14444178 0.08923983 0.20324728
000360 d9 2e 1e bd 3a c9 06 bd 5b 29 63 3e da 84 16 3d
       -0.038618896 -0.03290675 0.22183745 0.03674779
000370 c6 46 3f be 84 01 e7 3d 30 76 be 3d 73 69 20 bd
       -0.18679342 0.11279586 0.09299886 -0.039163064
000380 53 0a 59 3e 57 49 0a 3d 91 7a 2a 3e 82 eb b5 bc
       0.21195345 0.03376135 0.16648318 -0.022207025
000390 04 af fb bd db 0f 43 3e aa 79 ea bd df 13 e9 bd
       -0.12289241 0.19049017 -0.11448987 -0.11380743
0003a0 68 6b 05 be f4 74 4c be f7 43 1c be 6f 73 6b 3c
       -0.13029253 -0.19966489 -0.15260302 0.014370783
0003b0 76 6e 67 3d 7b 8c 46 3e 95 70 68 be 0d 67 b5 3c
       0.056501828 0.19389527 -0.22699197 0.022143865
0003c0 2b 2e 89 bd 8c 9a 1c bd 55 5c 1e be 82 1c 2f 3e
       -0.06698259 -0.038233325 -0.1546491 0.17100719
0003d0 15 6e f3 3c a8 63 1f 3e b6 74 93 3d 90 67 b3 bd
       0.029715577 0.1556536 0.07199995 -0.08759987
0003e0 0b 13 2b 3e 2e 0e 0d 3e b2 f9 1f 3e a5 59 04 3e
       0.16706483 0.1377494 0.15622595 0.12924822
0003f0 20 85 29 3d e5 df 05 be 0f 93 7a bb ef 9b 64 3e
       0.041386724 -0.1307369 -0.0038234626 0.22325109

model/batch_normalization_8/FusedBatchNormV3;model/conv2d_8/Conv2D/ReadVariableOp;model/conv2d_8/Conv2D;model/batch_normalization_9/FusedBatchNormV3 f4 [15, 3, 3, 15]
000000 9b 89 11 bc ba 66 66 3d 9f 76 0d be d2 64 6c be
       -0.008882905 0.05625031 -0.13814782 -0.23085335
000010 01 e4 ce 3d 29 48 09 3e cf 66 13 3d c1 fa 8e 3d
       0.10102082 0.13406433 0.035986718 0.06981421
000020 38 ab 08 3c da 6f f8 bb f2 49 1b 3c f4 f6 34 be
       0.008341603 -0.007581693 0.009478079 -0.1767233
000030 fc b2 5e be 0f 5d b7 bc 79 ee 3a 3d 1a 49 e8 bd
       -0.21747965 -0.022383241 0.04563758 -0.11342068
000040 6b c6 0d bd 79 58 a7 bd 7e d8 d6 bc 00 4d bd 3c
       -0.034613054 -0.08171172 -0.026226278 0.023108006
000050 92 c8 07 3e 2e 59 4f bb 24 4d 09 3d 7a 9f 6a 3e
       0.13260105 -0.0031638849 0.033520833 0.22912398
000060 bf 73 2d be d8 5a 4f 3e dc 9b 2f 3d 6f 73 1e 3e
       -0.16938685 0.20249498 0.04287325 0.15473722
000070 c6 63 05 be 6b 08 e4 3d 00 c3 d4 bd ad af 0e 3e
       -0.13026342 0.11134418 -0.10388756 0.13934202
000080 e3 df cd bc 7b 92 e4 bc 05 fc 19 be 68 98 5c 3e
       -0.025131172 -0.027901879 -0.15037544 0.21542513
000090 be 47 79 3d 77 9e 42 3e 58 41 17 3e f6 94 86 3d
       0.060859434 0.19005762 0.1477102 0.06571381
0000a0 a2 48 3e 3d 88 d0 75 bd 09 74 17 bd f2 77 39 3d
       0.046455987 -0.060013324 -0.036975894 0.045280404
0000b0 4e 6b bb bd 37 fe 81 3d b5 c3 97 bc b6 22 98 3b
       -0.09151326 0.06347316 -0.018525938 0.0046428097
0000c0 a9 e2 d2 3c 11 e0 2f 3c 65 7b 1a be 1d a8 29 3d
       0.025742846 0.010734574 -0.15086134 0.04142009
0000d0 33 17 d9 bc 76 db ce bd b0 c1 16 3d 9f 8e f9 3d
       -0.02650032 -0.101004526 0.03680581 0.12185406
0000e0 1b bb 53 bd 9a 93 02 3e c0 21 55 3d 2b f2 91 bd
       -0.05169211 0.12751618 0.05203414 -0.07126268
0000f0 3a fe 99 3c 3a ba 47 be 9f 91 5f 3d dc 57 34 3e
       0.018797982 -0.19504634 0.054582234 0.1761164
000100 df b8 11 3b 85 00 ba 3d 94 61 3d be f1 74 5d be
       0.0022235436 0.0908213 -0.18494254 -0.21626641
000110 a6 27 cc bd 71 30 94 bd 11 7b 91 3d 34 78 87 3e
       -0.099685 -0.07235802 0.07103551 0.26458895
000120 2c 5c e5 3d 5f 0d bf 3d e8 a6 d8 ba 06 b7 d4 bd
       0.11199221 0.09328722 -0.0016529234 -0.103864715
000130 52 94 ea 3d db e5 86 be e1 f0 67 ba f8 68 80 3d
       0.11454071 -0.2634724 -0.00088478444 0.06270021
000140 92 d9 ed 3d b7 ad 87 bd db 17 7a 3e 28 18 d2 bd
       0.11613764 -0.0662493 0.24423163 -0.10258514
000150 75 9a 0c bd 2d 27 08 bd dd 02 1f 3e ce df 8a bd
       -0.03432699 -0.033240486 0.15528436 -0.067809686
000160 92 be a6 3d e1 45 03 be 1a 08 70 be 27 a9 8e 3d
       0.08141817 -0.12819625 -0.2344059 0.06965857
000170 4a c8 96 bd fc bc df 3d bb 70 b7 3d ac da 80 3d
       -0.07362421 0.10924718 0.089570485 0.06291708
000180 88 49 a7 bd 67 cb c8 bd 4d 1e 14 bd 41 21 d5 3c
       -0.08168322 -0.09804421 -0.03616171 0.026016833
000190 28 35 13 bd cb 61 0a bd 1a a3 98 bd f9 14 04 3e
       -0.035939366 -0.03378467 -0.07452984 0.12898625
0001a0 38 05 0c bd ba 5b 74 3e e4 c9 db 3d 60 45 c7 bd
       -0.034184664 0.23863116 0.10731867 -0.09730029
0001b0 f0 1b d2 3d a3 60 59 3d 41 18 e1 3d 14 44 df 3d
       0.10259235 0.053070676 0.10990954 0.10901657
0001c0 45 30 96 3d ca 35 67 be c7 b1 ad bc e7 b8 d2 bc
       0.073334254 -0.22579113 -0.021202935 -0.025722934
0001d0 fc 75 82 bd 5e 26 08 be c9 d2 50 3e 5f b8 a0 3c
       -0.0637016 -0.13295886 0.20392908 0.019619165
0001e0 bf 39 cf 3d a3 4c ef 3b f7 93 3e 3e 55 00 9a bd
       0.10118436 0.007302837 0.18611132 -0.075195946
0001f0 59 43 f6 bc c0 46 69 be 7c ce 3e be ed a5 3c be
       -0.03006141 -0.22780895 -0.18633455 -0.1842267
000200 d6 f5 57 3d 7d a0 8e bd 4c e5 be bd 1e 97 25 be
       0.05272468 -0.069642045 -0.09321079 -0.16170928
000210 58 8f 0c 3d 5c bc 31 be c4 fb 0f be 7a 82 9d bb
       0.03431639 -0.1735701 -0.14060885 -0.004806814
000220 df 44 5f bd d7 f4 47 be 7b ef 25 be bf 37 49 3b
       -0.05450904 -0.19526993 -0.16204636 0.0030703393
000230 e4 77 9a 3d cc ae 3d bd 0c 70 80 3b 4b 49 1b 3e
       0.075423986 -0.046309277 0.003919607 0.15164678
000240 2a 21 f8 3d 50 54 7d bd f8 8f f2 bd bc 69 08 be
       0.121157005 -0.061847985 -0.11843866 -0.13321584
000250 ec 73 74 3e 0c 56 f0 3d 9a c5 18 3e 13 00 d4 bc
       0.23872346 0.11735162 0.14919129 -0.025878942
000260 1a 1a 14 bb 2c 51 ec 3d a2 21 ff bc 17 c7 1d be
       -0.0022598566 0.1153892 -0.031143967 -0.15407978
000270 a5 45 fb bc 9e 12 ef bd 80 6b 14 be 7a 2b 02 bc
       -0.030672858 -0.11673473 -0.14494133 -0.007944936
000280 95 94 32 be dc 6a 30 3e 63 2a 03 3d 02 80 90 bc
       -0.17439492 0.17228264 0.032022845 -0.017639164
000290 0f cb f3 3d fe d6 a7 3d e6 22 0d bd 14 76 ec 3c
       0.11903965 0.081953034 -0.03445711 0.028864898
0002a0 46 63 e5 bc 87 d1 9a 3d 48 23 b8 3d fc e8 06 3e
       -0.028001439 0.075594954 0.08991104 0.13174814
0002b0 19 2d 31 3d 90 8c b2 bc be 28 82 bc 90 80 f6 3d
       0.0432559 -0.021795541 -0.015888568 0.1203624
0002c0 06 81 20 bd 25 ed 22 be 47 e7 a6 3c 6e f2 1d be
       -0.039185546 -0.15910776 0.020373954 -0.15424511
0002d0 69 58 6f 3c 92 ca 00 be 55 59 8a 3e 4f 23 44 bd
       0.014608481 -0.12577274 0.2702128 -0.047885235
0002e0 65 62 99 bc 90 17 41 be 58 74 6b be 55 e8 df 3d
       -0.018723676 -0.18856645 -0.229936 0.10932986
0002f0 0d 5b e2 3d 07 a8 d3 bd fe 15 84 ba 32 a0 6e 3c
       0.11052523 -0.10334783 -0.0010077355 0.014564561
000300 db fa 86 bc 13 48 a1 bd 29 e7 b5 ba a2 e6 49 3d
       -0.01647704 -0.07875075 -0.0013878095 0.049292214
000310 29 e2 3b bd 56 38 30 3e 73 66 bf 3d c9 0e ab bd
       -0.04586998 0.1720899 0.093457125 -0.083524294
000320 a5 1c 31 3e a1 3f eb 3d 09 93 a4 bd fe ee 4c 3e
       0.17296083 0.114867456 -0.08035857 0.20013043
000330 f2 ac 50 bd a6 75 a1 bd a1 5d 0b bd cf 1e 84 bd
       -0.050946184 -0.07883768 -0.03402484 -0.06451189
000340 a5 f4 a5 bc 1a e7 21 3e c7 e4 c1 3d 60 c0 0e 3d
       -0.020258257 0.15810814 0.09467464 0.03485143
000350 ee 39 6f be d1 6c 81 3d c0 87 31 be 88 95 11 be
       -0.23361942 0.06319583 -0.17336941 -0.14217198
000360 a2 76 86 3e cb 4d a0 bd f7 fa b5 bd a0 8f d0 3c
       0.26262385 -0.07827338 -0.08885758 0.02545911
000370 45 9d f0 bd ad 11 3a 3e 6b 04 99 bd 2c 5c 18 be
       -0.11748747 0.18170805 -0.07471546 -0.14878911
000380 ae c0 90 3b d7 d7 3c ba 9c 17 4d be 11 e9 3c bd
       0.0044175005 -0.00072037935 -0.20028538 -0.046120707
000390 f4 7a df bc 8d bf 8a 3e 9c fb 3d bd 71 fc 6c bd
       -0.027280308 0.27099267 -0.04638253 -0.057857934
0003a0 5e 14 d9 bd e3 9e 6b 3e 8b cd c5 3d df 28 45 be
       -0.10599588 0.23009829 0.09658345 -0.19253872
0003b0 7a 94 25 bd 10 c8 b3 ba d3 7c 6d 3e 37 4c 4f 3e
       -0.0404248 -0.001371624 0.23192148 0.20243917
0003c0 bf 03 34 bd 56 5a ee 3c 34 4a b1 3d 6a 4c 4b 3d
       -0.043948885 0.02909581 0.08656731 0.04963342
0003d0 b5 37 1b bd 07 62 a0 3c 01 17 33 bd 47 6a 0e bd
       -0.037894923 0.019577993 -0.04372311 -0.034769323
0003e0 18 59 64 bd 6e fe 33 bd d9 be c1 bc 05 98 f0 3d
       -0.05574903 -0.043943815 -0.023650574 0.117477454
0003f0 8c bf 75 3c 3e 1b 24 3e 6f 06 8c bd 56 07 2c be
       0.014999282 0.16026017 -0.068371646 -0.16799673
