TFLite-model/01bA_ResNet20_CIFAR-10_Q-mixed.tflite (tflite, 258256 bytes, 25 tensors)

model/dense/MatMul f4 [10, 60]
0.13701288 -0.16792701 0.15774016 -0.026662203 0.006015588 0.1631287 -0.2263988 -0.033125285
0.07271736 -0.12654285 0.084513605 -0.1746103 -0.25389367 -0.032531403 0.2776439 -0.22149803
0.036793593 0.049726516 -0.27834836 -0.061994385 0.2099826 0.017671224 0.21614587 -0.019742388
0.37287077 -0.25448495 -0.29648522 -0.151606 0.062701896 -0.3315314 0.33534694 -0.06687633
0.22398797 0.010804424 -0.111451514 0.098144256 -0.0011699073 -0.10164477 0.043436233 -0.13410974
-0.09829741 -0.10787022 -0.16533597 0.27355194 -0.03893175 0.33402953 -0.06939407 0.3502721
-0.18598408 0.22109725 0.02947368 0.2178022 -0.007544633 0.09506072 0.0025127553 -0.045327246
-0.117062 -0.0032000418 0.28721645 -0.13223061 0.039101172 -0.09421206 0.09778217 0.12534642
0.15189411 0.11045988 0.019769471 -0.07236686 0.22920598 0.21846488 -0.16674867 -0.3723279
0.07067697 0.06595749 0.072266266 0.13794082 -0.35345975 -0.111637324 -0.031264625 0.14892699
-0.07955349 -0.07873162 -0.124131836 0.20794171 -0.23400289 0.09632247 -0.22051989 -0.016764026
-0.06111821 0.14148974 -0.15281448 -0.020684177 -0.10817974 0.23492405 0.38205898 0.36129043
-0.18035771 0.3938386 -0.008897072 -0.1571089 0.11487688 0.09808485 0.030928046 -0.1429008
-0.008149521 -0.19345139 0.18669212 -0.08417231 -0.16097863 0.05884608 0.20410201 0.0830182
0.21248779 -0.061186448 -0.1693511 0.11923425 0.36942413 0.15514995 0.044145238 -0.077284254
0.18685043 -0.015601436 -0.025319332 0.051978238 -0.044717703 0.31352264 0.18955724 0.010434486
-0.1900655 -0.10521578 0.33363652 0.10131758 -0.2114562 0.01994249 0.018512415 -0.07290919
0.17385738 0.25328884 -0.12285682 0.15636958 -0.07973976 -0.3111871 0.14445639 -0.06536023
-0.004832748 0.26760274 0.14483294 -0.1923261 -0.08221605 0.12249684 0.10411876 -0.02800103
-0.1963584 -0.039626405 0.17868005 -0.093543 0.09690518 -0.21737753 -0.09256284 0.30612972
-0.11974231 -0.032030426 -0.037105054 -0.08356262 0.033781413 0.3185304 -0.24118333 0.23709181
-0.072949685 0.23138529 0.08484336 0.09448127 0.2613863 0.29416758 0.011571244 -0.3403142
0.18040003 -0.41390717 0.19060561 0.0890285 -0.16864096 0.24443676 -0.1222296 -0.12489825
0.09070803 -0.36466587 -0.09476555 0.1384971 0.17890473 0.3064426 -0.18978378 -0.25197428
-0.13461454 -0.014589089 -0.4097919 -0.23735803 -0.23011835 0.3757143 -0.028087508 -0.0729159
0.09662937 0.050041042 0.30496922 0.05405906 -0.24019806 -0.11004922 0.12140833 -0.05830437
-0.04710469 0.20446046 -0.040698282 0.20488082 0.24605034 -0.18287648 0.24706529 -0.34216005
-0.0326095 -0.123379566 -0.14829612 -0.009985221 0.12915812 0.08836672 0.015862063 0.14796391
-0.03809 -0.14103444 0.1377884 0.026071709 0.035332575 0.26398417 -0.34870797 -0.12906674
-0.12930517 -0.14656976 0.07911431 -0.22880135 -0.04715967 -0.020365266 0.09484112 0.062960476
-0.12192252 0.1160208 -0.18340494 0.020451646 -0.077028766 -0.37368524 0.028890705 0.05623214
-0.15962444 0.050969016 0.04237459 -0.12513702 0.17621371 0.06314988 0.055913422 0.33354232
00000000: 1b4d 0c3e 0ff5 2bbe a386 213e b16a dabc
00000010: 691e c53b 360b 273e 16d5 67be 61ae 07bd
00000020: d7ec 943d 7394 01be 7815 ad3d 0bcd 32be
00000030: 5afe 81be a63f 05bd 5727 8e3e 61d0 62be
00000040: e1b4 163d 08ae 4b3d ad83 8ebe d3ed 7dbd
00000050: ae05 573e 3ec3 903c 5855 5d3e caba a1bc
00000060: ebe8 be3e da4b 82be e9cc 97be 9a3e 1bbe
00000070: da69 803d 7cbe a9be 98b2 ab3e 75f6 88bd
00000080: 1a5d 653e 0a05 313c b140 e4bd dbff c83d
00000090: 9357 99ba 222b d0bd 31ea 313d 1054 09be
000000a0: 2750 c9bd 10eb dcbd d54d 29be 000f 8c3e
000000b0: e676 1fbd eb05 ab3e 7a1e 8ebd dd56 b33e
000000c0: 9c72 3ebe 5167 623e c972 f13c 8a07 5f3e
000000d0: f838 f7bb 32af c23d 0aad 243b 10a9 39bd
000000e0: 34be efbd cbb7 51bb 090e 933e 7667 07be
000000f0: 8d28 203d 41f2 c0bd 0542 c83d d05a 003e
00000100: 218a 1b3e ca38 e23d 96f3 a13c 1435 94bd
00000110: f9b4 6a3e 42b5 5f3e 2ac0 2abe c3a1 bebe
00000120: 16bf 903d b814 873d 5600 943d 5c40 0d3e
00000130: adf8 b4be 1ca2 e4bd 560f 00bd 5180 183e
00000140: f1ec a2bd 0b3e a1bd d538 febd acee 543e
00000150: 749e 6fbe b744 c53d f7cf 61be b654 89bc
00000160: 1757 7abd b0e2 103e 667b 1cbe dd71 a9bc
00000170: 578d ddbd ee8f 703e 3c9d c33e 0ffb b83e
00000180: b1af 38be 37a5 c93e 06c5 11bc 28e1 20be
00000190: 9244 eb3d b6e0 c83d d05c fd3c 9654 12be
000001a0: 9285 05bc 1f18 46be 382c 3f3e 8862 acbd
000001b0: 95d7 24be 9608 713d 1e00 513e 7205 aa3d
000001c0: 6696 593e a49e 7abd 606a 2dbe 1631 f43d
000001d0: 2925 bd3e a1df 1e3e a3d1 343d 3547 9ebd
000001e0: b855 3f3e 2a9d 7fbc 7d6a cfbc 22e7 543d
000001f0: e929 37bd 0a86 a03e 4b1b 423e 68f5 2a3c
00000200: 88a0 42be 5f7b d7bd 68d2 aa3e 977f cf3d
00000210: f987 58be 6f5e a33c 59a7 973c 6a51 95bd
00000220: ab07 323e 13af 813e 5b9c fbbd 591f 203e
00000230: 994e a3bd ea53 9fbe 60ec 133e 96db 85bd
00000240: 075c 9ebb 3a03 893e 164f 143e 22f1 44be
00000250: e360 a8bd a0df fa3d 373c d53d 6b62 e5bc
00000260: 2d12 49be 4c4f 22bd e7f7 363e 7993 bfbd
00000270: 3976 c63d 3798 5ebe 9691 bdbd 09bd 9c3e
00000280: 753b f5bd 5632 03bd 78fb 17bd e122 abbd
00000290: 615e 0a3d 6b16 a33e c3f8 76be 32c8 723e
000002a0: a566 95bd 44f0 6c3e 5bc2 ad3d 657f c13d
000002b0: 6dd4 853e 229d 963e 5195 3d3c aa3d aebe
000002c0: c9ba 383e a4eb d3be 1e2e 433e 9354 b63d
000002d0: 37b0 2cbe a14d 7a3e 8353 fabd a7ca ffbd
000002e0: 22c5 b93d 7cb5 babe 7114 c2bd 2fd2 0d3e
000002f0: cd32 373e 0be6 9c3e ae56 42be c602 81be
00000300: 65d8 09be 1307 6fbc 3ed0 d1be fc0d 73be
00000310: 25a4 6bbe a05d c03e c617 e6bc ee54 95bd
00000320: 9ee5 c53d d6f7 4c3d ed24 9c3e 086d 5d3d
00000330: 7bf6 75be 7c61 e1bd eea4 f83d 90d0 6ebd
00000340: d9f0 40bd 155e 513e 3eb3 26bd 47cc 513e
00000350: 9ff4 7b3e f943 3bbe affe 7c3e 9a2f afbe
00000360: 8a91 05bd 6dae fcbd f0da 17be 0d99 23bc
00000370: 0742 043e 9cf9 b43d 28f1 813c da83 173e
00000380: 4304 1cbd 556b 10be 6718 0d3e 5694 d53c
00000390: e4b8 103d ef28 873e da89 b2be 122a 04be
000003a0: 9368 04be 6216 16be af06 a23d e74a 6abe
000003b0: 802a 41bd 0fd5 a6bc 103c c23d 6cf1 803d
000003c0: 84b2 f9bd 509c ed3d 81ce 3bbe 368a a73c
000003d0: 42c1 9dbd ac53 bfbe 33ac ec3c ac53 663d
000003e0: 9774 23be e3c4 503d fa90 2d3d eb23 00be
000003f0: 5e71 343e b954 813d 7905 653d 0fc6 aa3e

model/batch_normalization_3/FusedBatchNormV3;model/conv2d_3/Conv2D/ReadVariableOp;model/conv2d_3/Conv2D;model/batch_normalization_9/FusedBatchNormV3 f4 [15, 3, 3, 3]
0.2981412 0.2644481 -0.18246996 -0.04486231 0.30623004 -0.20898552 -0.05066269 0.23539464
0.61378825 -0.016559647 -0.12662625 0.366128 -0.15211207 -0.13693899 0.0048125377 0.45765358
-0.02907282 0.13172507 0.0780724 0.33330312 -0.16834816 -0.28434253 0.089241445 -0.11582295
0.026159352 -0.10119982 -0.2314559 -0.5551957 0.47454065 0.18034025 0.024178589 0.28840464
-0.36252603 -0.056807064 -0.5449066 0.3818053 0.33363143 0.0638629 -0.2243714 0.054532215
0.29144982 0.12429271 -0.3424389 -0.14599836 -0.4299549 0.12040918 -0.25383034 -0.18300101
0.07937155 0.12973201 0.52554864 0.23258021 0.15278356 0.10848037 -0.2890861 -0.26697582
-0.44280192 -0.5328628 -0.5999138 -0.116999656 0.16757356 -0.0052883606 0.00012489627 -0.079834126
-0.1124179 0.4745706 -0.55193114 0.028289445 -0.3487105 -0.51003283 -0.3873509 -0.27011725
0.16435315 0.19763017 -0.32213244 -0.35025796 0.3222406 0.08680353 0.30929065 -0.10373447
-0.5365747 -0.02215484 0.12723753 0.18529701 0.47166672 -0.38097307 -0.21580264 0.45477152
0.26192325 -0.33761382 0.002416295 0.5529319 0.18351167 0.046707004 -0.48451298 -0.11278954
0.02740074 -0.14048843 -0.5367807 -0.06158588 0.2346133 0.4356132 -0.059960723 0.10195469
0.5271167 0.12909085 -0.16246673 -0.014171464 0.16858181 0.3787067 0.30051953 0.12002316
0.027592111 -0.3453242 0.18262595 0.28769338 -0.034418017 0.58272195 0.38064724 -0.075509466
0.15311162 0.07781571 0.020977158 -0.05454023 -0.13162063 -0.5581005 0.16346769 -0.18380678
-0.23429565 0.10224127 0.2306999 0.3821012 -0.027043823 0.60529894 0.19941519 0.13829763
-0.075158164 0.012972965 -0.21269219 -0.046507757 0.18976007 0.109947994 -0.28136206 -0.09236056
0.3573481 -0.32165185 0.010042475 -0.52815837 -0.32530844 -0.093139775 0.37927434 0.28931415
0.0025756843 -0.16079253 -0.07854548 0.121867254 -0.099108726 -0.15615712 0.0267435 -0.15590031
0.09255516 -0.07210171 0.13897458 -0.34383512 -0.011133675 0.05099232 -0.19952221 0.5784326
0.028937872 -0.3051943 -0.56664276 -0.23469892 0.27000767 -0.10873792 -0.51486677 -0.012826149
0.10908283 -0.044347618 0.02180994 0.13752358 0.12143766 0.34003076 -0.5865241 -0.29770333
0.27939463 -0.36787435 0.19143064 -0.11023273 -0.15848358 -0.4832091 0.3969013 0.09446165
-0.20769729 0.31466153 0.2769261 -0.1812977 0.07619504 -0.2300168 -0.37290624 0.25552124
0.2439798 0.6092496 0.064191185 -0.10587042 0.05482428 -0.029493418 0.05191459 0.5368426
0.18934903 -0.3824403 0.11524603 0.14915581 0.14001003 0.19254574 -0.060269423 0.017689927
0.35906193 0.13042213 -0.29636845 -0.08939373 -0.013451279 0.15556426 0.14597546 0.22467493
0.25740835 0.104191616 -0.25661832 0.12508939 0.23164111 0.16073267 0.014488477 -0.07658678
-0.061102185 0.10884562 0.039713494 0.48494565 -0.15682204 0.5169621 -0.32360956 0.4326828
-0.28284594 0.15949982 0.08496253 -0.32632205 0.11110174 0.38872638 -0.27041453 -0.16269448
0.42103934 0.075640656 -0.13751502 0.30877385 -0.478998 -0.40434012 0.4726792 0.2164122
00000000: f7a5 983e be65 873e 68d9 3abe 8bc1 37bd
00000010: 2fca 9c3e 4d00 56be ae83 4fbd 4b0b 713e
00000020: 3a21 1d3f 19a8 87bc 50aa 01be 2175 bb3e
00000030: 44c3 1bbe bc39 0cbe 7eb2 9d3b 9251 ea3e
00000040: 1f2a eebc f0e2 063e 6ce4 9f3d b5a6 aa3e
00000050: 7663 2cbe 5895 91be 38c4 b63d 9534 edbd
00000060: 234c d63c da41 cfbd c702 6dbe 4e21 0ebf
00000070: fef6 f23e 1dab 383e 2d12 c63c c6a9 933e
00000080: 039d b9be 86ae 68bd 007f 0bbf fc7b c33e
00000090: bdd1 aa3e 8dca 823d 9ec1 65be 2c5d 5f3d
000000a0: e938 953e 2d8d fe3d 2754 afbe 9880 15be
000000b0: 0c23 dcbe 1799 f63d 0df6 81be 9e64 3bbe
000000c0: 8d8d a23d 78d8 043e 5b8a 063f 8229 6e3e
000000d0: 4b73 1c3e f52a de3d 1803 94be 0eb1 88be
000000e0: efb6 e2be b269 08bf f393 19bf 849d efbd
000000f0: 6798 2b3e fc49 adbb 96f6 0239 1380 a3bd
00000100: 5b3b e6bd ebfa f23e 5c4b 0dbf 44bf e73c
00000110: 2f8a b2be 8391 02bf db52 c6be cf4c 8abe
00000120: 314c 283e 905f 4a3e 8bee a4be 0355 b3be
00000130: b8fc a43e 0dc6 b13d 585b 9e3e bd72 d4bd
00000140: f65c 09bf 117e b5bc 8e4a 023e 80be 3d3e
00000150: 4d7e f13e e70e c3be 5efb 5cbe d0d7 e83e
00000160: ce1a 863e b8db acbe b45a 1e3b f28c 0d3f
00000170: 7cea 3b3e d84f 3f3d 1612 f8be 34fe e6bd
00000180: 8477 e03c 33dc 0fbe 766a 09bf 7a41 7cbd
00000190: 783e 703e b108 df3e 6099 75bd 9fcd d03d
000001a0: 1ff1 063f 6430 043e ae5d 26be 6e2f 68bc
000001b0: b6a0 2c3e d8e5 c13e b2dd 993e b4ce f53d
000001c0: da08 e23c 55ce b0be 4c02 3b3e 8c4c 933e
000001d0: e8f9 0cbd 442d 153f 32e4 c23e b5a4 9abd
000001e0: 4bc9 1c3e d85d 9f3d 4ad8 ab3c 9465 5fbd
000001f0: 8fc7 06be addf 0ebf 1364 273e d837 3cbe
00000200: 33eb 6fbe df63 d13d 983c 6c3e c5a2 c33e
00000210: 028b ddbc dff4 1a3f 7f33 4c3e e59d 0d3e
00000220: 86ec 99bd 8f8c 543c fbcb 59be eb7e 3ebd
00000230: 7750 423e 6a2c e13d b00e 90be 8927 bdbd
00000240: 55f6 b63e 8daf a4be 3189 243c 6335 07bf
00000250: d48e a6be 11c0 bebd 3f30 c23e fc20 943e
00000260: d0cc 283b cca6 24be 74dc a0bd 8a95 f93d
00000270: 84f9 cabd a7e7 1fbe 2f15 db3c 55a4 1fbe
00000280: 8f8d bd3d 10aa 93bd 5a4f 0e3e 280b b0be
00000290: 056a 36bc 53dd 503d 8d4f 4cbe 2914 143f
000002a0: 1e0f ed3c 6d42 9cbe 800f 11bf ea54 70be
000002b0: 723e 8a3e fdb1 debd 4fce 03bf c524 52bc
000002c0: d266 df3d d9a5 35bd c2aa b23c fbd2 0c3e
000002d0: 4fb4 f83d 8318 ae3e 7226 16bf 926c 98be
000002e0: d00c 8f3e 075a bcbe 6506 443e b3c1 e1bd
000002f0: 8549 22be 2f67 f7be a636 cb3e 1c75 c13d
00000300: 99ae 54be 511b a13e 42c9 8d3e 1ba6 39be
00000310: 250c 9c3d 8689 6bbe 91ed bebe aed3 823e
00000320: d7d5 793e c8f7 1b3f ab76 833d 97d2 d8bd
00000330: 6d8f 603d 2e9c f1bc 65a4 543d 846e 093f
00000340: b6e4 413e 37cf c3be 1c06 ec3d 4dbc 183e
00000350: ca5e 0f3e b62a 453e 12dd 76bd 77ea 903c
00000360: f7d6 b73e 618d 053e 9bbd 97be 0f14 b7bd
00000370: c162 5cbc 3d4c 1f3e 977a 153e 2f11 663e
00000380: 07cb 833e 6a62 d53d 7a63 83be 6f17 003e
00000390: 5433 6d3e 1b97 243e 1461 6d3c 88d9 9cbd
000003a0: 4946 7abd 74ea de3d 9eaa 223d cc4a f83e
000003b0: f595 20be a157 043f 27b0 a5be 9a88 dd3e
000003c0: 2fd1 90be ec53 233e d600 ae3d af13 a7be
000003d0: 4f89 e33d 2507 c73e c673 8abe 6299 26be
000003e0: 7892 d73e 7de9 9a3d bdd0 0cbe 9b17 9e3e
000003f0: 3a3f f5be ab05 cfbe 0203 f23e 299b 5d3e

model/batch_normalization_4/FusedBatchNormV3;model/conv2d_4/Conv2D/ReadVariableOp;model/conv2d_4/Conv2D;model/batch_normalization_9/FusedBatchNormV3 i1 [15, 3, 3, 15] scale=0.002168576 zero_point=0
0.12794599 0.002168576 0.08457446 -0.199509 0.15180032 -0.058551554 -0.23203763 -0.09541734
-0.036865793 0.09324877 0.22986905 -0.07373159 -0.106260225 0.013011456 -0.11059738 0.121440254
0.0 -0.088911615 -0.24288051 0.1084288 0.17999181 0.04770867 -0.04987725 -0.09324877
-0.034697216 -0.036865793 -0.08674304 -0.04770867 0.09541734 -0.036865793 0.002168576 -0.13011456
0.09108019 -0.10192307 -0.14963174 -0.22119476 -0.039034367 0.006505728 -0.17999181 -0.036865793
0.16698036 -0.0542144 -0.17348608 0.080237314 0.07590016 0.058551554 0.16698036 0.06939443
0.16698036 -0.12794599 -0.04770867 -0.19083469 -0.045540094 0.030360064 -0.052045822 0.06505728
0.015180032 -0.16047463 0.056382976 -0.121440254 0.27540916 0.0997545 0.2168576 0.11493453
-0.22986905 0.1084288 -0.13011456 0.006505728 -0.036865793 0.10192307 0.019517183 -0.121440254
0.071563005 0.09324877 -0.0997545 0.17999181 -0.16481178 -0.14529459 -0.07590016 0.062888704
-0.04987725 -0.039034367 0.039034367 -0.09324877 -0.17565465 -0.26890343 -0.14095744 0.088911615
0.11059738 0.21902618 0.1713175 0.18649754 0.02168576 0.04770867 -0.08674304 -0.01084288
0.060720127 0.030360064 -0.21468903 -0.11927168 0.0542144 -0.12577741 0.004337152 0.056382976
-0.088911615 0.052045822 -0.045540094 -0.09324877 0.18649754 -0.04987725 0.07373159 -0.080237314
-0.13011456 -0.07590016 0.1626432 0.06722586 0.16047463 0.16047463 -0.09758592 0.16481178
-0.23637478 0.017348608 0.11493453 0.13011456 0.17348608 0.08240589 0.14746317 0.06722586
-0.17999181 0.13662028 0.20167756 -0.106260225 0.09324877 -0.13662028 -0.23420621 0.25589198
0.13011456 0.004337152 0.062888704 0.13011456 -0.02168576 -0.023854336 -0.09324877 0.06722586
-0.13445172 -0.11276595 -0.071563005 -0.12577741 0.041202944 0.11493453 -0.026022911 0.013011456
0.13878886 0.04987725 0.04770867 -0.04337152 -0.27324057 -0.2168576 0.07806873 0.034697216
0.09324877 -0.20601472 0.028191488 -0.19517183 -0.04987725 0.106260225 -0.013011456 -0.09108019
-0.08240589 -0.11493453 0.03252864 0.041202944 -0.104091644 0.058551554 0.2168576 -0.09541734
-0.036865793 0.09541734 0.039034367 -0.004337152 0.04770867 -0.20601472 0.045540094 0.060720127
0.04770867 -0.088911615 -0.16481178 -0.023854336 -0.12577741 -0.24504909 -0.23637478 0.023854336
0.121440254 -0.04337152 -0.26890343 -0.062888704 0.006505728 -0.04987725 0.14529459 -0.013011456
-0.26456627 -0.030360064 -0.02168576 -0.036865793 -0.123608835 -0.034697216 0.13878886 -0.121440254
-0.041202944 -0.11927168 0.20384614 -0.1626432 -0.16481178 0.013011456 -0.06722586 -0.058551554
-0.19300327 -0.09541734 -0.052045822 -0.04987725 -0.036865793 -0.060720127 0.2602291 0.01084288
0.062888704 -0.104091644 0.08674304 0.08674304 -0.11059738 0.08457446 -0.015180032 0.25372338
-0.14312601 0.08674304 -0.09758592 0.09108019 -0.004337152 0.056382976 -0.11927168 0.12577741
-0.02168576 0.019517183 0.104091644 -0.11059738 -0.10192307 -0.1084288 0.14746317 0.09324877
0.11276595 -0.121440254 0.08457446 0.09324877 -0.106260225 -0.04770867 -0.2255319 -0.21035187
00000000: 3b01 27a4 46e5 95d4 ef2b 6ade cf06 cd38
00000010: 00d7 9032 5316 e9d5 f0ef d8ea 2cef 01c4
00000020: 2ad1 bb9a ee03 adef 4de7 b025 231b 4d20
00000030: 4dc5 eaa8 eb0e e81e 07b6 1ac8 7f2e 6435
00000040: 9632 c403 ef2f 09c8 212b d253 b4bd dd1d
00000050: e9ee 12d5 af84 bf29 3365 4f56 0a16 d8fb
00000060: 1c0e 9dc9 19c6 021a d718 ebd5 56e9 22db
00000070: c4dd 4b1f 4a4a d34c 9308 353c 5026 441f
00000080: ad3f 5dcf 2bc1 9476 3c02 1d3c f6f5 d51f
00000090: c2cc dfc6 1335 f406 4017 16ec 829c 2410
000000a0: 2ba1 0da6 e931 fad6 dacb 0f13 d01b 64d4
000000b0: ef2c 12fe 16a1 151c 16d7 b4f5 c68f 930b
000000c0: 38ec 84e3 03e9 43fa 86f2 f6ef c7f0 40c8
000000d0: edc9 5eb5 b406 e1e5 a7d4 e8e9 efe4 7805
000000e0: 1dd0 2828 cd27 f975 be28 d32a fe1a c93a
000000f0: f609 30cd d1ce 442b 34c8 272b cfea 989f

model/batch_normalization_5/FusedBatchNormV3;model/conv2d_5/Conv2D/ReadVariableOp;model/conv2d_5/Conv2D;model/batch_normalization_9/FusedBatchNormV3 i1 [15, 3, 3, 15] scale=0.0021762182 zero_point=0
-0.11751578 -0.119692 0.10010604 -0.14580663 0.03699571 0.0239384 -0.1915072 0.10663469
0.030467056 -0.12622066 -0.017409746 0.16104014 -0.017409746 -0.05875789 -0.15015906 0.045700584
-0.039171927 -0.021762181 0.010881091 0.16974501 0.12404444 0.032643273 -0.028290836 0.1784499
-0.041348144 0.03699571 0.20238829 0.054405455 0.0043524364 0.11751578 -0.1915072 0.119692
0.10010604 0.19803585 -0.11751578 -0.19803585 0.21762182 0.0478768 -0.067462765 -0.1915072
-0.032643273 0.08269629 0.20238829 -0.17409745 -0.1327493 0.054405455 0.015233528 0.113163345
0.028290836 0.08269629 -0.026114618 -0.14145419 -0.030467056 -0.113163345 -0.05875789 0.030467056
-0.1305731 -0.067462765 0.093577385 -0.21979804 -0.093577385 0.0718152 0.11751578 -0.21544561
0.19368342 0.19803585 0.20021208 0.18933098 -0.0718152 0.015233528 0.102282256 0.06963898
0.05005302 -0.119692 0.12622066 0.043524362 -0.10445847 -0.0239384 0.14798284 0.05005302
-0.032643273 -0.14798284 0.07834385 0.0021762182 0.20238829 0.21762182 -0.15015906 -0.12404444
0.21544561 0.076167636 -0.03481949 -0.17192124 -0.07834385 -0.20891695 0.0957536 0.14580663
0.10010604 -0.021762181 0.0957536 0.015233528 -0.15015906 0.15233527 -0.008704873 0.0478768
0.043524362 -0.11751578 -0.0065286546 0.20021208 -0.19803585 -0.015233528 0.030467056 0.039171927
-0.18715477 -0.0478768 -0.102282256 0.026114618 0.028290836 -0.1675688 -0.12186822 -0.12404444
0.12622066 -0.17192124 0.11533956 0.013057309 -0.14580663 0.06963898 -0.12839687 -0.17192124
0.093577385 -0.05875789 -0.27202728 -0.13710174 0.15015906 -0.08052007 0.08052007 -0.16539258
-0.11533956 0.08269629 0.13710174 0.17409745 -0.067462765 0.08487251 -0.12186822 0.18280233
-0.013057309 0.052229237 0.043524362 -0.008704873 -0.11098713 -0.08269629 -0.032643273 -0.045700584
-0.013057309 0.119692 0.0957536 -0.052229237 0.1566877 0.05875789 0.14580663 0.08052007
-0.045700584 0.07399142 0.08052007 0.03481949 -0.1915072 0.032643273 -0.15233527 0.0043524364
0.16321637 0.11751578 0.20674072 -0.017409746 0.0478768 -0.045700584 0.102282256 -0.13492553
-0.1675688 -0.06528655 0.06311033 0.0239384 -0.087048724 -0.10881091 -0.25896996 -0.054405455
0.08922495 0.12839687 -0.10445847 -0.06093411 -0.1915072 0.20674072 -0.1436304 -0.08269629
0.043524362 -0.03481949 -0.015233528 -0.18280233 0.1305731 0.08269629 -0.08487251 -0.08922495
0.14145419 0.0478768 -0.26985106 -0.03481949 -0.08269629 -0.030467056 -0.008704873 0.08052007
0.20456451 -0.03699571 -0.0478768 0.032643273 -0.052229237 0.18715477 -0.015233528 0.0
0.076167636 -0.27202728 -0.019585963 0.16974501 -0.1566877 -0.0065286546 -0.10445847 0.25244132
0.017409746 0.12622066 0.21762182 0.11751578 0.028290836 -0.0065286546 0.1566877 -0.19803585
0.10010604 -0.113163345 -0.13492553 0.076167636 0.19368342 0.026114618 0.08052007 0.0718152
-0.010881091 -0.026114618 -0.12622066 -0.12839687 -0.045700584 -0.052229237 -0.10445847 0.1675688
0.032643273 -0.2611462 0.06528655 0.0021762182 0.076167636 0.0065286546 0.1436304 -0.15233527
00000000: cac9 2ebd 110b a831 0ec6 f84a f8e5 bb15
00000010: eef6 054e 390f f352 ed11 5d19 0236 a837
00000020: 2e5b caa5 6416 e1a8 f126 5db0 c319 0734
00000030: 0d26 f4bf f2cc e50e c4e1 2b9b d521 369d
00000040: 595b 5c57 df07 2f20 17c9 3a14 d0f5 4417
00000050: f1bc 2401 5d64 bbc7 6323 f0b1 dca0 2c43
00000060: 2ef6 2c07 bb46 fc16 14ca fd5c a5f9 0e12
00000070: aaea d10c 0db3 c8c7 3ab1 3506 bd20 c5b1
00000080: 2be5 83c1 45db 25b4 cb26 3f50 e127 c854
00000090: fa18 14fc cdda f1eb fa37 2ce8 481b 4325
000000a0: eb22 2510 a80f ba02 4b36 5ff8 16eb 2fc2
000000b0: b3e2 1d0b d8ce 89e7 293b d0e4 a85f beda
000000c0: 14f0 f9ac 3c26 d9d7 4116 84f0 daf2 fc25
000000d0: 5eef ea0f e856 f900 2383 f74e b8fd d074
000000e0: 083a 6436 0dfd 48a5 2ecc c223 590c 2521
000000f0: fbf4 c6c5 ebe8 d04d 0f88 1e01 2303 42ba

model/batch_normalization_6/FusedBatchNormV3;model/conv2d_6/Conv2D/ReadVariableOp;model/conv2d_6/Conv2D;model/batch_normalization_9/FusedBatchNormV3 i1 [15, 3, 3, 15] scale=0.0021758012 zero_point=0
0.115317464 -0.05657083 0.07180144 -0.119669065 -0.08268045 0.03263702 0.23716234 0.23716234
0.121844865 0.25456873 0.026109613 -0.20670111 0.15883349 -0.22193173 0.1914705 -0.050043426
-0.16318509 -0.03698862 -0.20670111 -0.03916442 0.124020666 -0.041340224 -0.06962564 0.08920785
-0.20887691 -0.13272387 0.023933813 -0.09791105 0.030461216 -0.060922433 0.22628333 0.15665768
-0.08703205 0.03916442 0.11314166 -0.045691825 0.026109613 0.10008685 0.03481282 -0.03481282
0.0043516024 -0.08050464 0.07615304 -0.10661426 0.047867626 -0.10661426 0.15230608 -0.07832884
0.15230608 0.06309824 0.2045253 -0.14577869 0.03698862 0.05657083 0.24151394 0.21105272
-0.13272387 0.15665768 -0.05439503 0.104438454 0.13489968 0.03481282 -0.10879006 0.20234951
0.119669065 -0.26109615 0.008703205 0.06527404 -0.13707547 0.14795448 0.1805915 0.1784157
0.15448189 -0.028285416 0.13054807 -0.1740641 -0.08485625 -0.07832884 -0.1871189 0.13707547
0.24151394 0.07832884 0.045691825 -0.041340224 -0.050043426 -0.12619647 0.021758012 0.117493264
-0.06309824 -0.047867626 0.045691825 0.15013029 -0.03698862 -0.10661426 0.104438454 -0.06962564
-0.023933813 0.117493264 -0.11096586 -0.010879006 0.05439503 -0.05439503 -0.20670111 0.0065274034
-0.117493264 -0.026109613 0.15883349 -0.14360288 0.20234951 -0.08050464 0.0043516024 0.030461216
-0.030461216 0.030461216 0.15230608 0.09573525 0.058746632 -0.058746632 0.060922433 0.021758012
-0.11314166 -0.013054807 -0.10661426 -0.1740641 0.20234951 0.13925128 -0.008703205 0.1805915
-0.08703205 -0.052219227 0.15230608 0.2001737 0.14795448 0.13054807 0.124020666 0.013054807
0.14795448 -0.08703205 -0.16318509 -0.27632675 0.2045253 0.052219227 -0.1762399 -0.1697125
-0.23063493 0.041340224 -0.045691825 0.052219227 0.06309824 0.117493264 0.15448189 -0.12619647
0.104438454 0.115317464 0.21758012 -0.052219227 0.008703205 -0.030461216 0.104438454 0.16318509
-0.1914705 0.045691825 -0.008703205 0.121844865 0.06527404 -0.0043516024 -0.124020666 -0.047867626
0.08485625 0.24151394 0.124020666 0.06309824 -0.013054807 0.07615304 -0.028285416 -0.03481282
0.015230608 -0.06309824 -0.050043426 -0.08920785 0.23281074 -0.1914705 0.10008685 -0.043516025
-0.03698862 -0.15883349 0.08703205 0.010879006 0.021758012 -0.06744984 0.15230608 -0.1827673
-0.15230608 0.0 -0.13489968 0.06527404 0.10008685 -0.15013029 -0.052219227 -0.043516025
0.023933813 -0.0065274034 -0.060922433 -0.13925128 0.09573525 -0.09355945 -0.07180144 0.19799791
-0.08050464 -0.07615304 0.028285416 -0.15013029 -0.07615304 -0.08703205 -0.03698862 0.14795448
0.06527404 -0.041340224 0.07832884 -0.06527404 0.08268045 0.041340224 -0.14577869 -0.08050464
0.12837227 -0.14360288 -0.124020666 -0.1653609 -0.10008685 0.21105272 0.05439503 0.12619647
0.043516025 -0.0043516024 0.060922433 -0.06527404 -0.1653609 0.028285416 -0.14577869 0.13925128
0.14577869 0.08703205 0.09138365 0.08703205 0.03263702 0.0021758012 -0.09138365 -0.026109613
0.124020666 -0.27197516 0.2045253 0.26979935 0.24151394 -0.07180144 0.14795448 -0.08920785
00000000: 35e6 21c9 da0f 6d6d 3875 0ca1 499a 58e9
00000010: b5ef a1ee 39ed e029 a0c3 0bd3 0ee4 6848
00000020: d812 34eb 0c2e 10f0 02db 23cf 16cf 46dc
00000030: 461d 5ebd 111a 6f61 c348 e730 3e10 ce5d
00000040: 3788 041e c144 5352 47f3 3cb0 d9dc aa3f
00000050: 6f24 15ed e9c6 0a36 e3ea 1545 efcf 30e0
00000060: f536 cdfb 19e7 a103 caf4 49be 5ddb 020e
00000070: f20e 462c 1be5 1c0a ccfa cfb0 5d40 fc53
00000080: d8e8 465c 443c 3906 44d8 b581 5e18 afb2
00000090: 9613 eb18 1d36 47c6 3035 64e8 04f2 304b
000000a0: a815 fc38 1efe c7ea 276f 391d fa23 f3f0
000000b0: 07e3 e9d7 6ba8 2eec efb7 2805 0ae1 46ac
000000c0: ba00 c21e 2ebb e8ec 0bfd e4c0 2cd5 df5b
000000d0: dbdd 0dbb ddd8 ef44 1eed 24e2 2613 bddb
000000e0: 3bbe c7b4 d261 193a 14fe 1ce2 b40d bd40
000000f0: 4328 2a28 0f01 d6f4 3983 5e7c 6fdf 44d7

model/batch_normalization_7/FusedBatchNormV3;model/conv2d_7/Conv2D/ReadVariableOp;model/conv2d_7/Conv2D;model/batch_normalization_9/FusedBatchNormV3 i1 [15, 3, 3, 15] scale=0.0021729118 zero_point=0
0.06518735 -0.1282018 0.0065187356 -0.09995394 -0.14558509 -0.08691647 -0.119510144 0.10429977
0.019556206 0.0 0.21729118 -0.0065187356 -0.019556206 0.18904333 -0.15210383 -0.0065187356
0.021729117 -0.08039773 0.058668617 -0.047804058 -0.091262296 -0.0043458235 -0.119510144 -0.19556206
0.015210383 0.08039773 0.047804058 -0.15862256 -0.07822482 -0.10429977 0.06518735 0.0065187356
0.026074942 0.06518735 -0.056495707 -0.271614 -0.08039773 -0.17817877 -0.10647268 0.052149884
0.08691647 0.030420765 0.08257065 -0.008691647 0.12602888 0.054322794 0.13906635 0.019556206
-0.271614 0.10864559 0.09995394 -0.021729117 -0.06736027 0.1282018 -0.17600586 0.0065187356
0.091262296 -0.089089386 -0.093435206 -0.13906635 -0.030420765 0.09778103 -0.017383294 0.23032865
-0.013037471 -0.06084153 -0.06518735 0.2194641 0.15210383 -0.10429977 0.0043458235 -0.25205776
0.17600586 0.16079547 0.058668617 0.026074942 -0.015210383 -0.010864559 -0.0065187356 -0.0369395
0.0065187356 0.023902029 0.073879 0.23032865 0.047804058 0.119510144 -0.1108185 0.023902029
0.06301444 -0.0021729118 -0.18687041 -0.08257065 -0.021729117 0.12385597 0.19338915 -0.15862256
0.03911241 0.089089386 0.117337234 -0.08257065 -0.115164325 0.043458235 -0.16079547 -0.06084153
-0.12168306 -0.008691647 0.073879 0.08039773 0.03911241 0.1108185 -0.015210383 0.12168306
0.047804058 0.24771194 0.23684739 -0.19990788 0.115164325 0.19990788 0.2020808 -0.026074942
0.147758 -0.07605191 -0.19556206 -0.1673142 -0.24771194 0.06301444 -0.06301444 -0.13254762
-0.10647268 -0.117337234 -0.1651413 -0.06301444 -0.026074942 0.0021729118 0.06084153 0.021729117
-0.026074942 0.15644965 0.09778103 -0.19121623 -0.21294536 0.2042537 0.13254762 -0.07822482
0.119510144 0.052149884 0.04997697 0.008691647 -0.14558509 -0.093435206 0.019556206 0.010864559
-0.06953318 0.08474356 0.047804058 0.08691647 -0.21294536 0.22598283 0.19556206 -0.047804058
0.1673142 -0.21294536 0.0043458235 -0.18035167 -0.10647268 -0.06953318 0.21294536 -0.15427673
-0.12385597 -0.15210383 -0.017383294 0.14558509 -0.2042537 -0.056495707 0.04997697 -0.117337234
0.0021729118 0.13689344 -0.054322794 -0.028247854 -0.21294536 -0.08691647 -0.028247854 -0.18687041
0.091262296 0.073879 -0.017383294 -0.023902029 0.015210383 0.032593675 -0.013037471 0.03476659
-0.119510144 0.03476659 0.23467447 0.10864559 0.19773497 -0.073879 0.1651413 -0.015210383
-0.112991415 -0.054322794 -0.13906635 0.14993091 -0.10429977 0.20642662 -0.0021729118 -0.2607494
0.1108185 -0.0043458235 0.03911241 0.045631148 0.052149884 -0.14341217 0.089089386 0.2042537
-0.03911241 -0.032593675 0.221637 0.0369395 -0.18687041 0.112991415 0.093435206 -0.03911241
0.21294536 0.03476659 0.1673142 -0.021729117 -0.12385597 0.19121623 -0.115164325 -0.112991415
-0.1303747 -0.19990788 -0.15210383 0.015210383 0.056495707 0.19338915 -0.22598283 0.021729117
-0.06736027 -0.03911241 -0.15427673 0.17166004 0.030420765 0.15644965 0.07170609 -0.08691647
0.1673142 0.13689344 0.15644965 0.1282018 0.041285325 -0.1303747 -0.0043458235 0.22380991
00000000: 1ec5 03d2 bdd8 c930 0900 64fd f757 bafd
00000010: 0adb 1bea d6fe c9a6 0725 16b7 dcd0 1e03
00000020: 0c1e e683 dbae cf18 280e 26fc 3a19 4009
00000030: 8332 2ef6 e13b af03 2ad7 d5c0 f22d f86a
00000040: fae4 e265 46d0 028c 514a 1b0c f9fb fdef
00000050: 030b 226a 1637 cd0b 1dff aada f639 59b7
00000060: 1229 36da cb14 b6e4 c8fc 2225 1233 f938
00000070: 1672 6da4 355c 5df4 44dd a6b3 8e1d e3c3
00000080: cfca b4e3 f401 1c0a f448 2da8 9e5e 3ddc
00000090: 3718 1704 bdd5 0905 e027 1628 9e68 5aea
000000a0: 4d9e 02ad cfe0 62b9 c7ba f843 a2e6 17ca
000000b0: 013f e7f3 9ed8 f3aa 2a22 f8f5 070f fa10
000000c0: c910 6c32 5bde 4cf9 cce7 c045 d05f ff88
000000d0: 33fe 1215 18be 295e eef1 6611 aa34 2bee
000000e0: 6210 4df6 c758 cbcc c4a4 ba07 1a59 980a
000000f0: e1ee b94f 0e48 21d8 4d3f 483b 13c4 fe67

model/batch_normalization_8/FusedBatchNormV3;model/conv2d_8/Conv2D/ReadVariableOp;model/conv2d_8/Conv2D;model/batch_normalization_9/FusedBatchNormV3 i1 [15, 3, 3, 15] scale=0.0021759926 zero_point=0
-0.00870397 0.05657581 -0.13708754 -0.23065521 0.10009566 0.13491154 0.036991876 0.06963176
0.00870397 -0.006527978 0.00870397 -0.1762554 -0.21759926 -0.021759925 0.045695845 -0.11315162
-0.03481588 -0.08268772 -0.026111912 0.023935918 0.13273555 -0.0021759926 0.032639887 0.22847922
-0.16972741 0.2023673 0.04351985 0.15449548 -0.13055955 0.11097562 -0.10444765 0.13926353
-0.026111912 -0.028287904 -0.15014349 0.21542327 0.060927793 0.18931136 0.1479675 0.065279774
0.045695845 -0.060927793 -0.036991876 0.045695845 -0.09139169 0.06310379 -0.019583933 0.004351985
0.026111912 0.010879963 -0.15014349 0.04134386 -0.026111912 -0.10009566 0.036991876 0.12185559
-0.052223824 0.12838356 0.052223824 -0.07180776 0.019583933 -0.19583933 0.054399814 0.1762554
0.0021759926 0.09139169 -0.18495937 -0.21542327 -0.10009566 -0.07180776 0.07180776 0.2654711
0.11097562 0.093567684 -0.0021759926 -0.10444765 0.115327604 -0.2632951 0.0 0.06310379
0.115327604 -0.065279774 0.24371117 -0.10227165 -0.03481588 -0.032639887 0.15449548 -0.06745577
0.08051173 -0.12838356 -0.2350072 0.06963176 -0.07398375 0.10879963 0.089215696 0.06310379
-0.08268772 -0.097919665 -0.036991876 0.026111912 -0.036991876 -0.03481588 -0.07398375 0.12838356
-0.03481588 0.23935919 0.106623635 -0.097919665 0.10227165 0.052223824 0.11097562 0.10879963
0.07398375 -0.22630323 -0.021759925 -0.026111912 -0.06310379 -0.13273555 0.2045433 0.019583933
0.10227165 0.006527978 0.18713537 -0.07615974 -0.030463897 -0.22847922 -0.18713537 -0.18495937
0.052223824 -0.06963176 -0.093567684 -0.16102345 0.03481588 -0.1740794 -0.14143951 -0.004351985
-0.054399814 -0.19583933 -0.16102345 0.0021759926 0.07615974 -0.045695845 0.004351985 0.15231948
0.12185559 -0.060927793 -0.1175036 -0.13273555 0.23935919 0.1175036 0.15014349 -0.026111912
-0.0021759926 0.115327604 -0.030463897 -0.15449548 -0.030463897 -0.1175036 -0.1457915 -0.00870397
-0.1740794 0.17190342 0.032639887 -0.01740794 0.11967959 0.08268772 -0.03481588 0.028287904
-0.028287904 0.07615974 0.089215696 0.13273555 0.04351985 -0.021759925 -0.015231948 0.11967959
-0.039167866 -0.15884747 0.019583933 -0.15449548 0.015231948 -0.12620758 0.26982307 -0.047871836
-0.019583933 -0.18931136 -0.23065521 0.10879963 0.11097562 -0.10227165 0.0 0.015231948
-0.01740794 -0.07833573 -0.0021759926 0.05004783 -0.045695845 0.17190342 0.093567684 -0.08268772
0.17190342 0.115327604 -0.08051173 0.20019132 -0.05004783 -0.07833573 -0.03481588 -0.065279774
-0.019583933 0.15884747 0.09574367 0.03481588 -0.23283121 0.06310379 -0.1740794 -0.14143951
0.2632951 -0.07833573 -0.089215696 0.026111912 -0.1175036 0.18278338 -0.07398375 -0.1479675
0.004351985 0.0 -0.20019132 -0.045695845 -0.028287904 0.27199906 -0.045695845 -0.0587518
-0.106623635 0.23065521 0.09574367 -0.19148734 -0.04134386 -0.0021759926 0.23283121 0.2023673
-0.04351985 0.028287904 0.0870397 0.05004783 -0.036991876 0.019583933 -0.04351985 -0.03481588
-0.05657581 -0.04351985 -0.023935918 0.1175036 0.015231948 0.16102345 -0.06745577 -0.16755143
00000000: fc1a c196 2e3e 1120 04fd 04af 9cf6 15cc
00000010: f0da f40b 3dff 0f69 b25d 1447 c433 d040
00000020: f4f3 bb63 1c57 441e 15e4 ef15 d61d f702
00000030: 0c05 bb13 f4d2 1138 e83b 18df 09a6 1951
00000040: 012a ab9d d2df 217a 332b ffd0 3587 001d
00000050: 35e2 70d1 f0f1 47e1 25c5 9420 de32 291d
00000060: dad3 ef0c eff0 de3b f06e 31d3 2f18 3332
00000070: 2298 f6f4 e3c3 5e09 2f03 56dd f297 aaab
00000080: 18e0 d5b6 10b0 bffe e7a6 b601 23eb 0246
00000090: 38e4 cac3 6e36 45f4 ff35 f2b9 f2ca bdfc
000000a0: b04f 0ff8 3726 f00d f323 293d 14f6 f937
000000b0: eeb7 09b9 07c6 7cea f7a9 9632 33d1 0007
000000c0: f8dc ff17 eb4f 2bda 4f35 db5c e9dc f0e2
000000d0: f749 2c10 951d b0bf 79dc d70c ca54 debc
000000e0: 0200 a4eb f37d ebe5 cf6a 2ca8 edff 6b5d
000000f0: ec0d 2817 ef09 ecf0 e6ec f536 074a e1b3

model/batch_normalization_9/FusedBatchNormV3;model/conv2d_9/Conv2D/ReadVariableOp;model/conv2d_9/Conv2D i1 [15, 3, 3, 15] scale=0.0021766739 zero_point=0
0.15236717 -0.07836026 -0.06312354 -0.054416846 0.008706695 0.03265011 0.06312354 -0.16325054
0.121893734 -0.15454385 -0.05659352 0.041356802 -0.0021766739 0.071830235 -0.16978057 -0.047886826
-0.008706695 -0.2568475 -0.25031748 -0.02829676 -0.12842375 0.0065300213 0.019590065 0.100127
-0.14583714 0.01741339 -0.1828406 -0.121893734 0.04571015 -0.03265011 -0.041356802 -0.06747689
-0.019590065 -0.06965356 0.0914203 0.18501727 0.23943412 -0.10665702 -0.14801382 0.0108833695
0.16760388 0.124070406 0.10883369 -0.09577365 0.06747689 -0.14366047 -0.1501905 0.0914203
0.21113737 -0.082713604 0.17195724 0.25031748 -0.17631058 0.20896068 0.097950324 0.18937063
0.1414838 0.1501905 0.019590065 0.07618359 0.0108833695 0.10448034 0.11754039 0.16760388
0.124070406 0.21549071 0.111010365 0.14583714 -0.008706695 0.10883369 0.0065300213 0.111010365
0.21549071 0.15236717 0.037003454 -0.087066956 0.13930713 -0.013060043 0.22202073 -0.030473433
0.25031748 0.07618359 0.16107386 0.25467083 0.12842375 0.0914203 -0.013060043 0.08924363
0.11754039 -0.111010365 0.05659352 -0.13060044 -0.026120085 0.26120088 0.047886826 0.21766739
-0.14801382 -0.17195724 -0.08924363 -0.07618359 -0.02829676 0.25031748 -0.200254 0.14583714
0.015236717 -0.13495378 0.14583714 0.060946867 0.030473433 0.11536372 -0.04571015 0.0021766739
0.06312354 -0.17413391 -0.200254 0.021766739 0.10883369 0.20243067 0.21113737 0.05224017
0.08924363 0.023943413 -0.124070406 -0.06965356 -0.05224017 0.06747689 0.03918013 0.03918013
0.026120085 -0.15236717 0.21113737 0.18937063 0.07836026 -0.015236717 -0.06747689 -0.13060044
-0.0500635 -0.16542721 0.0043533477 -0.06312354 0.06965356 0.043533478 -0.041356802 0.06530022
-0.18719395 0.11318704 0.0021766739 -0.021766739 -0.0065300213 0.07400691 -0.23943412 -0.05224017
-0.16978057 0.15454385 0.02829676 -0.07618359 0.07836026 -0.03482678 -0.05224017 0.11536372
-0.06530022 -0.087066956 -0.17195724 -0.24378747 0.13930713 -0.14366047 0.17413391 -0.008706695
-0.10448034 -0.13495378 -0.021766739 0.09359697 0.20896068 0.041356802 0.097950324 0.060946867
-0.1414838 -0.043533478 0.08053693 0.10883369 -0.06747689 0.060946867 0.08053693 -0.13713045
0.22855075 0.06312354 0.13930713 0.05224017 0.15672052 -0.1915473 -0.14583714 -0.054416846
-0.026120085 -0.10883369 0.21549071 0.04571015 -0.041356802 -0.1501905 0.015236717 -0.19372398
0.008706695 0.18066393 0.11536372 0.16760388 0.06747689 -0.1414838 -0.015236717 -0.0914203
0.12842375 0.0914203 -0.021766739 -0.008706695 -0.10665702 -0.21331404 0.07618359 0.026120085
0.041356802 0.0500635 0.04571015 -0.17631058 0.0108833695 0.10230367 0.14801382 0.019590065
-0.0043533477 -0.2329041 -0.08053693 0.10448034 -0.037003454 -0.08053693 -0.2677309 0.054416846
-0.07836026 0.041356802 0.04571015 0.13930713 -0.13060044 0.08053693 -0.03482678 -0.03482678
0.20678401 0.054416846 0.047886826 -0.23508078 0.041356802 0.10230367 0.15236717 -0.06965356
-0.0021766739 0.21331404 -0.07836026 -0.041356802 -0.023943413 -0.037003454 0.06312354 0.10883369
00000000: 46dc e3e7 040f 1db5 38b9 e613 ff21 b2ea
00000010: fc8a 8df3 c503 092e bd08 acc8 15f1 ede1
00000020: f7e0 2a55 6ecf bc05 4d39 32d4 1fbe bb2a
00000030: 61da 4f73 af60 2d57 4145 0923 0530 364d
00000040: 3963 3343 fc32 0333 6346 11d8 40fa 66f2
00000050: 7323 4a75 3b2a fa29 36cd 1ac4 f478 1664
00000060: bcb1 d7dd f373 a443 07c2 431c 0e35 eb01
00000070: 1db0 a40a 325d 6118 290b c7e0 e81f 1212
00000080: 0cba 6157 24f9 e1c4 e9b4 02e3 2014 ed1e
00000090: aa34 01f6 fd22 92e8 b247 0ddd 24f0 e835
000000a0: e2d8 b190 40be 50fc d0c2 f62b 6013 2d1c
000000b0: bfec 2532 e11c 25c1 691d 4018 48a8 bde7
000000c0: f4ce 6315 edbb 07a7 0453 354d 1fbf f9d6
000000d0: 3b2a f6fc cf9e 230c 1317 15af 052f 4409
000000e0: fe95 db30 efdb 8519 dc13 1540 c425 f0f0
000000f0: 5f19 1694 132f 46e0 ff62 dced f5ef 1d32

model/batch_normalization_10/FusedBatchNormV3;model/conv2d_10/Conv2D/ReadVariableOp;model/conv2d_10/Conv2D;model/batch_normalization_15/FusedBatchNormV3 i1 [30, 3, 3, 15] scale=0.0021756447 zero_point=0
0.06526934 0.1218361 0.023932092 -0.23279399 0.0630937 0.0 -0.058742408 0.089201435
0.06091805 0.21974012 0.023932092 -0.13053869 -0.06526934 0.0826745 0.058742408 -0.18275416
0.18057851 -0.034810316 0.017405158 0.030459026 -0.04133725 -0.043512896 -0.089201435 0.19798367
-0.010878224 0.058742408 0.030459026 -0.023932092 0.05439112 -0.023932092 0.047864184 0.2284427
0.030459026 0.04133725 -0.09355272 -0.058742408 0.023932092 0.0 -0.09137708 0.0
-0.03698596 0.13924126 -0.050039828 0.25890172 0.017405158 -0.17405158 -0.006526934 0.09137708
-0.08485015 -0.03698596 0.043512896 0.14794384 -0.12401175 -0.071796276 0.015229513 -0.04133725
0.08049885 0.117484815 0.019580802 0.056566764 -0.19145674 -0.023932092 0.18275416 -0.10878224
0.16317336 -0.006526934 0.08485015 0.0630937 -0.09790401 -0.015229513 0.11966046 -0.010878224
-0.06744499 0.010878224 0.0043512895 -0.106606595 0.23932092 -0.0021756447 -0.08485015 -0.050039828
0.2676043 0.010878224 -0.21103755 -0.07397192 0.1022553 -0.21974012 -0.013053868 0.050039828
-0.11095788 0.13271433 0.09137708 0.04133725 -0.08049885 -0.06091805 -0.18057851 -0.06744499
0.117484815 0.071796276 -0.08702579 0.17187594 -0.11966046 0.03263467 0.25890172 -0.019580802
-0.047864184 0.12401175 0.0826745 0.1697003 0.21974012 0.071796276 0.11313353 -0.15447077
0.21538883 -0.22191577 0.052215472 -0.010878224 -0.05439112 -0.015229513 -0.07832321 -0.026107736
-0.04133725 0.07832321 -0.09137708 0.06091805 -0.026107736 0.18275416 0.047864184 -0.117484815
-0.06091805 -0.13053869 -0.1457682 -0.04133725 -0.017405158 0.08049885 -0.07832321 0.019580802
0.18275416 -0.039161604 0.08702579 0.100079656 0.22626705 -0.10878224 0.0021756447 0.052215472
0.13053869 -0.0021756447 -0.0043512895 -0.034810316 -0.15664642 -0.2045106 0.0043512895 0.16752465
0.050039828 -0.0826745 -0.07397192 0.09355272 -0.15882206 -0.21321319 -0.019580802 0.14794384
0.08049885 0.056566764 -0.20886189 -0.17840287 -0.17840287 0.263253 -0.2284427 0.05439112
0.13706562 -0.06526934 0.1414169 -0.13053869 0.0826745 -0.23061834 0.19145674 -0.0043512895
-0.13924126 -0.008702579 -0.056566764 -0.050039828 0.17622723 -0.013053868 0.008702579 0.0021756447
0.056566764 -0.071796276 -0.010878224 0.11530917 -0.20886189 -0.026107736 -0.19580802 -0.023932092
0.17622723 0.27195558 0.1218361 -0.17622723 -0.06091805 -0.16752465 0.07832321 0.2567261
0.1414169 -0.0630937 -0.2480235 -0.058742408 0.09355272 0.04568854 -0.058742408 -0.07832321
0.06526934 -0.06526934 -0.1457682 -0.071796276 -0.0021756447 -0.07832321 -0.030459026 0.052215472
-0.09790401 -0.0021756447 0.050039828 0.26977995 0.13706562 -0.08702579 -0.17840287 0.1022553
0.023932092 0.015229513 0.06091805 0.2045106 -0.019580802 -0.08702579 -0.11966046 0.17840287
-0.034810316 0.034810316 0.006526934 -0.13706562 0.06744499 0.04133725 0.08049885 -0.019580802
0.015229513 0.23496963 0.021756448 0.12401175 -0.13053869 -0.04133725 -0.010878224 -0.10878224
0.017405158 -0.17622723 -0.08049885 -0.16752465 0.10878224 -0.11530917 0.028283382 0.0021756447
00000000: 1e38 0b95 1d00 e529 1c65 0bc4 e226 1bac
00000010: 53f0 080e edec d75b fb1b 0ef5 19f5 1669
00000020: 0e13 d5e5 0b00 d600 ef40 e977 08b0 fd2a
00000030: d9ef 1444 c7df 07ed 2536 091a a8f5 54ce
00000040: 4bfd 271d d3f9 37fb e105 02cf 6eff d9e9
00000050: 7b05 9fde 2f9b fa17 cd3d 2a13 dbe4 ade1
00000060: 3621 d84f c90f 77f7 ea39 264e 6521 34b9
00000070: 639a 18fb e7f9 dcf4 ed24 d61c f454 16ca
00000080: e4c4 bded f825 dc09 54ee 282e 68ce 0118
00000090: 3cff fef0 b8a2 024d 17da de2b b79e f744
000000a0: 251a a0ae ae79 9719 3fe2 41c4 2696 58fe
000000b0: c0fc e6e9 51fa 0401 1adf fb35 a0f4 a6f5
000000c0: 517d 38af e4b3 2476 41e3 8ee5 2b15 e5dc
000000d0: 1ee2 bddf ffdc f218 d3ff 177c 3fd8 ae2f
000000e0: 0b07 1c5e f7d8 c952 f010 03c1 1f13 25f7
000000f0: 076c 0a39 c4ed fbce 08af dbb3 32cb 0d01

model/batch_normalization_11/FusedBatchNormV3;model/conv2d_11/Conv2D/ReadVariableOp;model/conv2d_11/Conv2D;model/batch_normalization_15/FusedBatchNormV3 i1 [30, 3, 3, 30] scale=0.0015391189 zero_point=0
0.01385207 -0.12005128 -0.16160749 0.10004273 0.12620775 -0.052330043 -0.023086784 -0.11851216
0.0123129515 -0.0815733 0.007695595 0.08772978 -0.14929454 -0.14159894 0.024625903 -0.009234713
0.0 -0.064642996 -0.11081656 -0.03078238 -0.15852925 0.06772123 -0.09234714 -0.0046173567
0.1138948 -0.083112426 -0.033860616 -0.06002564 -0.093886256 -0.18623339 0.15083365 0.050790925
0.04309533 0.06310388 0.020008545 -0.036938854 0.01539119 0.075416826 -0.01385207 -0.066182114
0.075416826 -0.10773832 -0.07079947 0.04309533 0.023086784 0.18161604 0.084651545 -0.13544247
0.15852925 0.016930308 0.08772978 -0.052330043 -0.04309533 -0.11697304 0.047712687 0.04001709
-0.10312097 0.1385207 0.06310388 -0.08003418 0.12774687 0.10773832 -0.050790925 0.083112426
-0.050790925 0.018469427 -0.16776396 -0.020008545 -0.1138948 0.052330043 0.16160749 -0.07849506
-0.14159894 0.18623339 0.04617357 0.050790925 0.06156476 -0.024625903 -0.0123129515 -0.16160749
0.050790925 -0.032321498 0.05848652 0.064642996 -0.0015391189 0.08003418 -0.016930308 0.009234713
0.0569474 0.13390335 -0.050790925 -0.016930308 0.02770414 -0.15852925 0.024625903 -0.038477972
0.06156476 -0.14467718 -0.020008545 0.020008545 0.16006836 0.020008545 -0.023086784 -0.020008545
0.08772978 -0.11081656 -0.038477972 -0.032321498 -0.13698159 0.05386916 -0.035399735 -0.007695595
-0.095425375 -0.1462163 0.09234714 -0.04463445 -0.07079947 0.10927744 0.084651545 0.041556213
-0.0123129515 0.09080802 0.07233859 0.035399735 -0.05540828 -0.0030782379 -0.009234713 0.010773833
-0.0061564757 -0.009234713 0.0815733 -0.14775541 -0.036938854 -0.14929454 0.11235568 -0.11235568
0.049251806 -0.1215904 -0.07849506 0.02924326 0.10004273 -0.08619066 0.07233859 -0.1631466
0.0892689 -0.12005128 -0.08003418 -0.04309533 0.02924326 -0.18931162 -0.06002564 0.01539119
0.0569474 0.13236423 -0.17238133 0.023086784 -0.035399735 0.15852925 0.033860616 0.018469427
-0.09850361 0.04001709 -0.0030782379 0.083112426 -0.083112426 -0.049251806 -0.06156476 -0.0569474
-0.18161604 0.035399735 0.115433924 0.10466009 0.0569474 0.0892689 0.047712687 -0.0015391189
-0.06002564 0.13544247 -0.064642996 0.009234713 0.06772123 0.06002564 -0.07079947 -0.14005983
0.064642996 -0.02770414 -0.024625903 -0.07849506 0.07079947 -0.035399735 0.05540828 0.115433924
-0.08619066 0.06156476 0.07079947 -0.07079947 -0.1631466 -0.020008545 0.10927744 -0.10927744
-0.10004273 -0.026165022 0.12620775 0.049251806 0.010773833 -0.04309533 0.0123129515 -0.09080802
0.020008545 -0.0046173567 0.0061564757 0.016930308 0.0 0.16930309 0.16930309 0.032321498
0.1308251 0.016930308 -0.1138948 0.14313807 0.0892689 0.07233859 0.0123129515 -0.18007691
0.023086784 -0.02770414 0.01385207 -0.016930308 0.05386916 -0.0569474 0.010773833 0.08003418
0.12005128 0.06310388 0.10004273 0.12005128 -0.06156476 -0.17699867 0.12005128 -0.10466009
0.0 0.02770414 0.0046173567 -0.010773833 -0.07079947 -0.14313807 0.0892689 -0.09234714
0.17392044 -0.09080802 0.15545101 -0.016930308 0.032321498 0.04001709 -0.01385207 -0.12928599
00000000: 09b2 9741 52de f1b3 08cb 0539 9fa4 10fa
00000010: 00d6 b8ec 992c c4fd 4aca ead9 c387 6221
00000020: 1c29 0de8 0a31 f7d5 31ba d21c 0f76 37a8
00000030: 670b 39de e4b4 1f1a bd5a 29cc 5346 df36
00000040: df0c 93f3 b622 69cd a479 1e21 28f0 f897
00000050: 21eb 262a ff34 f506 2557 dff5 1299 10e7
00000060: 28a2 f30d 680d f1f3 39b8 e7eb a723 e9fb
00000070: c2a1 3ce3 d247 371b f83b 2f17 dcfe fa07
00000080: fcfa 35a0 e89f 49b7 20b1 cd13 41c8 2f96
00000090: 3ab2 cce4 1385 d90a 2556 900f e967 160c
000000a0: c01a fe36 cae0 d8db 8a17 4b44 253a 1fff
000000b0: d958 d606 2c27 d2a5 2aee f0cd 2ee9 244b
000000c0: c828 2ed2 96f3 47b9 bfef 5220 07e4 08c5
000000d0: 0dfd 040b 006e 6e15 550b b65d 3a2f 088b
000000e0: 0fee 09f5 23db 0734 4e29 414e d88d 4ebc
000000f0: 0012 03f9 d2a3 3ac4 71c5 65f5 151a f7ac

model/conv2d_12/Conv2D f4 [30, 1, 1, 15]
-0.14204669 -0.43675196 0.094410166 0.667842 -0.20555109 0.00025724442 0.30192277 0.4853256
-0.059376765 0.029970437 0.37638488 0.41923925 -0.26021677 0.3705554 -0.1842109 -0.24184918
-0.24455762 -0.12538406 -0.17606683 -0.15408345 0.23252805 -0.107758336 -0.342356 -0.5633174
0.1493081 -0.8083788 0.49366665 -0.119349085 0.095856175 -0.06282251 -0.11927886 0.18652406
-0.010097781 -0.33298728 -0.2379585 0.029536514 0.28877118 0.37611416 0.16139534 0.18010919
0.32724988 0.15122224 0.42348376 -0.34168696 -0.51061773 0.015306621 -0.07677823 -0.01216063
0.1471974 -0.35049114 0.04677212 -0.31070277 -0.33383086 0.037084498 0.34143507 0.51367253
0.38919514 -0.23107627 -0.6134102 0.15225977 0.18007503 -0.2379693 -0.21545708 0.3039586
-0.14169505 0.06606291 0.019332595 0.17245871 0.41109794 -0.058184486 -0.46274945 0.13492417
-0.5260048 0.02542026 -0.16084653 -0.30354083 0.5059334 0.43567783 -0.48822948 0.41927603
-0.5115619 0.14925931 0.20333998 0.31806782 -0.41801462 -0.0057071135 -0.50722647 -0.19844776
-0.087992154 0.5185391 0.14562151 0.6058643 0.036312103 -0.34830478 -0.28899294 -0.06769673
-0.7773434 -0.27018845 0.39680448 0.66718054 0.32555184 0.5242013 0.754881 0.17869766
0.09125868 -0.13852933 -0.075756595 -0.75900286 -0.46020576 0.45027816 -0.14077143 -0.13892363
-0.74033743 0.18689393 0.676553 -0.20672166 -0.31253234 -0.16932712 0.06576736 -0.061760694
0.16664803 0.13046284 -0.69317913 0.24772516 0.34832847 0.13661021 -0.26211658 0.21390797
0.015407803 0.055540763 0.16876818 0.6571471 -0.36644068 0.027193207 -0.48404413 0.1334231
-0.441608 0.103967786 -0.008481064 -0.4257235 -0.6804308 0.55953103 0.0020943065 -0.54469097
-0.030793719 0.2917087 0.14682586 -0.023728205 0.4585709 -0.42732787 -0.44048312 0.61243314
-0.03859237 -0.1288675 0.34261796 -0.11176516 0.45110872 0.333686 -0.44050187 -0.8003391
-0.54537714 0.10723428 -0.089745946 0.100600615 0.012024217 -0.032672215 0.17896673 -0.15941507
-0.3168628 -0.3531494 -0.0083476845 -0.59076715 0.1070874 0.11208088 0.07196684 0.55462146
0.11123682 -0.3271738 0.13972282 -0.3069084 0.4872923 0.19922163 -0.13855727 0.074190326
-0.4742628 0.100702554 0.21956766 -0.23059207 -0.021871574 0.17879252 0.12909162 0.46768412
0.22362152 -0.12445347 0.111162454 -0.34824836 0.61558986 0.18931006 0.18006308 -0.25125915
0.78168964 -0.15038772 -0.6383668 0.2647779 0.561539 0.13579227 0.56518465 -0.28417727
0.34500495 -0.16780324 -0.8218227 -0.049772397 0.085163414 -0.06900199 0.25798726 -0.28211328
0.24079625 0.41537035 0.15820797 -0.3772101 0.24055344 0.41969126 0.08087521 0.35863146
-0.3192711 -0.054024376 0.14033964 0.20784657 -0.70842755 -0.031214895 -0.09626074 -0.1628955
0.30349034 0.47081044 -0.09114991 0.41071603 -0.025409773 0.48307797 0.4692687 0.37261033
0.2002363 0.2902631 0.47076637 -0.35425887 -0.25191793 0.14781174 0.2959125 -0.061734058
-0.21529326 -0.04942196 0.030653587 -0.44926146 0.06558543 -0.024983387 0.06120754 -0.18944317
00000000: b074 11be f49d dfbe 1e5a c13d b1f7 2a3f
00000010: fc7b 52be c3de 8639 9f95 9a3e 997c f83e
00000020: 0d35 73bd 9084 f53c 85b5 c03e 87a6 d63e
00000030: 223b 85be 70b9 bd3e c8a1 3cbe 50a7 77be
00000040: 506d 7abe ae64 00be dd4a 34be 0dc8 1dbe
00000050: d51b 6e3e 67b0 dcbd 4949 afbe 9235 10bf
00000060: 39e4 183e eaf1 4ebf e0c1 fc3e 4b6d f4bd
00000070: 3e50 c43d 17a9 80bd 7a48 f4bd 2a00 3f3e
00000080: 2a71 25bc 4f7d aabe 65ab 73be 8ff6 f13c
00000090: d1d9 933e 0992 c03e d244 253e 8b6e 383e
000000a0: 4c8d a73e 01da 1a3e ddd2 d83e 98f1 aebe
000000b0: d8b7 02bf 9fc8 7a3c e83d 9dbd 613d 47bc
000000c0: eaba 163e 9373 b3be 1f94 3f3d 6f14 9fbe
000000d0: e1eb aabe eae5 173d 94d0 ae3e 0b80 033f
000000e0: 9644 c73e 429f 6cbe 7308 1dbf fce9 1b3e
000000f0: 9765 383e 39ae 73be c8a0 5cbe 76a0 9b3e
00000100: 8218 11be fe4b 873d 645f 9e3c 0499 303e
00000110: 6e7b d23e db52 6ebd 7fed ecbe 9029 0a3e
00000120: 40a8 06bf 263e d03c f4b4 24be b469 9bbe
00000130: da84 013f 2a11 df3e 37f9 f9be 59ab d63e
00000140: b8f5 02bf 6fd7 183e 5b38 503e c9d9 a23e
00000150: 0306 d6be bd02 bbbb 98d9 01bf e435 4bbe
00000160: 3b35 b4bd fabe 043f ce1d 153e ec19 1b3f
00000170: 00bc 143d 0155 b2be e2f6 93be 95a4 8abd
00000180: faff 46bf 2456 8abe f529 cb3e 58cc 2a3f
00000190: bbae a63e 0e32 063f e23f 413f 85fc 363e
000001a0: d5e5 ba3d a2da 0dbe 4626 9bbd 034e 42bf
000001b0: 17a0 ebbe dc8a e63e 6326 10be ff41 0ebe
000001c0: c186 3dbf 1f61 3f3e 9432 2d3f d8ae 53be
000001d0: 3d04 a0be 1764 2dbe 0ab1 863d c8f8 7cbd
000001e0: c8a5 2a3e 0d98 053e 3074 31bf aaab 7d3e
000001f0: 1c58 b23e 8ce3 0b3e 2534 86be b10a 5b3e
00000200: 0271 7c3c b67e 633d 91d1 2c3e cb3a 283f
00000210: 1d9e bbbe 4ac4 de3c a2d4 f7be 11a0 083e
00000220: 721a e2be 10ed d43d 29f4 0abc 6ef8 d9be
00000230: b730 2ebf 6d3d 0f3f a240 093b de70 0bbf
00000240: 1c43 fcbc d85a 953e 8559 163e a761 c2bc
00000250: cec9 ea3e b8ca dabe 0187 e1be 6bc8 1c3f
00000260: 0813 1ebd d8f5 03be 9f6b af3e 22e5 e4bd
00000270: b9f7 e63e e4d8 aa3e 7689 e1be 06e3 4cbf
00000280: d69d 0bbf a59d db3d b9cc b7bd b207 ce3d
00000290: 3901 453c 4dd3 05bd 0e43 373e b43d 23be
000002a0: d73b a2be 00d0 b4be bac4 08bc 843c 17bf
000002b0: a450 db3d a98a e53d 5a63 933d acfb 0d3f
000002c0: 21d0 e33d 5383 a7be 8013 0f3e 1923 9dbe
000002d0: 607e f93e c100 4c3e f5e1 0dbe 19f1 973d
000002e0: 93d2 f2be 243d ce3d 58d6 603e 5420 6cbe
000002f0: 042c b3bc 6315 373e 9830 043e 4b74 ef3e
00000300: 0afd 643e 76e1 febd 24a9 e33d 9c4d b2be
00000310: 4c97 1d3f 7fda 413e 7562 383e 0aa5 80be
00000320: d01c 483f 3dff 19be 026c 23bf f890 873e
00000330: 05c1 0f3f 210d 0b3e f1af 103f af7f 91be
00000340: 7da4 b03e 9dd4 2bbe f962 52bf 24de 4bbd
00000350: 286a ae3d ea50 8dbd e816 843e 2771 90be
00000360: 4b93 763e 6cab d43e 4501 223e af21 c1be
00000370: a453 763e c6e1 d63e e7a1 a53d 8b9e b73e
00000380: 8077 a3be aa48 5dbd 32b5 0f3e bbd5 543e
00000390: 825b 35bf 61b6 ffbc 5a24 c5bd 14ce 26be
000003a0: 1663 9b3e 110e f13e ceac babd 5f49 d23e
000003b0: 2828 d0bc ff55 f73e fd43 f03e c8c6 be3e
000003c0: bf0a 4d3e 5d9d 943e 4a08 f13e 6b61 b5be
000003d0: 63fb 80be f65b 173e d881 973e dadc 7cbd
000003e0: d675 5cbe ae6e 4abd 3b1d fb3c 9905 e6be
000003f0: a751 863d f6a9 ccbc c2b4 7a3d 64fd 41be
